notebooks/dice/results/ipd_bs64_magic/run-4/params.npy (npy, 8128 bytes, 1 tensors)

array f4 [200, 2, 5]
000000 08 39 bf be 00 93 e8 be d0 7d f0 3e 88 62 99 3e
       -0.373482 -0.45424652 0.46970987 0.29957986
000010 d0 0e 6a be 50 31 f9 be b8 f9 fb 3e 6c 84 2c bf
       -0.22857213 -0.48670435 0.49213958 -0.6738956
000020 34 d0 2a 3f 50 79 6a 3e e3 ef a2 be 86 8d 83 bf
       0.6672394 0.2289784 -0.31823644 -1.0277565
000030 28 e3 e5 3e 70 6d 84 bd 9c 2b 57 be 74 24 50 be
       0.4489987 -0.06466186 -0.2101273 -0.20326406
000040 47 c1 94 3e 07 9f 8f be ac 1b bb 3e f1 c4 53 3e
       0.2905371 -0.28051016 0.3654455 0.20680596
000050 2f 2d a1 be 55 b0 b9 bf 94 a4 b2 3e e6 b7 2e bf
       -0.31479785 -1.4506937 0.34891188 -0.68249357
000060 3b ce 1f be 7a a9 70 3e 31 6d 90 3e 80 f9 c9 3c
       -0.15606014 0.2350215 0.28208306 0.024655104
000070 1c cb c2 3e 4c 86 1b 3e 70 8c c2 be 7d 93 c5 bf
       0.38045585 0.15187949 -0.3799777 -1.5435635
000080 8e b5 b7 3e 93 e4 6b bf 74 0a 4d be fe 53 a7 3e
       0.35880703 -0.9214565 -0.20023519 0.32681268
000090 f4 7a 8b 3e 89 80 2b 3e 3d 5a be 3e b3 0a e0 3d
       0.27242243 0.16748251 0.3717822 0.10939541
0000a0 f4 f9 0c bf a8 76 db bf a4 7d c8 3d ad 86 86 bf
       -0.550689 -1.7145586 0.09789589 -1.050985
0000b0 d3 70 82 be ca 46 0b 3f a8 49 64 3e 7e e5 f8 3e
       -0.25476703 0.5440489 0.22293723 0.4861259
0000c0 13 1b fb 3e 5b ec d6 3d 1d aa 03 bf 27 85 e9 bf
       0.49044093 0.104943 -0.5143145 -1.824376
0000d0 ee db 5a be bb d6 a7 bf 3a 29 56 be 8e 64 5b 3f
       -0.21372959 -1.3112406 -0.20914164 0.8570031
0000e0 3f 12 82 3e 1c d5 20 3f f3 84 23 3f d8 ec 2d 3d
       0.25404546 0.6282518 0.6387474 0.0424622
0000f0 b8 bb 10 bf 56 65 f5 bf 90 c7 7f 3d 2b 12 f9 bf
       -0.56536436 -1.917155 0.062446177 -1.945867
000100 de bc 05 be fa 69 58 3f ed 32 c8 be ac 91 01 3f
       -0.13060328 0.8453671 -0.39101353 0.506129
000110 60 c3 4c 3e 1e 9c 64 3d 3a ed 09 bf fa bf fd bf
       0.19996405 0.055812947 -0.53877604 -1.9824212
000120 99 6e 36 be a6 77 0b c0 d0 f6 16 be f4 2c 8a 3f
       -0.17815627 -2.1791778 -0.14742589 1.0794969
000130 94 32 f1 bd b5 ee 2f 3f f8 ec 4d 3e 48 59 6b bc
       -0.11777225 0.68723613 0.20109928 -0.014364548
000140 23 60 ef be 9a 61 03 c0 c8 65 8e be 3c c3 16 c0
       -0.46753034 -2.0528321 -0.27812028 -2.3556662
000150 38 01 2c be ac a8 90 3f 89 be 01 be f6 37 32 3f
       -0.1679734 1.1301475 -0.1267034 0.6961664
000160 58 db 21 bd f3 49 80 bc 81 71 e5 be 5c 37 06 c0
       -0.039515823 -0.015660262 -0.4481316 -2.0971289
000170 57 c0 8a be 38 cd 25 c0 a0 d5 7f be db 5e 9f 3f
       -0.2709987 -2.5906506 -0.24983835 1.2450823
000180 b6 7c ab be 58 f5 36 3f 00 f1 2f be 02 6e 88 bd
       -0.33493584 0.71468115 -0.17181778 -0.06661607
000190 29 49 da be 44 78 08 c0 8a 50 75 be 9c 3b 37 c0
       -0.42633942 -2.1323404 -0.23956504 -2.8630133
0001a0 44 9d 83 be 8c 09 ac 3f c3 2d 0b bf eb 42 3a 3f
       -0.25705922 1.3440413 -0.543667 0.7275836
0001b0 2d 00 ee be c8 da 38 be 9a 00 b1 be 2b 0b 0a c0
       -0.4648451 -0.18052208 -0.3457077 -2.1569316
0001c0 f8 b5 f5 bc 2d c1 3c c0 f8 ad 6b be 7c a0 a9 3f
       -0.029993996 -2.9492905 -0.23015583 1.3252101
0001d0 8d e8 41 bf aa 73 45 3f bc b3 72 bf 54 de 3d be
       -0.7574547 0.77129614 -0.948055 -0.18541843
0001e0 dd 9e 91 be 1a cf 0a c0 7a 42 bb 3e 15 32 3f c0
       -0.28441516 -2.1688905 0.36574155 -2.9874318
0001f0 7c 84 70 be 07 71 a8 3f 42 06 8c bf 10 ee 3d 3f
       -0.23488039 1.3159493 -1.093941 0.7419138
000200 b5 31 a8 bf 0b b4 8d be b6 ec 1b be b5 20 0b c0
       -1.3140169 -0.27676424 -0.15227017 -2.1738713
000210 52 ad 05 3f e7 5b 47 c0 f9 08 93 be c3 75 a8 3f
       0.5221759 -3.1149843 -0.28717783 1.3160938
000220 d2 f9 94 bf d8 5b 36 3f ae c2 b3 bf d7 32 96 be
       -1.1638739 0.7123389 -1.4043787 -0.29335663
000230 71 41 a2 bd 89 e4 08 c0 5b 3c 26 3f 38 6e 49 c0
       -0.07922638 -2.1389487 0.64935845 -3.1473522
000240 e8 12 a9 be 40 ad ac 3f c5 90 97 bf 1f 43 43 3f
       -0.33022237 1.3490372 -1.1841055 0.76274294
000250 0c 03 c0 bf e8 da ac be 20 42 25 3d 03 5b 07 c0
       -1.500093 -0.33760762 0.040346265 -2.11493
000260 ad dd 5e 3f 47 95 4d c0 57 cc 9f be 8e 03 b3 3f
       0.87057 -3.2122362 -0.31210586 1.398546
000270 86 c3 9c bf f6 f6 45 3f 73 26 d1 bf bf 0b b5 be
       -1.2247169 0.7732996 -1.6339859 -0.35360524
000280 a5 ed 2c 3e ed 76 04 c0 aa 6c 87 3f 8d 9f 4f c0
       0.16887529 -2.0697587 1.0580037 -3.2441132
000290 44 c4 ab be 69 42 b5 3f 37 9a a8 bf 38 59 62 3f
       -0.33548176 1.4160892 -1.3172063 0.88417387
0002a0 a7 38 d7 bf 35 2d b8 be c0 56 8d 3e 8d 93 ff bf
       -1.6814164 -0.3597199 0.27605247 -1.9966904
0002b0 ba 56 97 3f 1a 31 51 c0 83 27 d3 be 6a 85 be 3f
       1.1823342 -3.268622 -0.41241083 1.4884465
0002c0 ce 40 a3 bf 13 28 86 3f 8d 05 d8 bf 34 62 a5 be
       -1.2754152 1.048098 -1.6876694 -0.32301486
0002d0 8a 5e c4 3e a6 52 f6 bf 60 f2 a1 3f d9 02 53 c0
       0.38353378 -1.9243972 1.2652092 -3.2970488
0002e0 f7 8f ca be 6e ae c4 3f 76 6c a0 bf f2 de 88 3f
       -0.3956296 1.5365732 -1.25331 1.0693038
0002f0 d2 79 c9 bf 56 35 9f be 59 b2 15 3f 0d 01 f6 bf
       -1.5740302 -0.3109538 0.5847526 -1.9219071
000300 bc b9 b7 3f 62 91 57 c0 4a 1c e7 be 81 69 d4 3f
       1.4353557 -3.3682485 -0.4513877 1.6594697
000310 b8 a4 9c bf ba 1b 9a 3f c6 ff bb bf 8a 0e 84 be
       -1.2237768 1.2039711 -1.4687431 -0.25792342
000320 31 37 3c 3f 28 4f f0 bf 83 e7 a9 3f 5c 2b 5a c0
       0.73521715 -1.8774157 1.3273777 -3.4088964
000330 35 79 f2 be 2a 0e d2 3f 87 7f 97 bf e1 9a ab 3f
       -0.473581 1.6410573 -1.1835793 1.340664
000340 4f 2a b1 bf f5 17 86 be 5b ac 57 3f 1d 13 e3 bf
       -1.3841037 -0.26190153 0.8424737 -1.7740208
000350 2d 62 a5 3f 6a af 5b c0 53 55 ef be 03 f8 dc 3f
       1.2920586 -3.4325814 -0.46744785 1.7263187
000360 8e d4 a4 bf 86 89 b6 3f 1a 66 a4 bf 32 07 42 be
       -1.2877367 1.4260719 -1.2843659 -0.18948057
000370 29 42 81 3f 16 e8 d9 bf f2 4b a1 3f a0 ef 5e c0
       1.0098315 -1.7023952 1.2601302 -3.4833755
000380 bf 0e df be 94 fa e2 3f 65 d8 a2 bf 67 11 c9 3f
       -0.43565938 1.773272 -1.2722288 1.5708436
000390 28 49 a8 bf 66 8b db bd c2 d4 97 3f 86 54 de bf
       -1.3147326 -0.107199475 1.1861804 -1.7369545
0003a0 a6 76 ab 3f 90 4d 63 c0 9c a0 f9 be 26 3d e0 3f
       1.3395584 -3.551609 -0.48755348 1.7518661
0003b0 05 53 9e bf 24 68 e2 3f 06 3e b3 bf bf 22 0b be
       -1.2369086 1.7688031 -1.4003303 -0.13587473
0003c0 cc 69 a1 3f 36 c1 e4 bf e5 6e 9f 3f d0 16 65 c0
       1.2610412 -1.7871463 1.2455717 -3.5795174
0003d0 a0 4b f5 be a3 f7 f8 3f dc 8c a4 bf 48 11 f1 3f
       -0.4790926 1.9450573 -1.2855487 1.8833399
0003e0 a5 97 bb bf a8 c2 22 be 87 24 bd 3f 2d 7b e4 bf
       -1.4655653 -0.15894568 1.4776772 -1.785009
0003f0 14 f0 a6 3f 63 49 69 c0 7b c8 f4 be 63 1d 06 40
       1.3042016 -3.6451042 -0.47809204 2.0955436
