notebooks/dice/results/ipd_bs64_2inner_om/run-1/params_om.npy (npy, 8128 bytes, 1 tensors)

array f4 [200, 2, 1, 5]
00000000: c8e1 2abf 9499 823e 30c2 2dbe e735 96bd
00000010: e55c f3be 97ad e83d d92f 9ebd 160a 253e
00000020: 701a 6f3e 4ae5 20bf 6df2 1dbf fa06 e93d
00000030: 5df2 3cbe 5977 0bbf 40fb efbe 8ad2 0d3e
00000040: 9e30 b9be 688f 963e fcee 22be eb23 1fbf
00000050: 34e1 18bf 08a3 5cbc 76dc 1ebe d0f9 80bf
00000060: 9fe8 ebbe 61aa 353e 7bcf 16bf 5ee0 b13e
00000070: 44eb 27bf 292d 1dbf 0abb 0fbf eb20 9cbd
00000080: 76d3 a5bd 8e91 bbbf 2060 e8be 6166 6d3e
00000090: ad3e 42bf 1469 d13e 797c 97bf d14f 1bbf
000000a0: c5bd 04bf d28f 1ebe 1915 b03d 318e e8bf
000000b0: dfea e4be b330 a13e b106 63bf 6138 033f
000000c0: e8b5 cdbf 237d 19bf 803c f0be f70f 70be
000000d0: 65c5 613e b0c9 06c0 e142 e2be d7be c13e
000000e0: 701f 7cbf 8a6b 1a3f f94f fdbf d0a2 16bf
000000f0: 4ddc ccbe 9679 98be 1e4b bf3e b57e 15c0
00000100: be59 dfbe 1ae5 fb3e cf28 88bf ab25 343f
00000110: 44a2 0fc0 86d2 14bf c08b abbe 144f bebe
00000120: d55c fe3e 37c6 22c0 094a ddbe 3f44 1a3f
00000130: a422 91bf c510 483f 63f2 1ec0 3b14 13bf
00000140: 750f 70be 3b86 d7be 2267 223f 5da2 2dc0
00000150: d3a3 dabe 95a6 3c3f 677c 99bf 8fd0 5b3f
00000160: 2982 2ac0 4bd1 11bf 841c dfbd ac38 eebe
00000170: ee17 403f 2d77 37c0 1582 d8be 07cc 5e3f
00000180: 0977 a0bf 3a17 6f3f 5d1b 35c0 ab16 10bf
00000190: 38ba 933d 2c3e 01bf 1775 603f 2d2b 3fc0
000001a0: 03bc d5be 30a1 833f 50c3 a6bf 8d6d 823f
000001b0: 1335 3dc0 b53c 0fbf a3d6 b93e a730 05bf
000001c0: 76e2 7c3f caee 45c0 7663 d1be 2ad8 9c3f
000001d0: 9d68 abbf 518b 8c3f b342 44c0 071e 0ebf
000001e0: b291 3f3f 72b2 05bf fdfb 8c3f 8038 4bc0
000001f0: 69f4 cdbe c0d5 bd3f 1196 aebf 5476 953f
00000200: 6886 49c0 028d 0cbf 7801 953f 03df 08bf
00000210: 4f92 983f 806f 4fc0 a39a cabe 985d e33f
00000220: a3ea afbf dd04 9e3f 5cec 4dc0 ca91 0abf
00000230: f476 c43f fd68 0abf bf8f a23f f3f0 52c0
00000240: 2974 c7be 6a76 0240 1015 b3bf 55c1 a53f
00000250: 8fae 51c0 a593 08bf 865a ee3f 2784 0abf
00000260: fe6a aa3f d2f2 55c0 2e89 c5be c0fb 1040
00000270: 8760 b5bf 758d ab3f 71c9 54c0 c946 05bf
00000280: 54c0 0840 b1bd 0cbf ff47 b13f 6495 58c0
00000290: ff95 c2be 1c2f 1d40 63ea b7bf 707d b03f
000002a0: 387f 57c0 334e 02bf 61f9 1540 c52a 10bf
000002b0: 623e b73f a75a 5bc0 8854 bfbe b1c8 2640
000002c0: 801c babf f5aa b43f 9a87 5ac0 691a ffbe
000002d0: e8d1 2040 1310 16bf e69d bc3f 224d 5ec0
000002e0: f9ac babe 165e 2e40 8646 bcbf 4f2a b83f
000002f0: cd98 5dc0 ce8d f8be 2395 2a40 91f7 1bbf
00000300: 6676 c13f edf5 60c0 1cdf b7be 3087 3540
00000310: 1acf bebf 65c3 bb3f b12d 60c0 aea8 f1be
00000320: 0cde 3240 abbc 22bf 60cc c63f 2f59 63c0
00000330: b243 b4be 2110 3c40 0491 c1bf f5f3 be3f
00000340: 7bb0 62c0 5040 ecbe 3172 3a40 4411 27bf
00000350: ea71 cb3f 37b8 65c0 5ba1 b0be 6062 4240
00000360: b9ab c4bf 7496 c13f 3622 65c0 cbe2 e6be
00000370: b10d 4140 05a9 2dbf 1792 d03f 9bd0 67c0
00000380: fafa abbe b7a2 4740 2e8c c8bf fbe4 c43f
00000390: ab4d 67c0 b6f5 e0be 0291 4640 06cf 35bf
000003a0: 793d d53f f5fd 69c0 c644 a6be 3468 4c40
000003b0: 9fd9 cbbf 3ea9 c73f e89f 69c0 22be dbbe
000003c0: 86be 4b40 133d 3fbf 80c6 d93f 3e4d 6cc0
000003d0: eb4a 9fbe 9092 5040 0e7d cfbf a2ce c93f
000003e0: 04de 6bc0 8541 d4be ff91 5040 fbf1 49bf
000003f0: 8efd dd3f 169f 6ec0 a5b1 98be cceb 5340
-0.66750765 0.25507796 -0.16968608 -0.073345 -0.4753181 0.11361235 -0.0772397 0.16117129
0.23349929 -0.6284987 -0.6169804 0.11378284 -0.18451829 -0.54478985 -0.46871376 0.13849846
-0.36169904 0.29406285 -0.15911478 -0.6216418 -0.5971863 -0.013466604 -0.15513787 -1.0076237
-0.46075913 0.17740776 -0.5891034 0.3474149 -0.6559336 -0.61397034 -0.56144774 -0.07623466
-0.080969736 -1.4653795 -0.45385838 0.23183586 -0.75876886 0.4090048 -1.1834861 -0.60668665
-0.51852065 -0.1548455 0.08597774 -1.8168393 -0.44710442 0.31482467 -0.88682085 0.512579
-1.6071138 -0.5995657 -0.46921158 -0.2344359 0.22047956 -2.10606 -0.4419165 0.37840912
-0.9848547 0.6032034 -1.9790031 -0.5884218 -0.40011826 -0.29780263 0.37361997 -2.3358586
-0.43623155 0.49198228 -1.0637454 0.70369977 -2.244279 -0.58133733 -0.33505058 -0.37169707
0.496802 -2.543348 -0.43220547 0.60260385 -1.1338696 0.7815059 -2.483544 -0.57452744
-0.23443396 -0.42094597 0.6343862 -2.7130349 -0.42703113 0.73691684 -1.199109 0.8586511
-2.6641943 -0.5695998 -0.10894111 -0.46527612 0.75036514 -2.866649 -0.42286745 0.8703007
-1.2536327 0.93394816 -2.8297951 -0.5628459 0.07213253 -0.5048549 0.87678665 -2.9870102
-0.41745004 1.0283566 -1.3028355 1.0189682 -2.9563644 -0.55952007 0.36296567 -0.5202736
0.9878305 -3.0926995 -0.40896195 1.2253468 -1.33913 1.0980016 -3.066571 -0.5551457
0.7483169 -0.5222541 1.1014401 -3.1753235 -0.40225533 1.4830856 -1.3639547 1.1676736
-3.1488285 -0.5490266 1.1641073 -0.5346529 1.191965 -3.2411804 -0.39571103 1.7762938
-1.374348 1.2345234 -3.2175512 -0.54128706 1.5348802 -0.5406645 1.2700118 -3.2959564
-0.3895581 2.0384774 -1.3990803 1.2949625 -3.2762792 -0.5335029 1.8621376 -0.541079
1.3313901 -3.3429456 -0.38581222 2.2653656 -1.4170083 1.3402544 -3.324795 -0.52061135
2.1367388 -0.54976946 1.3850096 -3.384118 -0.38005063 2.4560003 -1.4368404 1.378828
-3.3671398 -0.5090057 2.3433459 -0.5631526 1.4315913 -3.427408 -0.3736918 2.6059992
-1.4539948 1.4114672 -3.4145265 -0.49824837 2.5128117 -0.5861828 1.4735687 -3.4734578
-0.36460093 2.7244925 -1.4709022 1.4387912 -3.4624512 -0.48545688 2.6653526 -0.6092463
1.5114257 -3.51501 -0.35912406 2.8363762 -1.4906952 1.4669005 -3.5027888 -0.47199005
2.7948027 -0.63569134 1.553112 -3.5523183 -0.35207897 2.9384844 -1.512238 1.49182
-3.5420215 -0.46142817 2.9132197 -0.6526072 1.5894139 -3.5893686 -0.34498104 3.0372543
-1.5364906 1.512404 -3.580213 -0.45094904 3.0164607 -0.6783603 1.6294583 -3.6221073
-0.33589917 3.1193063 -1.566778 1.5382379 -3.6141155 -0.43937463 3.1026006 -0.7101902
1.6659385 -3.6561253 -0.32474345 3.19386 -1.5925788 1.5598524 -3.650385 -0.42918497
3.1835036 -0.74702567 1.7013702 -3.6922145 -0.31111845 3.2589455 -1.6210039 1.5766184
-3.6854258 -0.41456237 3.258911 -0.7888486 1.7343004 -3.7284598 -0.29823032 3.311267
