notebooks/dice/results/ipd_bs64_2inner_om/run-1/params.npy (npy, 8128 bytes, 1 tensors)

array f4 [200, 2, 5]
-0.054446667 -0.70497626 0.77199084 0.25097477 0.5890857 -0.3227593 0.458825 -0.5034114
-0.14942501 0.31140536 0.24867398 -1.0842588 0.75813967 -0.74379665 0.32878217 -0.37291518
-0.34423906 -0.20677754 -1.3863466 0.405123 0.4492225 -1.4092982 0.54404503 -1.3630774
0.34291956 -0.43481705 -0.4929508 -0.07552567 -1.8219868 0.32174665 0.63802767 -1.7070117
0.7101395 -2.006495 0.36003363 -0.2916842 -0.3770936 0.21714994 -2.4411044 0.23880985
1.012296 -1.720979 1.070177 -2.6516871 0.24659687 -0.12635572 -0.5421082 0.8421397
-2.8685064 0.3127786 1.0924803 -1.8276418 1.1494329 -3.1336126 0.18999057 -0.070369996
-0.6820605 0.99070716 -3.1662288 0.24475452 1.6421614 -1.7150155 1.3798592 -3.3790746
0.2341992 0.14121798 -0.6851747 1.3730915 -3.367808 0.2574331 2.0693474 -1.7378407
1.4316999 -3.7517414 0.25327384 0.19959784 -0.88040686 1.4275372 -3.6619802 0.109906524
2.2915654 -1.879575 1.4763186 -3.8450027 0.15011868 0.44142592 -0.77185845 1.7439563
-3.8245702 0.09916425 2.4709175 -1.8502067 1.7090067 -4.034427 0.09951289 0.73323965
-0.79065967 1.8691038 -4.031402 0.067222774 2.6380475 -1.8797063 1.8311497 -4.1526847
0.004612565 1.0115592 -0.7350478 2.175315 -4.123938 0.12315667 2.6829503 -1.7584885
2.007094 -4.279667 0.03991882 1.490415 -0.65563136 2.3945296 -4.249384 0.19141991
3.013108 -1.6320766 2.1246817 -4.4194474 0.18560424 1.945966 -0.5612447 2.7193012
-4.4765353 0.17348255 3.5267904 -1.554263 2.3275468 -4.527453 0.38891655 2.3664308
-0.6659583 2.7810845 -4.5161157 0.24093091 3.6847496 -1.7565056 2.3256333 -4.625751
0.5477462 2.7480571 -0.56153905 2.965478 -4.546599 0.19432896 3.6754184 -1.7521585
2.1742182 -4.7299213 0.633929 3.177484 -0.57202476 3.0260813 -4.6010923 0.15359451
3.699116 -1.8275428 2.1290495 -4.7654567 0.7311004 3.5381157 -0.6329804 3.0376637
-4.6505895 0.19349208 3.7540264 -1.8411636 2.1834905 -4.7622056 0.8512621 3.6204853
-0.7568614 3.0311396 -4.749217 0.2757806 3.7267587 -1.9195353 2.143027 -4.8360443
0.9182858 3.8152356 -0.8854499 2.9965625 -4.8747616 0.35031983 3.818126 -1.9940599
2.1740308 -4.8808017 0.8506659 3.9329329 -0.9374664 3.0237122 -4.8951774 0.40150934
3.9953644 -2.0992792 2.1582284 -4.938265 0.8054561 4.007236 -0.9823101 3.215441
-4.918005 0.52653265 4.043816 -2.2009144 2.044815 -4.966341 0.90854365 4.0737057
-0.91629136 3.2187648 -4.955728 0.61043423 4.0378757 -2.3102212 2.0690446 -4.905602
0.9849843 4.1185074 -0.9966677 3.232842 -5.004888 0.7361089 4.103421 -2.4401913
2.06667 -4.9311633 1.0361669 4.139425 -1.1750507 3.3070824 -5.0255075 0.8926269
4.122218 -2.5050895 1.9349461 -4.950489 1.1708602 4.2177386 -1.321155 3.3527157
-5.042143 1.1102469 4.069656 -2.5638735 1.9434067 -4.9841313 1.1645688 4.3657613
00000000: 7803 5fbd 5379 34bf 31a1 453f c47f 803e
00000010: 52ce 163f b540 a5be 1ceb ea3e 92df 00bf
00000020: df02 19be 8670 9f3e 64a4 7e3e fec8 8abf
00000030: 7115 423f 7569 3ebf 2356 a83e bdee bebe
00000040: 1a40 b0be 7ebd 53be ce73 b1bf 486c cf3e
00000050: 7e00 e63e e263 b4bf 8946 0b3f 5279 aebf
00000060: 2793 af3e 57a0 debe 0c64 fcbe 34ad 9abd
00000070: dd36 e9bf fabb a43e c855 233f 5c7f dabf
00000080: b4cb 353f 6a6a 00c0 5456 b83e a257 95be
00000090: 6a12 c1be 8e5c 5e3e 0e3b 1cc0 928a 743e
000000a0: ea92 813f 0a49 dcbf 8ffb 883f 3eb5 29c0
000000b0: e483 7c3e 6563 01be 9ac7 0abf 7896 573f
000000c0: 9c95 37c0 8424 a03e 65d6 8b3f 2bf0 e9bf
000000d0: 9e20 933f 1c8d 48c0 e38c 423e 251e 90bd
000000e0: 849b 2ebf fc9e 7d3f 7ea3 4ac0 eea0 7a3e
000000f0: 5832 d23f a185 dbbf 3a9f b03f c242 58c0
00000100: ead1 6f3e 729b 103e 9c67 2fbf 76c1 af3f
00000110: 2b8a 57c0 45ce 833e 3070 0440 9071 debf
00000120: f141 b73f 881c 70c0 1cad 813e 6063 4c3e
00000130: 5862 61bf 8ab9 b63f e25d 6ac0 ac16 e13d
00000140: 02a9 1240 ea95 f0bf 02f8 bc3f 8614 76c0
00000150: b6b8 193e 9402 e23e 8498 45bf f639 df3f
00000160: c2c5 74c0 a016 cb3d 8323 1e40 93d3 ecbf
00000170: bbc0 da3f 071a 81c0 6acd cb3d 98b5 3b3f
00000180: ac68 4abf cb3e ef3f 3f01 81c0 18ac 893d
00000190: c5d5 2840 379a f0bf 1d63 ea3f cbe2 84c0
000001a0: 0025 973b c67a 813f 182c 3cbf 5c38 0b40
000001b0: 4df7 83c0 9039 fc3d 75b5 2b40 2716 e1bf
000001c0: 3a74 0040 08f3 88c0 eb81 233d ebc5 be3f
000001d0: 75d7 27bf f93f 1940 f4fa 87c0 9503 443e
000001e0: c3d6 4040 e3e7 d0bf c9fa 0740 1d6c 8dc0
000001f0: 0a0f 3e3e 6a15 f93f bcad 0fbf 0809 2e40
00000200: c73f 8fc0 69a5 313e efb6 6140 17f2 c6bf
00000210: 87f6 1440 e5e0 90c0 1220 c73e 9a73 1740
00000220: 3e7c 2abf 4afd 3140 0584 90c0 98b6 763e
00000230: f0d2 6b40 2dd5 e0bf 2dd7 1440 2706 94c0
00000240: 1839 0c3f 2be0 2f40 06c1 0fbf 64ca 3d40
00000250: bd7d 91c0 2cfe 463e 0e3a 6b40 bb46 e0bf
00000260: 6426 0b40 845b 97c0 2c49 223f e65b 4b40
00000270: 3770 12bf 51ab 4140 263c 93c0 e147 1d3e
00000280: 51be 6c40 ecec e9bf 5942 0840 9f7e 98c0
00000290: 6529 3b3f 7d70 6240 010b 22bf 1569 4240
000002a0: a1d1 94c0 ca22 463e f841 7040 40ab ebbf
000002b0: 4fbe 0b40 fd63 98c0 50ec 593f 08b6 6740
000002c0: abc1 41bf 31fe 4140 96f9 97c0 1d33 8d3e
000002d0: 3783 6e40 55b3 f5bf 5b27 0940 e0c0 9ac0
000002e0: c714 6b3f d22c 7440 d8ac 62bf aec7 3f40
000002f0: 0cfe 9bc0 1f5d b33e 2d5c 7440 5b3d ffbf
00000300: 5223 0b40 872f 9cc0 3ec5 593f 2cb5 7b40
00000310: ccfd 6fbf 8084 4140 4ba5 9cc0 a292 cd3e
00000320: 0db4 7f40 975a 06c0 6a20 0a40 4406 9ec0
00000330: 5f32 4e3f 473b 8040 ad78 7bbf c9c9 4d40
00000340: 4c60 9dc0 d8ca 063f f166 8140 c8db 0cc0
00000350: 40de 0240 44ec 9ec0 5196 683f cc5b 8240
00000360: 1292 6abf 3e00 4e40 5395 9ec0 6b45 1c3f
00000370: 4736 8140 aada 13c0 3a6b 0440 b1fa 9cc0
00000380: ee27 7c3f d0ca 8340 9d25 7fbf e2e6 4e40
00000390: 0b28 a0c0 a271 3c3f 3a4f 8340 182c 1cc0
000003a0: 5244 0440 17cc 9dc0 1ea1 843f 2b76 8440
000003b0: 1068 96bf 3da7 5340 f5d0 a0c0 3283 643f
000003c0: 36e9 8340 6353 20c0 50ac f73f 686a 9ec0
000003d0: bfde 953f b7f7 8640 9b1b a9bf e592 5640
000003e0: 3c59 a1c0 921c 8e3f 9f3a 8240 8116 24c0
000003f0: 8dc1 f83f 017e 9fc0 9710 953f 51b4 8b40
