notebooks/dice/results/ipd_bs64_nomagic/run-2/params.npy (npy, 8128 bytes, 1 tensors)

array f4 [200, 2, 5]
00000000: e0cb d93d 9860 543f 0026 9abb 808c c23e
00000010: 5cb0 183f 18c4 68bf b41d 50bf 5087 e7be
00000020: c015 acbd 3055 ab3e 34b5 8bbd a266 9a3e
00000030: b753 bebd 2874 063e 0842 093f 3412 86bf
00000040: cff0 84bf 5aaa 15bf 08ac c6be acc1 b23e
00000050: aa91 36be 8065 673c 9441 51be 6a5a 1dbe
00000060: 2d0b 023f d5a2 94bf b660 93bf 3b97 37bf
00000070: 04bf 35bf c633 9d3e 4396 92be f536 ddbe
00000080: fed2 94be e97a 0cbf 98bb 023f bd08 9abf
00000090: 23be a3bf d0b0 48bf 7752 55bf c503 ac3e
000000a0: 353e 9fbe 1a11 1dbf fcc9 c5be 1249 6bbf
000000b0: 3f3f 013f 394c 9dbf 2430 acbf e9cb 62bf
000000c0: 7ef5 7dbf 89f0 a93e 208c cfbe 4cb4 51bf
000000d0: 7a96 eabe 00ec b0bf 3d50 013f 3f70 9ebf
000000e0: 5afd c0bf 4d30 73bf fc1e a9bf c370 903e
000000f0: 6787 e9be 0073 6ebf 28c9 0abf 4ecc d8bf
00000100: d653 f73e 870a 9fbf 6476 c7bf c1df 87bf
00000110: df4a b7bf 21ef 993e cebe f4be 1999 8ebf
00000120: c4f7 1cbf 2aeb 00c0 a220 df3e 009c a0bf
00000130: 315c cdbf bbaf 88bf 54d5 dabf 98a3 8c3e
00000140: aa69 07bf 7a24 96bf b8f1 2cbf fc8f 0fc0
00000150: 8e58 cb3e f6b7 a0bf 484d cdbf 3909 8bbf
00000160: 2776 f4bf 30da 863e 2a45 09bf 4e14 9abf
00000170: ee87 3fbf 3dad 1dc0 06f0 b33e 771f a1bf
00000180: 7312 d4bf d865 8ebf 169e 0ac0 019f 823e
00000190: 07fe 10bf 8c50 a2bf 0aee 5bbf c4cf 2cc0
000001a0: 88eb 8d3e d418 a2bf f3d7 d8bf 2c6b 93bf
000001b0: 5323 10c0 9e8d 423e c279 1cbf 3f86 acbf
000001c0: ad5e 68bf bd3e 39c0 aea9 8f3e dc64 a4bf
000001d0: 8fa5 dcbf 7b26 99bf 6127 18c0 ec6b 363e
000001e0: 3ffc 1ebf a93d b3bf 37ba 79bf 56f9 41c0
000001f0: 1a74 843e 96db a3bf 019c ddbf 6821 9bbf
00000200: 78ac 21c0 c7ee 463e ba31 20bf f3c2 b9bf
00000210: b299 84bf 1459 4ac0 f7bf 763e ee47 a4bf
00000220: 1ea3 e0bf e090 9ebf 53b2 29c0 9266 203e
00000230: 5d79 26bf ef70 bdbf a4a3 89bf 4a64 52c0
00000240: 559d 463e 0283 a3bf 089d e5bf 6356 a2bf
00000250: 881f 33c0 ce79 083e 911f 2cbf 8a34 bcbf
00000260: ea08 90bf a98b 57c0 8b38 343e 13ba a3bf
00000270: 3894 eabf f2cd a3bf c9f2 38c0 16bb f73d
00000280: 39a7 2cbf a6ea c0bf 2b09 94bf de88 5bc0
00000290: e703 1d3e 6468 a3bf 9e5d ecbf c3af a5bf
000002a0: 7c2a 41c0 c778 d83d 8428 2fbf 9a19 c5bf
000002b0: c8c8 99bf 5d26 61c0 1a18 c93d 7651 a3bf
000002c0: 03cb eebf 08c9 a9bf 7008 48c0 ceeb d73d
000002d0: 790c 2ebf 5b5c cabf 9d6a 99bf 47aa 64c0
000002e0: 6508 7d3d 9609 a3bf 3fcc f0bf 6550 adbf
000002f0: 02ac 4dc0 62cb bc3d c3e2 2ebf 0856 cbbf
00000300: 5824 9cbf 2482 68c0 a219 063d 4b2a a3bf
00000310: be90 f2bf 3b99 adbf e4f6 50c0 37e7 a73d
00000320: 0a20 33bf 2149 cdbf 8c2d 9fbf bcf5 6bc0
00000330: 80cf 43bb f77b a3bf f9d6 f4bf 3940 aebf
00000340: afd5 55c0 102c 8a3d 614d 37bf 0e3a cdbf
00000350: 972e a2bf 6662 6fc0 5b73 67bd d47b a4bf
00000360: 5cc3 f7bf b7c8 afbf 5cb5 5ac0 72f9 8c3d
00000370: b4eb 33bf f545 d2bf ff8c a5bf 6bf3 71c0
00000380: 77d0 c5bd 5f3f a5bf 64d8 f8bf 9885 b2bf
00000390: 62ac 5ec0 6a4c 143d a4c2 36bf 86c2 d3bf
000003a0: f491 a8bf 5b92 75c0 0411 1fbe 6d22 a5bf
000003b0: 2535 fabf 270a b3bf 494a 61c0 60c2 5abb
000003c0: 8dfd 3abf 4e75 d5bf f344 abbf bf2b 79c0
000003d0: b31a 40be 009a a6bf 7457 fbbf f004 b3bf
000003e0: e14d 64c0 26ec 92bc 6697 3cbf a3ec d8bf
000003f0: 9d70 acbf c051 7bc0 b312 4cbe 724f a7bf
0.10634589 0.8295989 -0.004704237 0.37997818 0.59644103 -0.90924215 -0.81295323 -0.45220423
-0.08402586 0.3346343 -0.06821671 0.30156428 -0.09293311 0.13130248 0.5361638 -1.0474305
-1.0385989 -0.5846306 -0.38803124 0.34913385 -0.17829004 0.014123321 -0.20435172 -0.15366521
0.507983 -1.1612192 -1.1513889 -0.71715134 -0.7099459 0.30703562 -0.28630266 -0.4320599
-0.29067224 -0.54875046 0.51067495 -1.2033917 -1.27924 -0.78394794 -0.83328956 0.33596626
-0.31102148 -0.6135422 -0.38630664 -0.9190837 0.5048713 -1.2288886 -1.3452191 -0.8859239
-0.99202716 0.33191326 -0.40536594 -0.81915736 -0.4581793 -1.3822021 0.5051306 -1.2378005
-1.5077317 -0.94995576 -1.3212581 0.2821103 -0.45611116 -0.93144226 -0.5421319 -1.6937349
0.4830615 -1.2425088 -1.5583005 -1.0615159 -1.4319724 0.30065253 -0.47801822 -1.1140472
-0.6131556 -2.0143533 0.43579584 -1.2547607 -1.604376 -1.0678629 -1.7096353 0.27468562
-0.52895606 -1.1729882 -0.67556334 -2.243163 0.39716 -1.255614 -1.6039209 -1.086219
-1.9098557 0.2633834 -0.5362116 -1.2037446 -0.7481679 -2.4636986 0.3514406 -1.2587727
-1.656813 -1.112483 -2.1658988 0.25511935 -0.56637615 -1.2680831 -0.85910094 -2.700181
0.2771876 -1.2663827 -1.6940902 -1.1517081 -2.252156 0.18999335 -0.6112329 -1.3478469
-0.90769464 -2.8944542 0.28059143 -1.284328 -1.7238024 -1.1964868 -2.3774035 0.17814606
-0.62103647 -1.4003192 -0.97549766 -3.0308433 0.25869828 -1.2801387 -1.7313234 -1.211957
-2.5261517 0.19427024 -0.62575877 -1.4512619 -1.0359404 -3.161687 0.24096666 -1.2834451
-1.754978 -1.2387962 -2.651509 0.15664127 -0.65028936 -1.480009 -1.0753064 -3.2873712
0.19395955 -1.2774355 -1.7938547 -1.2682613 -2.7987995 0.13327715 -0.67235667 -1.4703534
-1.125272 -3.3678992 0.17599694 -1.279116 -1.8326483 -1.2797225 -2.8898184 0.12096231
-0.6744266 -1.5071609 -1.1565298 -3.4302287 0.1533352 -1.2766232 -1.846607 -1.2944263
-3.018218 0.105699115 -0.68421197 -1.5398438 -1.2014399 -3.5179665 0.0981905 -1.2759235
-1.8655704 -1.3264475 -3.125515 0.10543023 -0.6798778 -1.5809435 -1.1985661 -3.572893
0.061775584 -1.27373 -1.8812331 -1.354016 -3.2136235 0.0921848 -0.6831476 -1.588563
-1.2198591 -3.6329432 0.03273929 -1.2747282 -1.8950422 -1.3562387 -3.265069 0.081983976
-0.6997076 -1.6037942 -1.2435775 -3.6868734 -0.0029878318 -1.2772206 -1.9128104 -1.3613349
-3.3411672 0.067466855 -0.71602446 -1.6033342 -1.2670468 -3.7403808 -0.056506496 -1.2850289
-1.9356494 -1.3733128 -3.4173193 0.068835154 -0.7028153 -1.6427599 -1.2933654 -3.780482
-0.09658902 -1.2909964 -1.9441037 -1.394702 -3.4792714 0.036205687 -0.7139075 -1.6543739
-1.3169541 -3.8370578 -0.15533835 -1.2901131 -1.9547468 -1.3987473 -3.520159 -0.0033380017
-0.7304314 -1.6676424 -1.3380417 -3.893295 -0.18760185 -1.3015747 -1.9636064 -1.3985882
-3.5672534 -0.01793487 -0.73668516 -1.6947216 -1.3471867 -3.9268646 -0.19929008 -1.307112
