notebooks/dice/results/ipd_bs64_original/run-1/params.npy (npy, 17648 bytes, 1 tensors)

array f8 [219, 2, 5]
000000 00 00 00 60 90 fc e7 bf 00 00 00 20 65 61 f1 bf
       -0.7495805621147156 -1.0862780809402466
000010 00 00 00 40 c9 b7 ea 3f 00 00 00 20 6d 5c cb bf
       0.8349348306655884 -0.21375812590122223
000020 00 00 00 40 a7 42 fc bf 00 00 00 20 f3 e4 d1 bf
       -1.766272783279419 -0.27959898114204407
000030 00 00 00 60 28 07 b8 3f 00 00 00 80 ff 2a f0 3f
       0.0938592180609703 1.0104975700378418
000040 00 00 00 00 2f c2 e2 bf 00 00 00 e0 d8 47 c9 bf
       -0.5862040519714355 -0.19750510156154633
000050 00 00 00 e0 21 be 36 40 00 00 00 00 b4 6c 04 40
       22.742704391479492 2.5530776977539062
000060 00 00 00 20 97 51 18 c0 00 00 00 80 89 b6 25 c0
       -6.079678058624268 -10.856517791748047
000070 00 00 00 c0 f5 6d 1a 40 00 00 00 20 7f 4c 28 c0
       6.607382774353027 -12.149407386779785
000080 00 00 00 20 67 a9 30 40 00 00 00 20 4c 7e 16 c0
       16.66172981262207 -5.623337268829346
000090 00 00 00 80 b6 83 2e c0 00 00 00 c0 ed d0 17 c0
       -15.257251739501953 -5.954031944274902
0000a0 00 00 00 e0 21 be 36 40 00 00 00 20 05 1a 01 40
       22.742704391479492 2.137705087661743
0000b0 00 00 00 c0 7a 24 18 c0 00 00 00 80 17 b2 25 c0
       -6.0356245040893555 -10.847835540771484
0000c0 00 00 00 20 1f 2b 1a 40 00 00 00 20 40 4b 28 c0
       6.542110919952393 -12.146973609924316
0000d0 00 00 00 20 67 a9 30 40 00 00 00 a0 ed 98 16 c0
       16.66172981262207 -5.649343967437744
0000e0 00 00 00 a0 bc 83 2e c0 00 00 00 a0 f8 73 17 c0
       -15.257298469543457 -5.863253116607666
0000f0 00 00 00 e0 21 be 36 40 00 00 00 60 7f ce 0d 40
       22.742704391479492 3.7258288860321045
000100 00 00 00 40 8c e9 17 c0 00 00 00 40 2a b0 25 c0
       -5.978074073791504 -10.844072341918945
000110 00 00 00 c0 6f e4 19 40 00 00 00 a0 67 4a 28 c0
       6.473082542419434 -12.1453218460083
000120 00 00 00 20 67 a9 30 40 00 00 00 80 76 a3 16 c0
       16.66172981262207 -5.659631729125977
000130 00 00 00 40 ca 83 2e c0 00 00 00 40 d8 11 17 c0
       -15.257402420043945 -5.767426490783691
000140 00 00 00 e0 21 be 36 40 00 00 00 40 f8 af 00 40
       22.742704391479492 2.0859227180480957
000150 00 00 00 80 be d5 17 c0 00 00 00 00 fc af 25 c0
       -5.958734512329102 -10.843719482421875
000160 00 00 00 e0 e3 98 1c 40 00 00 00 a0 bc 49 28 c0
       7.149306774139404 -12.144017219543457
000170 00 00 00 20 67 a9 30 40 00 00 00 60 b3 a9 16 c0
       16.66172981262207 -5.6657233238220215
000180 00 00 00 80 d0 83 2e c0 00 00 00 a0 38 c0 16 c0
       -15.257450103759766 -5.687716007232666
000190 00 00 00 e0 21 be 36 40 00 00 00 c0 0d 1f f3 bf
       22.742704391479492 -1.1950814723968506
0001a0 00 00 00 e0 2d 9c 17 c0 00 00 00 40 b0 af 25 c0
       -5.9025187492370605 -10.843141555786133
0001b0 00 00 00 40 cd 72 1c 40 00 00 00 80 bd 48 28 c0
       7.1121110916137695 -12.142070770263672
0001c0 00 00 00 20 67 a9 30 40 00 00 00 20 9d be 17 c0
       16.66172981262207 -5.936146259307861
0001d0 00 00 00 40 d8 83 2e c0 00 00 00 40 1a 28 16 c0
       -15.257509231567383 -5.539162635803223
0001e0 00 00 00 e0 21 be 36 40 00 00 00 60 9f 30 06 c0
       22.742704391479492 -2.7737414836883545
0001f0 00 00 00 a0 88 04 19 c0 00 00 00 40 8c af 25 c0
       -6.254427433013916 -10.842866897583008
000200 00 00 00 a0 12 4c 1c 40 00 00 00 60 b8 48 28 c0
       7.074289798736572 -12.1420316696167
000210 00 00 00 20 67 a9 30 40 00 00 00 00 7e 1c 19 c0
       16.66172981262207 -6.277824401855469
000220 00 00 00 40 d8 83 2e c0 00 00 00 20 1b 64 15 c0
       -15.257509231567383 -5.34775972366333
000230 00 00 00 e0 21 be 36 40 00 00 00 c0 ae c0 00 c0
       22.742704391479492 -2.094083309173584
000240 00 00 00 00 f9 b9 18 c0 00 00 00 60 3c af 25 c0
       -6.181613922119141 -10.842257499694824
000250 00 00 00 00 39 24 1c 40 00 00 00 20 b7 48 28 c0
       7.035373687744141 -12.142022132873535
000260 00 00 00 20 67 a9 30 40 00 00 00 e0 89 1e 1b c0
       16.66172981262207 -6.779822826385498
000270 00 00 00 80 d8 83 2e c0 00 00 00 80 ff 80 17 c0
       -15.257511138916016 -5.875974655151367
000280 00 00 00 e0 21 be 36 40 00 00 00 c0 cd c9 00 c0
       22.742704391479492 -2.098536968231201
000290 00 00 00 00 21 fd 1c c0 00 00 00 20 3b af 25 c0
       -7.247196197509766 -10.84224796295166
0002a0 00 00 00 00 ec fa 1b 40 00 00 00 20 b4 48 28 c0
       6.9950408935546875 -12.141999244689941
0002b0 00 00 00 20 67 a9 30 40 00 00 00 60 ca f4 1a c0
       16.66172981262207 -6.739053249359131
0002c0 00 00 00 c0 d8 83 2e c0 00 00 00 00 de f2 16 c0
       -15.257513046264648 -5.737174987792969
0002d0 00 00 00 e0 21 be 36 40 00 00 00 00 4b 0a 04 c0
       22.742704391479492 -2.505025863647461
0002e0 00 00 00 a0 0d e2 1c c0 00 00 00 20 40 af 25 c0
       -7.220755100250244 -10.842286109924316
0002f0 00 00 00 a0 4b d0 1b 40 00 00 00 40 b1 48 28 c0
       6.953413486480713 -12.141977310180664
000300 00 00 00 20 67 a9 30 40 00 00 00 00 7d 16 1d c0
       16.66172981262207 -7.271961212158203
000310 00 00 00 c0 d8 83 2e c0 00 00 00 80 bd 4f 16 c0
       -15.257513046264648 -5.577871322631836
000320 00 00 00 e0 21 be 36 40 00 00 00 a0 75 18 06 c0
       22.742704391479492 -2.7619431018829346
000330 00 00 00 80 9a c6 1c c0 00 00 00 80 40 af 25 c0
       -7.193948745727539 -10.842288970947266
000340 00 00 00 00 0c a4 1b 40 00 00 00 40 af 48 28 c0
       6.9102020263671875 -12.141962051391602
000350 00 00 00 20 67 a9 30 40 00 00 00 a0 70 fd 1c c0
       16.66172981262207 -7.247499942779541
000360 00 00 00 c0 d8 83 2e c0 00 00 00 80 49 91 15 c0
       -15.257513046264648 -5.391881942749023
000370 00 00 00 e0 21 be 36 40 00 00 00 e0 e9 d2 08 c0
       22.742704391479492 -3.102985143661499
000380 00 00 00 40 91 aa 1c c0 00 00 00 20 41 af 25 c0
       -7.166569709777832 -10.842293739318848
000390 00 00 00 a0 29 76 1b 40 00 00 00 a0 ad 48 28 c0
       6.865393161773682 -12.141949653625488
0003a0 00 00 00 20 67 a9 30 40 00 00 00 60 ee e3 1c c0
       16.66172981262207 -7.222589015960693
0003b0 00 00 00 c0 d8 83 2e c0 00 00 00 00 94 ad 14 c0
       -15.257513046264648 -5.1695098876953125
0003c0 00 00 00 e0 21 be 36 40 00 00 00 20 1f 71 06 c0
       22.742704391479492 -2.8052351474761963
0003d0 00 00 00 20 b7 8d 1c c0 00 00 00 40 0e ad 25 c0
       -7.138393878936768 -10.83799934387207
0003e0 00 00 00 80 82 46 1b 40 00 00 00 e0 ac 48 28 c0
       6.818857192993164 -12.14194393157959
0003f0 00 00 00 20 67 a9 30 40 00 00 00 c0 ca c9 1c c0
       16.66172981262207 -7.1970624923706055
000400 00 00 00 e0 d8 83 2e c0 00 00 00 60 cd 92 13 c0
       -15.257513999938965 -4.893361568450928
000410 00 00 00 e0 21 be 36 40 00 00 00 60 71 27 0c c0
       22.742704391479492 -3.519259214401245
000420 00 00 00 60 ab a5 1e c0 00 00 00 e0 0f ad 25 c0
       -7.6617865562438965 -10.838011741638184
000430 00 00 00 a0 f1 14 1b 40 00 00 00 60 ab 48 28 c0
       6.770452976226807 -12.141932487487793
000440 00 00 00 20 67 a9 30 40 00 00 00 40 3d af 1c c0
       16.66172981262207 -7.1711320877075195
000450 00 00 00 20 d9 83 2e c0 00 00 00 a0 bc 24 12 c0
       -15.257515907287598 -4.5358757972717285
000460 00 00 00 e0 21 be 36 40 00 00 00 a0 00 fe 06 c0
       22.742704391479492 -2.8740246295928955
000470 00 00 00 40 33 94 1e c0 00 00 00 80 15 ad 25 c0
       -7.644726753234863 -10.838054656982422
000480 00 00 00 00 66 e1 1a 40 00 00 00 00 ab 48 28 c0
       6.720115661621094 -12.141929626464844
000490 00 00 00 20 67 a9 30 40 00 00 00 00 ef c6 1e c0
       16.66172981262207 -7.694271087646484
0004a0 00 00 00 60 d9 83 2e c0 00 00 00 20 af 0c 13 c0
       -15.25751781463623 -4.762386798858643
0004b0 00 00 00 e0 21 be 36 40 00 00 00 60 3c 71 05 c0
       22.742704391479492 -2.680290937423706
0004c0 00 00 00 80 c7 82 1e c0 00 00 00 c0 17 ad 25 c0
       -7.627714157104492 -10.838071823120117
0004d0 00 00 00 20 6b ab 1a 40 00 00 00 e0 a9 48 28 c0
       6.66740083694458 -12.141921043395996
0004e0 00 00 00 20 67 a9 30 40 00 00 00 20 06 b7 1e c0
       16.66172981262207 -7.678734302520752
0004f0 00 00 00 60 d9 83 2e c0 00 00 00 c0 7e 6d 11 c0
       -15.25751781463623 -4.356928825378418
000500 00 00 00 e0 21 be 36 40 00 00 00 00 0c 8b 04 c0
       22.742704391479492 -2.5678939819335938
000510 00 00 00 20 35 71 1e c0 00 00 00 c0 b4 ac 25 c0
       -7.610554218292236 -10.837316513061523
000520 00 00 00 a0 f4 72 1a 40 00 00 00 60 a8 48 28 c0
       6.6122612953186035 -12.1419095993042
000530 00 00 00 20 67 a9 30 40 00 00 00 c0 f8 a6 1e c0
       16.66172981262207 -7.663058280944824
000540 00 00 00 60 d9 83 2e c0 00 00 00 40 a0 0b 0e c0
       -15.25751781463623 -3.755676746368408
000550 00 00 00 e0 21 be 36 40 00 00 00 80 c9 7d 0f c0
       22.742704391479492 -3.9364194869995117
000560 00 00 00 c0 68 5f 1e c0 00 00 00 80 bb ac 25 c0
       -7.593173027038574 -10.83736801147461
000570 00 00 00 80 d0 37 1a 40 00 00 00 00 a6 48 28 c0
       6.554506301879883 -12.141891479492188
000580 00 00 00 20 67 a9 30 40 00 00 00 40 ec 6a 20 c0
       16.66172981262207 -8.208833694458008
000590 00 00 00 00 da 83 2e c0 00 00 00 40 4f c5 10 c0
       -15.257522583007812 -4.192685127258301
0005a0 00 00 00 e0 21 be 36 40 00 00 00 60 6f d7 0e c0
       22.742704391479492 -3.8551928997039795
0005b0 00 00 00 40 62 4d 1e c0 00 00 00 80 bb ac 25 c0
       -7.575570106506348 -10.83736801147461
0005c0 00 00 00 80 5c f9 19 40 00 00 00 40 a5 48 28 c0
       6.49351692199707 -12.141885757446289
0005d0 00 00 00 20 67 a9 30 40 00 00 00 40 3f 66 20 c0
       16.66172981262207 -8.199701309204102
0005e0 00 00 00 00 da 83 2e c0 00 00 00 40 56 da 10 c0
       -15.257522583007812 -4.21321964263916
0005f0 00 00 00 e0 21 be 36 40 00 00 00 20 88 ea 0d c0
       22.742704391479492 -3.7395174503326416
000600 00 00 00 40 29 3b 1e c0 00 00 00 80 bb ac 25 c0
       -7.557774543762207 -10.83736801147461
000610 00 00 00 e0 6d b7 19 40 00 00 00 80 a4 48 28 c0
       6.4291300773620605 -12.14188003540039
000620 00 00 00 20 67 a9 30 40 00 00 00 a0 8f 61 20 c0
       16.66172981262207 -8.19054889678955
000630 00 00 00 00 da 83 2e c0 00 00 00 80 3f fd 10 c0
       -15.257522583007812 -4.247312545776367
000640 00 00 00 e0 21 be 36 40 00 00 00 80 f4 90 0c c0
       22.742704391479492 -3.5707788467407227
000650 00 00 00 60 c6 28 1e c0 00 00 00 60 c1 ac 25 c0
       -7.539819240570068 -10.83741283416748
000660 00 00 00 a0 bb 71 19 40 00 00 00 20 a4 48 28 c0
       6.361067295074463 -12.141877174377441
000670 00 00 00 20 67 a9 30 40 00 00 00 c0 dc 5c 20 c0
       16.66172981262207 -8.181371688842773
000680 00 00 00 00 da 83 2e c0 00 00 00 c0 fe be 0c c0
       -15.257522583007812 -3.593259334564209
000690 00 00 00 e0 21 be 36 40 00 00 00 20 d8 24 0d c0
       22.742704391479492 -3.6429903507232666
0006a0 00 00 00 20 2d 16 1e c0 00 00 00 00 b8 ac 25 c0
       -7.521656513214111 -10.83734130859375
0006b0 00 00 00 a0 83 27 19 40 00 00 00 c0 a2 48 28 c0
       6.288588047027588 -12.141866683959961
0006c0 00 00 00 20 67 a9 30 40 00 00 00 c0 28 58 20 c0
       16.66172981262207 -8.172185897827148
0006d0 00 00 00 00 da 83 2e c0 00 00 00 e0 97 2f 0e c0
       -15.257522583007812 -3.7732388973236084
0006e0 00 00 00 e0 21 be 36 40 00 00 00 c0 34 9a 11 c0
       22.742704391479492 -4.400591850280762
0006f0 00 00 00 00 85 03 1e c0 00 00 00 80 c6 ac 25 c0
       -7.503437042236328 -10.837451934814453
000700 00 00 00 c0 a8 d8 18 40 00 00 00 c0 a1 48 28 c0
       6.211581230163574 -12.14185905456543
000710 00 00 00 20 67 a9 30 40 00 00 00 40 7f 53 20 c0
       16.66172981262207 -8.163080215454102
000720 00 00 00 40 da 83 2e c0 00 00 00 80 cc 0b 06 c0
       -15.257524490356445 -2.75576114654541
000730 00 00 00 e0 21 be 36 40 00 00 00 00 7f dd 11 c0
       22.742704391479492 -4.466304779052734
000740 00 00 00 a0 b2 f0 1d c0 00 00 00 a0 df ac 25 c0
       -7.485056400299072 -10.83764362335205
000750 00 00 00 80 83 84 18 40 00 00 00 c0 a0 48 28 c0
       6.12940788269043 -12.141851425170898
000760 00 00 00 20 67 a9 30 40 00 00 00 20 c4 4e 20 c0
       16.66172981262207 -8.153840065002441
000770 00 00 00 40 da 83 2e c0 00 00 00 20 3a eb f6 bf
       -15.257524490356445 -1.4324284791946411
000780 00 00 00 e0 21 be 36 40 00 00 00 20 e0 12 11 c0
       22.742704391479492 -4.268433094024658
000790 00 00 00 80 63 df 1d c0 00 00 00 00 9e ad 25 c0
       -7.46815299987793 -10.839096069335938
0007a0 00 00 00 60 a1 30 18 40 00 00 00 60 9a 48 28 c0
       6.04749059677124 -12.141802787780762
0007b0 00 00 00 20 67 a9 30 40 00 00 00 20 12 4a 20 c0
       16.66172981262207 -8.144669532775879
0007c0 00 00 00 40 da 83 2e c0 00 00 00 40 bf dc 14 c0
       -15.257524490356445 -5.215573310852051
0007d0 00 00 00 e0 21 be 36 40 00 00 00 e0 c7 d6 0f c0
       22.742704391479492 -3.9798734188079834
0007e0 00 00 00 60 df cb 1d c0 00 00 00 e0 9e ad 25 c0
       -7.449094295501709 -10.839102745056152
0007f0 00 00 00 40 c7 cd 17 40 00 00 00 60 9a 48 28 c0
       5.950955390930176 -12.141802787780762
