notebooks/dice/results/ipd_bs64_magic/run-5/params.npy (npy, 8128 bytes, 1 tensors)

array f4 [200, 2, 5]
000000 10 f8 4e be c8 79 1c 3f 4c ee 00 bf b4 1a 58 bf
       -0.20211816 0.61123323 -0.5036361 -0.84415746
000010 58 9c 4f 3f 28 ea 36 3f a8 7c 75 bf 60 7d b0 3d
       0.81097937 0.71451044 -0.95893335 0.086176634
000020 80 f0 06 bd 78 1a 3a 3f 2d 7b 9e be c0 b6 7a 3d
       -0.032944202 0.7269664 -0.3095335 0.06120944
000030 4a 02 67 bf 0e cb be bf 6d 15 57 3f 02 25 96 3f
       -0.9023787 -1.4905717 0.8401707 1.1730044
000040 4f ce 45 bf ae 30 70 3f 5f 8d 12 3f 44 95 3a 3f
       -0.77267927 0.9382428 0.57246965 0.7288401
000050 4c 11 cf be 71 a8 28 be a3 f7 aa bf fe f6 d9 bf
       -0.40442884 -0.16470505 -1.3356823 -1.7028501
000060 af 5d 53 3f 8a ee a4 3f c0 78 72 bf 9a 64 87 3f
       0.82564825 1.2885296 -0.947155 1.0577576
000070 c0 b9 ef 3e 6d 57 32 3f 27 c8 e3 be 69 6c 97 be
       0.46821404 0.6966465 -0.44488642 -0.29574898
000080 b5 97 b5 bf 2c 79 04 c0 27 28 57 3f ad 6c ab 3f
       -1.4186922 -2.0698957 0.8404564 1.339254
000090 79 5a 89 bf 3f c9 8a 3f 68 25 d4 3e ae cc 28 3f
       -1.0730735 1.0842665 0.4143479 0.65937316
0000a0 e2 e0 da be bf 16 e6 be 97 34 b5 bf 39 1d 12 c0
       -0.42749697 -0.4493923 -1.4156674 -2.2830336
0000b0 66 65 55 3f b1 3a a8 3f 63 36 9f bf 05 7f 8c 3f
       0.83357847 1.3142911 -1.2438473 1.0976263
0000c0 84 1b 4f 3e 40 53 21 3f 37 da 5d be 4a 5c bb be
       0.2022534 0.63017654 -0.21665274 -0.36593848
0000d0 07 c6 aa bf e5 72 0f c0 33 c7 5e 3f 18 31 b2 3f
       -1.3341683 -2.2413876 0.87022704 1.3921232
0000e0 78 82 c1 bf 71 bd 89 3f 16 ca ae be 84 78 12 3f
       -1.5117941 1.0760938 -0.34138554 0.5721514
0000f0 cb d6 f0 bd ca bf f0 be a5 06 af bf 54 84 16 c0
       -0.117597185 -0.47021323 -1.3673903 -2.3518267
000100 e8 66 5c 3f e3 eb b9 3f 83 dd c7 bf 34 c8 80 3f
       0.8609452 1.4525112 -1.5614475 1.0061097
000110 a6 9b 37 bf 58 ef 05 3f ca 55 50 bd 96 75 ef be
       -0.71721876 0.52318335 -0.050863065 -0.46769398
000120 3e 4c a2 bf 15 3e 20 c0 cc a1 63 3f cc 41 b7 3f
       -1.2679517 -2.5037892 0.8891876 1.4316955
000130 36 3f d9 bf fc cd 82 3f 42 a5 81 bf c3 11 0e 3f
       -1.6972415 1.0219111 -1.0128558 0.5549585
000140 c0 2e b4 3c 2a d2 c1 be e6 8a 8e bf 01 65 1d c0
       0.021994948 -0.37855655 -1.1136138 -2.4592898
000150 c8 8c 69 3f 04 ca b9 3f 06 03 d6 bf 2f 66 75 3f
       0.9123044 1.4514775 -1.6719673 0.95859045
000160 9e e6 b3 bf 81 25 04 3f 92 35 b1 3d d6 27 c5 be
       -1.4054754 0.51619726 0.08652796 -0.38506955
000170 0f 10 6b bf 62 b4 16 c0 f5 2a 77 3f aa 9d b2 3f
       -0.9182138 -2.3547597 0.9654992 1.3954365
000180 b2 1b e7 bf 0d 4d 6e 3f 14 20 e7 bf 20 6f f8 3e
       -1.8055327 0.9308632 -1.8056664 0.48522282
000190 58 80 56 3e 67 e5 93 be b8 ca 54 bf 90 9b 13 c0
       0.20947397 -0.28885958 -0.83121824 -2.3063698
0001a0 2e a9 79 3f f0 c4 b5 3f cd 40 e5 bf 52 f7 64 3f
       0.9752377 1.4200726 -1.7910401 0.8943988
0001b0 36 29 06 c0 90 8b ed 3e 5f ba 8f 3e 5a 40 61 be
       -2.0962653 0.4639554 0.28071877 -0.21997204
0001c0 80 98 35 bf 05 0b 12 c0 b4 8d 7e 3f 40 6c ba 3f
       -0.7093582 -2.2819226 0.9943497 1.4564285
0001d0 10 e8 ea bf cf a7 4b 3f 73 b2 0c c0 ee 07 e7 3e
       -1.835207 0.7955293 -2.1983917 0.45123237
0001e0 41 35 c9 3e a9 f5 ea bd e1 cb 12 bf 8e 5b 10 c0
       0.39298442 -0.11472637 -0.57342345 -2.255588
0001f0 eb 72 84 3f 6f 94 be 3f 60 36 f2 bf 81 42 3c 3f
       1.034757 1.4889048 -1.8922844 0.73538977
000200 2f 2d 1f c0 3d 96 bd 3e c9 b7 f6 3e 5c da b4 3c
       -2.4871328 0.37028685 0.48187092 0.022076778
000210 6f 3f fa be b7 a3 10 c0 52 09 89 3f 78 64 c9 3f
       -0.4887652 -2.2599924 1.0705969 1.5733786
000220 38 d0 f5 bf 44 2e 4e 3f 41 d8 27 c0 7a 08 b0 3e
       -1.9204168 0.80539346 -2.622574 0.34381467
000230 ea 1c 0b 3f 14 c8 29 3e 34 25 c8 be 9b d4 06 c0
       0.54340994 0.1658023 -0.39090884 -2.1067264
000240 ea 1d 90 3f de 66 cf 3f fa af fc bf 08 0c 2a 3f
       1.1259129 1.6203268 -1.9741204 0.6642461
000250 fb f5 3a c0 80 49 a9 3e 64 61 1d 3f a1 60 0a 3e
       -2.9212635 0.3306389 0.6147673 0.13513424
000260 96 35 8a be df db 03 c0 67 1c 8f 3f dc 68 dd 3f
       -0.26994008 -2.0602949 1.1180543 1.7297626
000270 c3 dc 01 c0 88 d3 17 3f 89 76 46 c0 21 fb 89 3e
       -2.0290992 0.59307146 -3.1009848 0.2694941
000280 ba 66 40 3f fc 40 1c 3e 55 17 6d be b8 54 00 c0
       0.7515675 0.15259165 -0.23153432 -2.0051708
000290 84 2b 96 3f 16 f8 da 3f 60 48 04 c0 b3 22 07 3f
       1.173203 1.710696 -2.0669174 0.5278732
0002a0 8b b5 4f c0 3a e3 32 3e 44 6d 50 3f e5 97 ac 3d
       -3.2454555 0.17469493 0.81416726 0.08427409
0002b0 5d 9c 6c be e2 07 f6 bf ca 2f 99 3f 64 7e fc 3f
       -0.23106523 -1.9221156 1.1967709 1.9726071
0002c0 25 e9 02 c0 98 82 29 3f 4a ae 52 c0 2f 4c 62 3e
       -2.04548 0.66214895 -3.2918878 0.22099374
0002d0 1b 57 70 3f a0 4a 62 3e 8c 6f 0e be 91 7a e7 bf
       0.9388291 0.2209878 -0.1390974 -1.8084279
0002e0 36 19 99 3f 57 6d fa 3f 35 8e 07 c0 f6 b8 00 3f
       1.1960819 1.9564618 -2.1180546 0.5028223
0002f0 15 8e 5e c0 88 f4 30 3e 18 dc a4 3f 77 d8 af 3e
       -3.477422 0.17280781 1.2879667 0.34344837
000300 90 7e b3 bc f5 cd ce bf 37 9f 9a 3f 07 58 ea 3f
       -0.021910936 -1.6156603 1.2079839 1.8308114
000310 83 77 0f c0 80 fd a7 3c 5e 01 68 c0 7f 0a 05 3e
       -2.2416694 0.02050662 -3.6250834 0.12992285
000320 2a 29 c1 3f f8 e6 c6 3d 68 1d 1b 3e 6b bb ca bf
       1.5090687 0.097120225 0.15147936 -1.5838445
000330 7c 78 94 3f 2f 4e ec 3f da 9f 12 c0 d2 41 e5 3d
       1.1599269 1.846136 -2.2910066 0.11194195
000340 30 bb 6e c0 da 59 4d 3e ac c5 f3 3f 61 6c ad 3e
       -3.730175 0.20053807 1.90447 0.3387175
000350 ce b4 5c 3e a0 b4 c3 bf d4 c3 9f 3f fa d6 f4 3f
       0.21553347 -1.5289497 1.2481637 1.9128106
000360 4a d4 17 c0 9f a4 25 be f9 2e 76 c0 dc 0d 07 3e
       -2.372332 -0.16176079 -3.846617 0.1318888
000370 b2 8c 07 40 10 02 a6 3e 93 23 b5 3e aa 17 c3 bf
       2.1179624 0.3242345 0.35378703 -1.5241597
000380 0f de a0 3f 11 05 0c 40 3d d3 1c c0 e8 78 dd bc
       1.2567767 2.1878092 -2.450393 -0.027035192
000390 2f d7 79 c0 a9 a5 08 3e 33 60 25 40 ec 06 d1 3e
       -3.9037588 0.13344444 2.5839965 0.40825593
0003a0 c1 dc 00 3f 9d db bf bf 4e 4d a7 3f de 33 11 40
       0.50336844 -1.4988896 1.3070467 2.2687907
0003b0 f7 75 1d c0 40 bb 95 3d 0c 61 7d c0 f4 21 13 3e
       -2.460325 0.07311106 -3.9590483 0.14368421
0003c0 a4 8f 40 40 42 9f b5 3e b6 b0 33 3f 2d 23 c5 bf
       3.0087671 0.35473067 0.70191514 -1.540136
0003d0 f0 51 b3 3f 7a 2b 0d 40 0d bb 1f c0 a0 29 f3 bb
       1.400938 2.2057786 -2.4957917 -0.0074207336
0003e0 dd 25 80 c0 94 20 b9 3d fb db 4d 40 ac 53 01 3f
       -4.004622 0.09039417 3.2165515 0.505183
0003f0 4a a1 4f 3f 75 c1 d4 bf 89 1e c9 3f a4 78 0f 40
       0.8110548 -1.6621538 1.5712444 2.2417383
