notebooks/dice/results/ipd_bs64_nl/run-5/params.npy (npy, 8128 bytes, 1 tensors)

array f4 [200, 2, 5]
00000000: 4c5c 323f e0bd 59be 746e 3a3f 98d9 a33e
00000010: c0e6 2e3e 10ad ed3e 90bb f0be f4ac 093f
00000020: 0093 f03c ece6 7c3f 6c85 f53e 56c2 b4be
00000030: 3eac 213f 64bf 6f3e 7ee7 173e fc9a bf3e
00000040: 2a13 05bf 6020 bb3e 2486 5bbd fa32 763f
00000050: a326 a93e 7c13 d7be ebe4 ff3e 0ebe 353e
00000060: 2e4f d93d 2465 bf3d 00a6 1ebf 6166 133e
00000070: 678e 82be 3717 6c3f 0fe2 003e a098 0cbf
00000080: 14b7 943e 5c86 783d 312f b13d b477 e5bd
00000090: 3eea 48bf f049 37bd a003 b3be 1699 753f
000000a0: 0078 b4bb 076d 2fbf 9217 da3d 122b e8bd
000000b0: 7f57 823d a850 22be 4a81 70bf ebb1 a6be
000000c0: 2b03 14bf fa6c 713f 6d2e 25be 83e3 64bf
000000d0: e0dc 7bbd ee1b bbbe 56ab 793d 22c7 67be
000000e0: a4fb 86bf 94d7 ebbe bb80 4fbf 38f0 7d3f
000000f0: 144e b1be b804 78bf 9c9d 3ebe 5771 1bbf
00000100: 20bf b63c 2744 afbe 7959 97bf f54c 1fbf
00000110: af38 8cbf 53c2 813f 9d43 c5be 23c3 92bf
00000120: 7084 b3be 3306 62bf 50e0 1abd be50 dcbe
00000130: 742a 9cbf 8ca8 5fbf 73ce a8bf 0168 753f
00000140: 12d5 d5be 7594 a1bf b480 00bf 60e4 92bf
00000150: b833 6fbd 60b1 fcbe c51d a3bf 2c03 80bf
00000160: 9382 c5bf 2afe 693f 5f2c eebe 46c9 b1bf
00000170: 62f4 0ebf 4d2f afbf d364 4ebd 8691 0bbf
00000180: c0d8 a6bf 9be8 88bf 58a7 ddbf fa0d 5e3f
00000190: 8b8a 05bf 16da bdbf 90de 26bf 87a1 c7bf
000001a0: f4f2 b9bd 9a33 16bf 6dc2 aebf fcc6 8fbf
000001b0: b490 ebbf 1bc3 5c3f 6a6e 0dbf 0508 cabf
000001c0: 6f36 35bf de94 f5bf 6c8c c8bd 8690 17bf
000001d0: 4861 bebf 65f0 9fbf c3ec 01c0 6f7c 523f
000001e0: cbe1 13bf f257 cebf 9afa 53bf 7ea1 0ac0
000001f0: 0f49 6ebd 7fe9 1cbf 0d42 c5bf 8c1a a8bf
00000200: bee9 0ac0 ba5e 3f3f 1e29 1abf c230 d3bf
00000210: 32da 63bf a2a0 11c0 b06f 67bd eb0f 27bf
00000220: 030d cabf 4ec4 abbf 370f 14c0 4fc9 2d3f
00000230: e212 1cbf 7f7a d7bf 582a 76bf 5d63 1ec0
00000240: 107c a4bd 1632 28bf 53f7 d0bf d158 afbf
00000250: b8ad 19c0 28e7 2f3f 5aca 1bbf 512d dabf
00000260: f927 83bf d263 26c0 5835 16be cd79 30bf
00000270: fa1b d8bf ea8d b5bf 9c17 25c0 ce4d 253f
00000280: 25d6 21bf b8d9 d9bf ed2e 89bf a69f 30c0
00000290: 1040 23be 9713 38bf fe58 dabf fa0c babf
000002a0: 5d69 2cc0 a416 143f 2170 22bf 64fd ddbf
000002b0: 663c 8cbf dc55 38c0 da5a 5cbe 94bd 42bf
000002c0: 4692 debf cc19 bcbf f015 36c0 0de8 133f
000002d0: ea57 26bf 9a1d e0bf 2922 93bf 1c39 3ec0
000002e0: 79ac 77be de0f 46bf be10 e6bf 699a c1bf
000002f0: b1e1 3dc0 2ac8 073f ca25 25bf 34e8 e0bf
00000300: 84a4 97bf 13ae 43c0 5ca9 91be 1a0c 4dbf
00000310: 2603 eabf 5502 c7bf 4ba7 43c0 9aa5 e53e
00000320: faae 2bbf 7241 e5bf 0090 9dbf d869 4ac0
00000330: a27c 8bbe 8758 53bf 63c0 ecbf 7107 cbbf
00000340: 590d 4ac0 458c e33e 229d 2abf c1ca e9bf
00000350: 1baf 9fbf 494b 51c0 bfdc 85be 00b1 57bf
00000360: fe55 f1bf cc61 d0bf 7d70 52c0 e5d6 d03e
00000370: fa14 2abf e883 edbf 6865 a1bf 096e 57c0
00000380: 1a31 97be 0d02 56bf 99b9 f0bf e170 d2bf
00000390: bd17 58c0 b7f7 bd3e a5ea 24bf 34a7 f3bf
000003a0: b284 a4bf 1e00 5ec0 fc5d 91be 3eee 59bf
000003b0: c9f3 f3bf 49be d4bf c12f 5bc0 48cb b23e
000003c0: b65d 2abf f6b2 f4bf 1776 a6bf 8afe 60c0
000003d0: d7e4 8cbe 3395 5cbf 2668 f3bf 9ca5 d5bf
000003e0: fa91 5fc0 599c a83e 609f 31bf 849e f6bf
000003f0: d4f4 a7bf a80a 65c0 179b a3be ca17 5ebf
0.69672084 -0.21263838 0.7282479 0.32001948 0.17080212 0.464211 -0.470181 0.5377953
0.02936697 0.9878986 0.47953355 -0.35304517 0.63153446 0.23412853 0.14834401 0.3742293
-0.5198237 0.36548138 -0.053594723 0.96171534 0.3303729 -0.42007053 0.49979338 0.17748281
0.106108055 0.09345463 -0.61972046 0.14394523 -0.2549927 0.92222923 0.12586235 -0.5492039
0.29045928 0.06067501 0.08651579 -0.11204472 -0.78482425 -0.044748247 -0.34963703 0.95936716
-0.005507469 -0.6852574 0.10649027 -0.1133634 0.06364345 -0.1585108 -0.9394728 -0.32557616
-0.57817334 0.9430691 -0.16130991 -0.89409655 -0.06148994 -0.36544746 0.060954414 -0.22634557
-1.0545545 -0.4606291 -0.810558 0.9919467 -0.3462988 -0.968822 -0.1861481 -0.6071982
0.022307932 -0.34231684 -1.182418 -0.622268 -1.0954798 1.0137428 -0.38528147 -1.1465801
-0.3506198 -0.8829071 -0.037811577 -0.4303035 -1.2200456 -0.8736656 -1.3188003 0.9586182
-0.41764122 -1.262343 -0.50196385 -1.1475945 -0.058398932 -0.49354076 -1.274346 -1.0000968
-1.5430473 0.9140345 -0.46518227 -1.3889549 -0.5584165 -1.368631 -0.050389122 -0.54518926
-1.3034897 -1.0695986 -1.7316694 0.86740077 -0.52164525 -1.483218 -0.65183353 -1.5596169
-0.09079543 -0.5867249 -1.3653084 -1.12326 -1.8403535 0.8623521 -0.55246603 -1.5783697
-0.70786184 -1.9186056 -0.09792408 -0.592049 -1.4873438 -1.2495238 -2.0300758 0.8222112
-0.5776641 -1.6120589 -0.8280426 -2.1661067 -0.058175143 -0.61293787 -1.5410782 -1.3133101
-2.1705165 0.74753916 -0.6021899 -1.6499255 -0.89004815 -2.2754292 -0.056502998 -0.65258664
-1.5785221 -1.3419282 -2.3134286 0.678853 -0.6096631 -1.6834258 -0.9615836 -2.4748147
-0.080314755 -0.65701425 -1.6325477 -1.369898 -2.401228 0.6871209 -0.6085564 -1.704508
-1.0246574 -2.5998425 -0.14668787 -0.68935853 -1.6883538 -1.4183934 -2.579566 0.64571846
-0.63217384 -1.7019567 -1.0717446 -2.7597442 -0.15942407 -0.7190489 -1.7058408 -1.453521
-2.6939309 0.57847047 -0.63452345 -1.7342954 -1.0955932 -2.8802404 -0.21519032 -0.76070523
-1.7388389 -1.4695373 -2.845089 0.57775956 -0.64977896 -1.7509034 -1.14948 -2.9722357
-0.24186887 -0.7736796 -1.7973859 -1.5125247 -2.9669 0.530398 -0.64510787 -1.7570863
-1.1847081 -3.0574996 -0.28449523 -0.8009659 -1.8282211 -1.5547587 -3.0570858 0.44852906
-0.6706387 -1.7910597 -1.230957 -3.1627102 -0.27243525 -0.82556957 -1.8496212 -1.5861646
-3.1570647 0.44442955 -0.66646016 -1.8265 -1.2475313 -3.27022 -0.26144978 -0.84254456
-1.8854368 -1.6279845 -3.2881157 0.40788952 -0.6643826 -1.855588 -1.2609072 -3.366091
-0.2952965 -0.8359688 -1.880664 -1.6440698 -3.3764489 0.37103054 -0.6442054 -1.9035401
-1.2852995 -3.4687572 -0.28392017 -0.85129154 -1.9058772 -1.662057 -3.4247897 0.34920716
-0.6654924 -1.9117115 -1.3004788 -3.5155358 -0.2751834 -0.8616516 -1.9016159 -1.6691165
-3.4932847 0.32931784 -0.6938381 -1.9267125 -1.3121591 -3.5787754 -0.31954262 -0.8675505
