notebooks/dice/results/ipd_bs64_2inner_om/run-3/params_om.npy (npy, 8128 bytes, 1 tensors)

array f4 [200, 2, 1, 5]
0	0x3e7ea399	0.24867095
1	0xbe1b92ef	-0.1519277
2	0x3e15d657	0.14632545
3	0xbda25fae	-0.07928406
4	0xbdb1d785	-0.08683685
5	0x3e3ac0f0	0.18237662
6	0xbcf920d6	-0.030411165
7	0x378e6180	1.6973121e-05
8	0x3edbb30e	0.42910045
9	0x3ef69388	0.48159432
10	0x3e34ec5a	0.17668286
11	0xbe1ba609	-0.15200056
12	0x3e7ea824	0.24868828
13	0xbe6d805f	-0.23193501
14	0xbdb95c5e	-0.09050821
15	0x3e7d5f5b	0.24743406
16	0xbdf6978c	-0.12040624
17	0x3d5d5657	0.05403742
18	0x3eadc47c	0.33938968
19	0x3ef4e086	0.47827548
20	0x3e15355f	0.1457114
21	0xbeb4b5d4	-0.35294974
22	0x3e753340	0.23945332
23	0xbf3d75e6	-0.74008024
24	0xbdc7dda8	-0.097590744
25	0x3e9faf54	0.31188452
26	0xbec03499	-0.3754013
27	0x3cfa25f6	0.03053568
28	0xbe43dd95	-0.19127496
29	0x3ef1fb33	0.47261962
30	0x3e4d05b1	0.20021702
31	0xbf0d53a6	-0.5520576
32	0x3eac5de7	0.33665392
33	0xbf9ab4e2	-1.2086451
34	0xbdd1d6f2	-0.10246076
35	0x3ef038ad	0.4691824
36	0xbf1a47b4	-0.6026566
37	0x3e3c2fb4	0.18377572
38	0xbf268577	-0.650474
39	0x3eee1ae1	0.46504882
40	0x3e793111	0.24335124
41	0xbf33709c	-0.70093703
42	0x3eb91767	0.36150667
43	0xbfd71159	-1.6802169
44	0xbddb484f	-0.10707151
45	0x3f0f03bb	0.5586507
46	0xbf4c05e5	-0.79696494
47	0x3e9c685b	0.30548367
48	0xbf989cc9	-1.1922847
49	0x3eec3368	0.4613297
50	0x3e8cf404	0.2752992
51	0xbf4e1d64	-0.80513597
52	0x3ed13d2f	0.40866992
53	0xc002d5fb	-2.0443103
54	0xbde82d97	-0.113368206
55	0x3f22ccc4	0.635937
56	0xbf6cd386	-0.9251026
57	0x3ece1c8a	0.4025615
58	0xbfd5dd17	-1.6708096
59	0x3ee8e233	0.45485076
60	0x3eb90c0a	0.36141998
61	0xbf68a961	-0.9088345
62	0x3f026071	0.5092841
63	0xc012e498	-2.2952023
64	0xbdf01a68	-0.117237866
65	0x3f43fafc	0.76554847
66	0xbf8218c8	-1.0163813
67	0x3f0a83cb	0.5410735
68	0xbffe43a4	-1.9864392
69	0x3ee74530	0.45169973
70	0x3f04ed98	0.5192504
71	0xbf7a0578	-0.97664595
72	0x3f2375ee	0.6385182
73	0xc01eedb5	-2.4832585
74	0xbdf9f046	-0.12204032
75	0x3f7091e1	0.93972594
76	0xbf8bd8d4	-1.0925546
77	0x3f273f33	0.6533081
78	0xc00fa88f	-2.244663
79	0x3ee5b280	0.44862747
80	0x3f2be4eb	0.67146176
81	0xbf85609a	-1.0420105
82	0x3f3b6aa0	0.7320957
83	0xc02af40c	-2.6711454
84	0xbe01bf35	-0.12670596
85	0x3f894436	1.0723941
86	0xbf92a8a3	-1.1457714
87	0x3f37fa96	0.7186674
88	0xc01dfe50	-2.468647
89	0x3ee477f3	0.44622764
90	0x3f78c36e	0.971732
91	0xbf8b9d12	-1.0907309
92	0x3f570f95	0.8400815
93	0xc0335358	-2.801962
94	0xbe05ed81	-0.13078882
95	0x3fa75079	1.3071433
96	0xbf9a83f8	-1.2071524
97	0x3f55e977	0.83559364
98	0xc027517c	-2.6143484
99	0x3ee3e8f5	0.4451367
100	0x3fa29339	1.2701179
101	0xbf91fe34	-1.1405702
102	0x3f73095f	0.94936174
103	0xc03a0b76	-2.9069495
104	0xbe086900	-0.13321304
105	0x3fc84864	1.5647092
106	0xbfa13655	-1.2594706
107	0x3f6b7c70	0.9198675
108	0xc02ef89b	-2.7339237
109	0x3ee52d83	0.44761285
110	0x3fcfd24f	1.6236056
111	0xbf96f1f9	-1.1792594
112	0x3f849532	1.0358031
113	0xc03ecfef	-2.9814413
114	0xbe0ba016	-0.13635287
115	0x3feea4e5	1.8644072
116	0xbfa4ae13	-1.2865623
117	0x3f80b9ea	1.0056736
118	0xc034cbd8	-2.8249416
119	0x3ee67d07	0.45017263
120	0x3ff32d72	1.8998244
121	0xbf9bf257	-1.2183331
122	0x3f8d7582	1.1051486
123	0xc04360c9	-3.0527823
124	0xbe0feff1	-0.14056374
125	0x4005dc28	2.0915623
126	0xbfa8659c	-1.3156009
127	0x3f89effc	1.0776362
128	0xc03a769e	-2.9134898
129	0x3ee7d7f5	0.4528195
130	0x4009984f	2.1499212
131	0xbfa1ea7f	-1.2649688
132	0x3f961b24	1.1727033
133	0xc046f9af	-3.1089895
134	0xbe11c9d2	-0.14237145
135	0x4013057b	2.2972095
136	0xbfad083f	-1.3518142
137	0x3f93e97f	1.1555632
138	0xc03ed6a6	-2.981851
139	0x3eea5d38	0.45774245
140	0x4015daf9	2.34149
141	0xbfa7cd9c	-1.3109622
142	0x3f9df7bc	1.2341228
143	0xc04ab681	-3.1673892
144	0xbe12d7ff	-0.14340208
145	0x401dab03	2.4635627
146	0xbfb202d8	-1.3907118
147	0x3f9c7223	1.2222332
148	0xc04368be	-3.053268
149	0x3eec3d32	0.46140438
150	0x402060dc	2.5059118
151	0xbfad0da9	-1.3519794
152	0x3fa43903	1.2829899
153	0xc04ded39	-3.217604
154	0xbe131f77	-0.14367472
155	0x4026f51c	2.6087103
156	0xbfb6437e	-1.4239347
157	0x3fa5086b	1.2893194
158	0xc047ae97	-3.120031
159	0x3eede0fd	0.46460715
160	0x40292651	2.6429636
161	0xbfb270e2	-1.3940699
162	0x3fa932ba	1.3218606
163	0xc0517f00	-3.2733765
164	0xbe160cd9	-0.14653338
165	0x402eac20	2.7292557
166	0xbfbab153	-1.4585365
167	0x3fac9edf	1.3485984
168	0xc04bbcc2	-3.1833959
169	0x3eef6502	0.4675675
170	0x40316256	2.771627
171	0xbfb756bf	-1.4323348
172	0x3faebb1b	1.365085
173	0xc05461dd	-3.318473
174	0xbe168616	-0.14699587
175	0x4035c0c5	2.8398907
176	0xbfbec1cc	-1.4902892
177	0x3fb40b34	1.4065919
178	0xc04f7b0e	-3.2418857
179	0x3ef18ebf	0.4717922
180	0x40381440	2.876236
181	0xbfbcce96	-1.4750545
182	0x3fb4141f	1.406864
183	0xc057a97a	-3.369719
184	0xbe173604	-0.14766699
185	0x403c0c7c	2.938262
186	0xbfc3b779	-1.5290366
187	0x3fbaecf3	1.4603561
188	0xc053580b	-3.3022487
189	0x3ef35fd3	0.47534046
190	0x403f0ab8	2.9850292
191	0xbfc1c9d5	-1.5139719
192	0x3fb923ba	1.4464028
193	0xc05a2c6f	-3.408962
194	0xbe18abb1	-0.14909245
195	0x404256de	3.036552
196	0xbfc8c10c	-1.5683913
197	0x3fc14432	1.5098937
198	0xc05641d9	-3.347769
199	0x3ef50345	0.47854057
200	0x4044e447	3.076433
201	0xbfc6882f	-1.551031
202	0x3fbd6d93	1.4799064
203	0xc05ce14f	-3.4512517
204	0xbe1bfd30	-0.15233302
205	0x4047f40d	3.1242707
206	0xbfcdc8b0	-1.607687
207	0x3fc6a156	1.5517986
208	0xc059674c	-3.3969297
209	0x3ef6e963	0.48224935
210	0x404a3f37	3.1601083
211	0xbfcbe218	-1.5928373
212	0x3fc21bfb	1.5164789
213	0xc05f663f	-3.4906156
214	0xbe1a77fb	-0.15084831
215	0x404d4749	3.207476
216	0xbfd31842	-1.6491778
217	0x3fcc21e7	1.5947846
218	0xc05c4f3c	-3.442336
219	0x3ef968b9	0.4871271
220	0x404f6ebe	3.2411342
221	0xbfd0c89b	-1.631122
222	0x3fc68c28	1.5511522
223	0xc062074d	-3.5316956
224	0xbe19b060	-0.15008688
225	0x405237cf	3.2846563
226	0xbfd81897	-1.6882504
227	0x3fd130b9	1.6342994
228	0xc05f14a4	-3.4856348
229	0x3efba8cd	0.49152222
230	0x40548cf8	3.321104
231	0xbfd5c0f4	-1.669951
232	0x3fcb7d6c	1.5897651
233	0xc06414a2	-3.5637593
234	0xbe18093c	-0.14847273
235	0x40572286	3.3614821
236	0xbfdcd568	-1.7252626
237	0x3fd6a719	1.6769744
238	0xc0614554	-3.5198565
239	0x3efe7119	0.49695662
240	0x4058c3e1	3.3869555
241	0xbfdaeac9	-1.7102901
242	0x3fcfd472	1.6236708
243	0xc0665582	-3.598969
244	0xbe164995	-0.14676507
245	0x405b6198	3.4278316
246	0xbfe1f550	-1.7652988
247	0x3fdc0423	1.7188762
248	0xc063d5f5	-3.559934
249	0x3f00b624	0.50277925
250	0x405ce23b	3.451308
251	0xbfdf1997	-1.7429684
252	0x3fd3d829	1.6550342
253	0xc068897b	-3.6333911
254	0xbe148e02	-0.14507297
255	0x405f8239	3.4923232
