notebooks/dice/results/ipd_bs64_2inner_om/run-3/params.npy (npy, 8128 bytes, 1 tensors)

array f4 [200, 2, 5]
0.08444173 -0.019669538 -0.30816448 0.45150664 -0.084780335 -0.023218136 0.49016538 0.20135882
0.014385241 -0.6379151 0.40700355 -0.33414438 0.21492505 0.10030511 0.027804472 -0.020423464
-0.16138342 0.44321668 -0.6511899 -0.6815861 0.69243443 -1.0728793 -0.039772063 -0.88639784
-0.10875932 -0.021916632 -1.0764887 0.21118936 -1.6388459 -0.7514316 1.5114655 -1.3050706
0.75170183 -1.3534887 -0.14665945 0.5102756 -1.5130639 0.5903942 -2.4687295 -0.6718595
1.653461 -1.7313063 1.0113177 -2.017994 0.040913478 0.6274271 -1.7344027 0.42799127
-3.0487032 -0.6836932 1.9734787 -1.8704803 1.0801556 -2.6926014 0.072139256 0.7344574
-1.7022187 0.633792 -3.2779467 -0.6609586 2.313536 -1.7657833 1.5517824 -3.0337222
0.112528875 1.0034757 -1.7575138 1.0291543 -3.47817 -0.66000986 2.6137967 -1.7577693
1.5017179 -3.415961 -0.008933969 1.5213244 -1.4772904 1.5755622 -3.5719588 -0.4786331
2.568893 -1.7263751 1.3608928 -3.65663 0.15405786 1.8957009 -1.8759944 1.5635699
-3.867833 -0.55533403 2.9419448 -1.8852443 2.0809622 -3.6957977 0.43584397 2.534911
-1.59983 1.8401757 -4.0739484 -0.48018527 3.450941 -1.8694315 1.8643157 -3.9218872
0.48636493 2.791353 -1.7351655 2.1663394 -4.129311 -0.37275967 3.7078352 -1.6318871
2.299659 -4.075033 0.7706841 3.3081775 -1.7799194 2.2352521 -4.119748 -0.48229918
3.7991948 -1.7323292 2.2915518 -4.1790953 0.8116756 3.6571116 -1.8363855 2.1954467
-4.156431 -0.5431794 3.921348 -1.9208499 2.4049308 -4.1998396 0.9113696 3.9267814
-1.9496826 2.2591028 -4.163336 -0.38057506 4.03748 -1.974554 2.532296 -4.2795477
0.9902993 4.032213 -2.0673604 2.3185828 -4.1938624 -0.34489664 4.164063 -2.096973
2.7030845 -4.40486 0.92437464 4.1394043 -2.15559 2.1323626 -4.266723 -0.3261639
4.2889514 -2.1612017 2.7248182 -4.406059 0.8403011 4.19361 -2.2137713 2.076152
-4.282267 -0.23678893 4.3028903 -2.1913278 2.7580292 -4.466015 0.8724406 4.3684416
-2.3107414 2.23006 -4.3669033 -0.27615327 4.482216 -2.4061084 2.7914908 -4.5227857
0.8509561 4.425213 -2.3702843 2.2745137 -4.4009542 -0.22974852 4.498382 -2.4685032
2.75331 -4.526457 0.8873393 4.5285406 -2.3831253 2.2912893 -4.4103374 -0.280967
4.6538205 -2.5905068 2.7060802 -4.5592113 0.9419306 4.6080523 -2.4692373 2.2177083
-4.4656453 -0.24191502 4.725053 -2.6758454 2.8210843 -4.6055884 1.0849698 4.6415486
-2.6185846 2.2516193 -4.562774 -0.0379539 4.7787523 -2.779394 2.80222 -4.6182876
1.0454463 4.70851 -2.684131 2.3785272 -4.5485845 -0.09562586 4.8660526 -2.8633883
2.839312 -4.6475244 1.190575 4.7739973 -2.7316883 2.3740058 -4.5898695 -0.039409336
4.940103 -2.944642 2.927724 -4.69612 1.2936391 4.803137 -2.7919443 2.3822768
-4.6421843 0.07103008 4.987741 -2.967113 2.9447289 -4.722934 1.4349307 4.830926
00000000: c9ef ac3d 0322 a1bc bcc7 9dbe e12b e73e
00000010: 50a1 adbd f633 bebc f5f6 fa3e 0231 4e3e
00000020: 13b0 6b3c 674e 23bf c562 d03e f914 abbe
00000030: 5015 5c3e c46c cd3d 34c6 e33c 1c4f a7bc
00000040: b241 25be 4ced e23e 62b4 26bf 6d7c 2ebf
00000050: 6243 313f 1c54 89bf 08e8 22bd f8ea 62bf
00000060: 35bd debd 828a b3bc 62ca 89bf 0642 583e
00000070: b4c5 d1bf d25d 40bf b477 c13f 8e0c a7bf
00000080: 886f 403f 1e3f adbf e52d 16be 6ca1 023f
00000090: 14ac c1bf 1324 173f aaff 1dc0 fcfe 2bbf
000000a0: 9ca4 d33f 729b ddbf dc72 813f d026 01c0
000000b0: e494 273d 109f 203f e800 debf ac21 db3e
000000c0: f41d 43c0 8406 2fbf f39a fc3f e66b efbf
000000d0: 8a42 8a3f 9553 2cc0 bfbd 933d 6605 3c3f
000000e0: 4de2 d9bf 3140 223f e1c9 51c0 9534 29bf
000000f0: f910 1440 3005 e2bf cea0 c63f 8128 42c0
00000100: 8a75 e63d e471 803f 36f6 e0bf 54bb 833f
00000110: 569a 5ec0 68f6 28bf 7248 2740 96fe e0bf
00000120: 4b38 c03f 1b9f 5ac0 c85f 12bc c2ba c23f
00000130: da17 bdbf 06ac c93f f99a 64c0 660f f5be
00000140: be68 2440 dcf9 dcbf bc31 ae3f 3a06 6ac0
00000150: 58c1 1d3e 54a6 f23f 9620 f0bf 0f23 c83f
00000160: 938a 77c0 5f2a 0ebf d348 3c40 af4f f1bf
00000170: 7c2e 0540 f387 6cc0 f126 df3e fb3b 2240
00000180: 3bc7 ccbf e18a eb3f c95d 82c0 d8da f5be
00000190: 38dc 5c40 8849 efbf e6a1 ee3f 3300 7bc0
000001a0: d304 f93e 87a5 3240 e719 debf 4ea5 0a40
000001b0: 5123 84c0 5bda bebe 2c4d 6d40 ade1 d0bf
000001c0: 9d2d 1340 ac66 82c0 8e4b 453f 2eb9 5340
000001d0: 66d4 e3bf 5f0e 0f40 fad4 83c0 ebef f6be
000001e0: 0226 7340 f7bc ddbf c9a8 1240 26bb 85c0
000001f0: f9c9 4f3f 1e0e 6a40 ae0e ebbf 3382 0c40
00000200: 7c01 85c0 ce0d 0bbf 5ef7 7a40 69de f5bf
00000210: 63ea 1940 1665 86c0 854f 693f 6350 7b40
00000220: 338f f9bf 2495 1040 0c3a 85c0 bcda c2be
00000230: 0933 8140 2fbe fcbf 2311 2240 0ef2 88c0
00000240: 4184 7d3f e407 8140 a24f 04c0 a963 1440
00000250: 1f34 86c0 4b96 b0be 0140 8540 ce34 06c0
00000260: 56ff 2c40 9df4 8cc0 d1a3 6c3f 0076 8440
00000270: 30f5 09c0 a178 0840 ff88 88c0 f4fe a6be
00000280: 173f 8940 2151 0ac0 6c63 2e40 6ffe 8cc0
00000290: f91d 573f 0e32 8640 6eae 0dc0 addf 0440
000002a0: 5508 89c0 cc78 72be 47b1 8940 b73e 0cc0
000002b0: 8d83 3040 98e9 8ec0 4458 5f3f 46ca 8b40
000002c0: 30e3 13c0 4eb9 0e40 acbd 8bc0 f663 8dbe
000002d0: 506e 8f40 aefd 19c0 c9a7 3240 a9ba 90c0
000002e0: 42d8 593f 589b 8d40 bdb2 17c0 a291 1140
000002f0: 9ed4 8cc0 3243 6bbe bff2 8f40 f5fb 1dc0
00000300: 3b36 3040 bcd8 90c0 ab28 633f cee9 9040
00000310: 2085 18c0 7ca4 1240 7c21 8dc0 e8da 8fbe
00000320: 19ec 9440 ddca 25c0 6b30 2d40 0fe5 91c0
00000330: 5d22 713f 2a75 9340 fc07 1ec0 efee 0d40
00000340: 91e6 8ec0 92b8 77be a233 9740 0d41 2bc0
00000350: a58c 3440 fb60 93c0 4ae0 8a3f 9187 9440
00000360: e496 27c0 881a 1040 3f02 92c0 8c75 1bbd
00000370: 8aeb 9840 97e1 31c0 9357 3340 03c9 93c0
00000380: 2fd1 853f 1dac 9640 cdc8 2bc0 ca39 1840
00000390: 018e 91c0 7ed7 c3bd b4b6 9b40 c141 37c0
000003a0: 4ab7 3540 85b8 94c0 c364 983f 96c4 9840
000003b0: fbd3 2ec0 b6ef 1740 36e0 92c0 af6b 21bd
000003c0: 5315 9e40 0475 3cc0 d45f 3b40 9d46 96c0
000003d0: f795 a53f 4cb3 9940 37af 32c0 3977 1840
000003e0: c68c 94c0 3878 913d 939b 9f40 2ee5 3dc0
000003f0: 7076 3c40 4622 97c0 cfab b73f f296 9a40
