notebooks/dice/results/ipd_bs64_original/run-2/params.npy (npy, 17648 bytes, 1 tensors)

array f8 [219, 2, 5]
0	0xbf985a6560000000	-0.023782333359122276
1	0x3fd0fccf60000000	0.2654303014278412
2	0x3fe82a5340000000	0.7551666498184204
3	0x3fce365440000000	0.23603299260139465
4	0x40026f33c0000000	2.304297924041748
5	0x3ff1211200000000	1.0705738067626953
6	0x3fe4987d80000000	0.6436145305633545
7	0x3fe30e2aa0000000	0.5954793095588684
8	0xbfd0d7ef60000000	-0.26317963004112244
9	0xbfcceb7380000000	-0.22593539953231812
10	0xc02d228b40000000	-14.567468643188477
11	0x3fe6a2f340000000	0.7073913812637329
12	0xc01a8b4b60000000	-6.6360297203063965
13	0x4014242960000000	5.035314083099365
14	0x4016bbc120000000	5.683353900909424
15	0xc02d362020000000	-14.605713844299316
16	0xc02938b080000000	-12.610721588134766
17	0x3ff3f41040000000	1.2470858097076416
18	0xc015f411c0000000	-5.488348960876465
19	0x4000e58d00000000	2.1120853424072266
20	0xc02d228800000000	-14.56744384765625
21	0xc01167c740000000	-4.351346015930176
22	0xc01a84df60000000	-6.629758358001709
23	0x401007f2a0000000	4.007761478424072
24	0x401828e080000000	6.039918899536133
25	0xc02d361fc0000000	-14.605710983276367
26	0xc0293827c0000000	-12.609678268432617
27	0x3ff3a9eaa0000000	1.2289835214614868
28	0xc01fb57e80000000	-7.927240371704102
29	0x401f33fdc0000000	7.800772666931152
30	0xc02d2284e0000000	-14.56742000579834
31	0xc00cceb360000000	-3.6009280681610107
32	0xc01a84df60000000	-6.629758358001709
33	0x3ffa9c4980000000	1.6631560325622559
34	0x4017946e00000000	5.894950866699219
35	0xc02d361f00000000	-14.605705261230469
36	0xc02937e360000000	-12.609156608581543
37	0x3ff3a9eaa0000000	1.2289835214614868
38	0xc020046960000000	-8.00861644744873
39	0x401f2981a0000000	7.790533542633057
40	0xc02d2281c0000000	-14.56739616394043
41	0xc00897d480000000	-3.0741357803344727
42	0xc01a84df60000000	-6.629758358001709
43	0x3ff69c7d80000000	1.413205623626709
44	0x4016ec7420000000	5.730911731719971
45	0xc02d361e20000000	-14.605698585510254
46	0xc02937afe0000000	-12.608763694763184
47	0x3ff3a9eaa0000000	1.2289835214614868
48	0xc01fefe2a0000000	-7.984262943267822
49	0x401f1dd960000000	7.779149532318115
50	0xc02d227ec0000000	-14.567373275756836
51	0xc007448880000000	-2.908463478088379
52	0xc01a84df60000000	-6.629758358001709
53	0x400f557b00000000	3.916738510131836
54	0x401628e1a0000000	5.539923191070557
55	0xc02d361d80000000	-14.605693817138672
56	0xc02937a860000000	-12.6087064743042
57	0x3ff3a9eaa0000000	1.2289835214614868
58	0xc01ffe6300000000	-7.998424530029297
59	0x401f140ea0000000	7.76958703994751
60	0xc02d227ba0000000	-14.567349433898926
61	0xc00a2c0f60000000	-3.2715137004852295
62	0xc01a84df60000000	-6.629758358001709
63	0x400b945d40000000	3.4474434852600098
64	0x4015380c00000000	5.3047332763671875
65	0xc02d361cc0000000	-14.605688095092773
66	0xc029379e00000000	-12.608627319335938
67	0x3ff3a9eaa0000000	1.2289835214614868
68	0xc01ff73f00000000	-7.991451263427734
69	0x401f096880000000	7.759187698364258
70	0xc02d227880000000	-14.567325592041016
71	0xc00bd3ad40000000	-3.4783577919006348
72	0xc01a84df60000000	-6.629758358001709
73	0x4009e66420000000	3.2374956607818604
74	0x40140aa680000000	5.010400772094727
75	0xc02d361c00000000	-14.605682373046875
76	0xc029379640000000	-12.60856819152832
77	0x3ff3a9eaa0000000	1.2289835214614868
78	0xc020043200000000	-8.008193969726562
79	0x401efe9720000000	7.748623371124268
80	0xc02d227580000000	-14.567302703857422
81	0xc00d519080000000	-3.6648263931274414
82	0xc01a84df60000000	-6.629758358001709
83	0x4007c98000000000	2.973388671875
84	0x401279f760000000	4.619107723236084
85	0xc02d361b40000000	-14.605676651000977
86	0xc029379020000000	-12.608521461486816
87	0x3ff3a9eaa0000000	1.2289835214614868
88	0xc0200286a0000000	-8.00493335723877
89	0x401ef3a7a0000000	7.73794412612915
90	0xc02d227280000000	-14.567279815673828
91	0xc00dcfc3a0000000	-3.726447343826294
92	0xc01a84df60000000	-6.629758358001709
93	0x4005288980000000	2.6447935104370117
94	0x4010302400000000	4.0470123291015625
95	0xc02d361a80000000	-14.605670928955078
96	0xc029378b20000000	-12.60848331451416
97	0x3ff3a9eaa0000000	1.2289835214614868
98	0xc020067ba0000000	-8.012661933898926
99	0x401ee88ec0000000	7.727107048034668
100	0xc02d226f80000000	-14.567256927490234
101	0xc00ed39600000000	-3.853313446044922
102	0xc01a84df60000000	-6.629758358001709
103	0x4001acd9a0000000	2.209399461746216
104	0x40086368a0000000	3.048539400100708
105	0xc02d3619c0000000	-14.60566520690918
106	0xc0293783c0000000	-12.608427047729492
107	0x3ff3a9eaa0000000	1.2289835214614868
108	0xc02003fe60000000	-8.007800102233887
109	0x401edd2fc0000000	7.716002464294434
110	0xc02d226cc0000000	-14.567235946655273
111	0xc00fcfb340000000	-3.9764161109924316
112	0xc01a7785e0000000	-6.6167216300964355
113	0x3ffa15c380000000	1.6303133964538574
114	0x40128c7720000000	4.637173175811768
115	0xc02d361900000000	-14.605659484863281
116	0xc029378140000000	-12.608407974243164
117	0x3ff6488fc0000000	1.3927152156829834
118	0xc0200b47a0000000	-8.0220308303833
119	0x401ed191c0000000	7.704657554626465
120	0xc02d2269e0000000	-14.567214012145996
121	0xc0107180e0000000	-4.110843181610107
122	0xc01a7671a0000000	-6.615667819976807
123	0x3fe54b1e00000000	0.6654195785522461
124	0x4013b90060000000	4.930665493011475
125	0xc02d361820000000	-14.605652809143066
126	0xc029377380000000	-12.60830307006836
127	0x3ff7029380000000	1.43812894821167
128	0xc0200882e0000000	-8.016623497009277
129	0x401ec520c0000000	7.692507743835449
130	0xc02d226720000000	-14.567193031311035
131	0xc010933c20000000	-4.143784046173096
132	0xc01a766780000000	-6.615629196166992
133	0xbff5793a80000000	-1.3420968055725098
134	0x4012266260000000	4.537484645843506
135	0xc02d361700000000	-14.605644226074219
136	0xc029374660000000	-12.607958793640137
137	0x3ff6f0ab00000000	1.4337568283081055
138	0xc01fff88c0000000	-7.999545097351074
139	0x401eb67aa0000000	7.678202152252197
140	0xc02d2264c0000000	-14.567174911499023
141	0xc011a793a0000000	-4.413649082183838
142	0xc01a6e0f00000000	-6.607479095458984
143	0xc01350b0c0000000	-4.828799247741699
144	0x40126b8540000000	4.6050004959106445
145	0xc02d361500000000	-14.605628967285156
146	0xc0293719e0000000	-12.607619285583496
147	0x3ff8a99040000000	1.5413973331451416
148	0xc0201cb1e0000000	-8.056044578552246
149	0x401ea0fdc0000000	7.657217979431152
150	0xc02d226280000000	-14.567157745361328
151	0xc011b24ac0000000	-4.4241132736206055
152	0xc01a6e0f00000000	-6.607479095458984
153	0xc0146f76c0000000	-5.108851432800293
154	0x4010a3d660000000	4.159997463226318
155	0xc02d3612e0000000	-14.605612754821777
156	0xc029371880000000	-12.607608795166016
157	0x3ff8a99040000000	1.5413973331451416
158	0xc01fddb900000000	-7.966526031494141
159	0x401e8a8120000000	7.635258197784424
160	0xc02d226060000000	-14.56714153289795
161	0xc0113b33c0000000	-4.307814598083496
162	0xc01a676940000000	-6.600987434387207
163	0xc014c12880000000	-5.188631057739258
164	0x4010681880000000	4.101655960083008
165	0xc02d3610e0000000	-14.605597496032715
166	0xc029371720000000	-12.607598304748535
167	0x3ff6681420000000	1.4004098176956177
168	0xc020233420000000	-8.068757057189941
169	0x401e739f40000000	7.612912178039551
170	0xc02d225e40000000	-14.56712532043457
171	0xc01145de20000000	-4.318230152130127
172	0xc01a5dcfc0000000	-6.591612815856934
173	0xc01530a5a0000000	-5.297506809234619
174	0x4011a877c0000000	4.414519309997559
175	0xc02d360ee0000000	-14.605582237243652
176	0xc029371620000000	-12.607590675354004
177	0x3feeba60a0000000	0.9602511525154114
178	0xc02028a5a0000000	-8.079388618469238
179	0x401e5c4d40000000	7.5901384353637695
180	0xc02d225c20000000	-14.567109107971191
181	0xc0114dff40000000	-4.326169013977051
182	0xc01a5d2620000000	-6.590965747833252
183	0xc01574e800000000	-5.364166259765625
184	0x400f1dd720000000	3.889570474624634
185	0xc02d360ce0000000	-14.60556697845459
186	0xc029371580000000	-12.607585906982422
187	0x3ff137bb20000000	1.0761061906814575
188	0xc0202dfe40000000	-8.08983039855957
189	0x401e44b7a0000000	7.5671067237854
190	0xc02d225a00000000	-14.567092895507812
191	0xc0115524a0000000	-4.3331475257873535
192	0xc01a58d8a0000000	-6.586763858795166
193	0xc0160550c0000000	-5.505190849304199
194	0x400c996340000000	3.5748963356018066
195	0xc02d360ae0000000	-14.605551719665527
196	0xc029371440000000	-12.607576370239258
197	0x3feb8afea0000000	0.8607171177864075
198	0xc020306d20000000	-8.094582557678223
199	0x401e2ca520000000	7.543598651885986
200	0xc02d2257e0000000	-14.567076683044434
201	0xc01147f960000000	-4.320287227630615
202	0xc01a586900000000	-6.586338043212891
203	0xc0166ee060000000	-5.608277797698975
204	0x40032560c0000000	2.3932509422302246
205	0xc02d3608e0000000	-14.605536460876465
206	0xc029371360000000	-12.607569694519043
207	0x3ff1214a20000000	1.0706273317337036
208	0xc02033b9a0000000	-8.101025581359863
209	0x401e146e00000000	7.519950866699219
210	0xc02d2255e0000000	-14.567061424255371
211	0xc011522440000000	-4.330216407775879
212	0xc01a4d57e0000000	-6.575530529022217
213	0xc016e175e0000000	-5.7201762199401855
214	0x3ff0f50c60000000	1.0598262548446655
215	0xc02d360700000000	-14.605522155761719
216	0xc0293712a0000000	-12.607563972473145
217	0x4000ac77c0000000	2.0842127799987793
218	0xc0204c26a0000000	-8.14873218536377
219	0x401dfb9340000000	7.495678901672363
220	0xc02d225420000000	-14.567048072814941
221	0xc011594520000000	-4.337177753448486
222	0xc01a0e5f00000000	-6.514034271240234
223	0xc01720a5c0000000	-5.781882286071777
224	0xc013251b80000000	-4.786237716674805
225	0xc02d3605e0000000	-14.605513572692871
226	0xc029371240000000	-12.607561111450195
227	0x4015708480000000	5.359880447387695
228	0xc020797560000000	-8.237223625183105
229	0x401de57500000000	7.474079132080078
230	0xc02d225420000000	-14.567048072814941
231	0xc0115ad580000000	-4.338705062866211
232	0xc01cc7e9a0000000	-7.195227146148682
233	0xc01758e520000000	-5.836811542510986
234	0xc0131c0a20000000	-4.7773823738098145
235	0xc02d3605c0000000	-14.605512619018555
236	0xc029371220000000	-12.607560157775879
237	0x3ff6d11800000000	1.4260482788085938
238	0xc0207807e0000000	-8.234435081481934
239	0x401dbd9bc0000000	7.435164451599121
240	0xc02d225420000000	-14.567048072814941
241	0xc0115e8260000000	-4.342294216156006
242	0xc01e8e4c60000000	-7.638963222503662
243	0xc0180177e0000000	-6.001433849334717
244	0xc01447f380000000	-5.07026481628418
245	0xc02d3605c0000000	-14.605512619018555
246	0xc0293711e0000000	-12.607558250427246
247	0xbfbb01d400000000	-0.10549664497375488
248	0xc0207d61c0000000	-8.24488639831543
249	0x401da05f60000000	7.406613826751709
250	0xc02d225420000000	-14.567048072814941
251	0xc0116278e0000000	-4.346164226531982
252	0xc01e6c35c0000000	-7.605673789978027
253	0xc0180730a0000000	-6.007021427154541
254	0xc015e693c0000000	-5.475172996520996
255	0xc02d3605c0000000	-14.605512619018555
