notebooks/dice/results/ipd_bs64_nomagic/run-1/params.npy (npy, 8128 bytes, 1 tensors)

array f4 [200, 2, 5]
00000000: 405a 1ebe 403c 52bd c462 2abf 803a cebe
00000010: 087d 3d3f e0d2 3f3f a8e9 113f 2011 c03d
00000020: 204f 263e 40b9 1c3f b8cb 97be 4ac1 b9be
00000030: 3455 5dbf e6be 31bf f344 3a3f dcb8 143f
00000040: 9c28 ab3d 0058 bc3a e85c 37be e912 123f
00000050: b213 b7be 7054 01bf 240b 79bf d8c5 6cbf
00000060: a1be 393f 7e16 f33e 8610 a0be ddd8 1c3c
00000070: c0aa fcbe c886 063f 11ed b8be fe6f 03bf
00000080: 7a76 7abf b492 8dbf f618 423f fec0 b43e
00000090: c17c 09bf ab36 01be 5455 61bf 4954 053f
000000a0: 4407 9abe 01f3 1dbf 7155 82bf 9a9c 9dbf
000000b0: 6647 3b3f e256 8c3e 30de 44bf fcb9 84be
000000c0: 3dc8 96bf 923b fe3e 2c66 9dbe de8c 36bf
000000d0: e5df 8bbf 1df5 babf a1f0 443f 64d0 303e
000000e0: db19 75bf a9e7 cfbe acc0 b9bf 5f7f ee3e
000000f0: 3e3d adbe 6611 42bf cd1c 8dbf 8d0d d6bf
00000100: ab43 563f 1d11 bf3d a4ad 87bf 2292 f7be
00000110: 872c ddbf 78da d13e e135 cdbe 17ed 4dbf
00000120: c9a2 90bf 32b2 e3bf e6a3 533f f06c c73c
00000130: f982 95bf 994e 11bf a291 ffbf 356b c83e
00000140: f39a d4be da57 78bf 05e5 97bf 93b6 00c0
00000150: f8d9 4a3f d2c3 48bd fd9d afbf f923 2fbf
00000160: 6ec7 0dc0 f039 ad3e 881a f0be 6946 85bf
00000170: 5f21 9cbf 255c 06c0 9a97 443f f582 5cbd
00000180: 26b8 b5bf 4333 3fbf 00b1 1dc0 0ea6 913e
00000190: 3d5c f1be 5b70 87bf 6677 a1bf c5f4 0dc0
000001a0: 6a16 3c3f d282 9dbd aefc bdbf eabb 56bf
000001b0: 5e99 2ac0 8e62 5e3e f751 00bf 1d9c 8dbf
000001c0: 71ea a2bf 9b2e 18c0 58dc 3b3f b67f bbbd
000001d0: 9bbf c3bf 7d9e 60bf 56b1 31c0 1621 223e
000001e0: 51d9 03bf 387b 94bf 6704 a2bf 7d40 25c0
000001f0: 9b78 323f 34c6 ffbd 565c c7bf 9b9a 76bf
00000200: 73fb 38c0 fe3e 093e 6963 05bf 9534 9bbf
00000210: e001 a5bf 7234 2fc0 2f0d 2e3f 0705 14be
00000220: d6ca cbbf 0469 7cbf f357 3ec0 0d11 f53d
00000230: d878 04bf 589c a0bf 7c3d a7bf 1652 33c0
00000240: e2e5 303f bdae 27be d019 cfbf 8430 82bf
00000250: 1bfc 41c0 1c7f ce3d 4887 07bf ea05 a9bf
00000260: 10a3 abbf 1672 3cc0 30fd 293f c7b2 44be
00000270: 913e cfbf ad14 87bf 0743 49c0 40f8 903d
00000280: d21f 09bf 454e afbf 1374 aebf 9a83 46c0
00000290: 49a6 213f 87b0 4cbe cee6 d2bf 9660 8bbf
000002a0: 5013 4dc0 262e 0d3d 8f7a 0bbf 870f b5bf
000002b0: 2de4 b0bf ee45 4cc0 2816 163f 7e43 7bbe
000002c0: 9629 d8bf 746f 93bf 406e 53c0 0046 5cb9
000002d0: 9ff9 0dbf ebb8 b6bf 8e99 b2bf 6b18 52c0
000002e0: b603 113f 43fc 77be 0915 dabf 69c3 96bf
000002f0: f4d7 57c0 cb06 21bd 60a7 11bf c172 bcbf
00000300: 5ee7 b4bf cde6 57c0 f319 103f 46b8 72be
00000310: 5d60 debf 51c1 9abf 4ab3 5bc0 3cd3 80bd
00000320: 5e77 16bf 65e4 c3bf 06ef b6bf 589d 5bc0
00000330: 5dab 0c3f f30e 78be e6d4 e1bf f715 9fbf
00000340: 4665 60c0 7eec febd 1db8 17bf 657a c6bf
00000350: fa76 b8bf 505a 62c0 fcd7 063f 1186 86be
00000360: f968 e6bf fc2a 9fbf 0834 65c0 247e 26be
00000370: cc99 1bbf 6b81 c8bf f431 b9bf 0d7a 65c0
00000380: 71dd ff3e ac1b 93be 5ea6 e7bf 382e a0bf
00000390: 768a 67c0 d9aa 35be 99f9 1dbf 6563 ccbf
000003a0: 9eb7 b9bf 3116 69c0 2c8e fd3e 272d 97be
000003b0: b431 eabf dcef a2bf 38fb 6bc0 b2f1 76be
000003c0: 17d8 22bf 8066 cfbf 71ab babf aa20 6dc0
000003d0: 6442 ec3e 6fa8 9bbe d465 ecbf 75c7 a3bf
000003e0: 4354 6fc0 d981 8abe a418 27bf 2762 d1bf
000003f0: d815 bcbf e3ac 70c0 0f6c e43e 85f7 a6be
-0.15464115 -0.05132699 -0.66556954 -0.40279007 0.7401891 0.74931145 0.56997156 0.09378266
0.16241121 0.6122017 -0.29647613 -0.3628028 -0.86458135 -0.6943191 0.7276146 0.58094573
0.08357355 0.0014369488 -0.17906535 0.57060105 -0.35757214 -0.50519466 -0.97282624 -0.92489386
0.725565 0.47478098 -0.31262606 0.009573189 -0.49349022 0.5254941 -0.36118367 -0.5134276
-0.9783703 -1.1060395 0.7581934 0.3530349 -0.53705984 -0.1261851 -0.88020825 0.52081734
-0.30083668 -0.6169892 -1.0182325 -1.2313416 0.7315582 0.27410036 -0.7690153 -0.25923145
-1.1779858 0.49654824 -0.30742013 -0.71308696 -1.0927702 -1.4606053 0.7692967 0.17266995
-0.9574258 -0.4060643 -1.4511924 0.4658155 -0.33835787 -0.758078 -1.1024414 -1.6722885
0.83697003 0.09329436 -1.0599866 -0.48353678 -1.7279214 0.4098699 -0.4008017 -0.80439895
-1.1299678 -1.7788756 0.82671964 0.024343938 -1.1680595 -0.56760556 -1.9966319 0.39144292
-0.41524467 -0.9700905 -1.1866766 -2.0111434 0.79238844 -0.049014874 -1.3720089 -0.68414265
-2.2152972 0.33833265 -0.46895242 -1.0412112 -1.2197684 -2.099374 0.76793826 -0.053835828
-1.4196823 -0.74687594 -2.4639282 0.28447002 -0.47140685 -1.0581163 -1.2614563 -2.2180645
0.734717 -0.076909676 -1.4842737 -0.83880484 -2.6656108 0.21717283 -0.5012507 -1.1063267
-1.2727796 -2.3778446 0.7338309 -0.09155218 -1.5292848 -0.87741834 -2.7764487 0.15832934
-0.51503474 -1.1600103 -1.2657593 -2.582061 0.6971528 -0.12488976 -1.5575054 -0.9632966
-2.8903472 0.13402936 -0.5210481 -1.2125422 -1.2891197 -2.737576 0.67988867 -0.14455043
-1.5921276 -0.9859774 -2.974118 0.11966143 -0.5174689 -1.2547712 -1.3065639 -2.8018851
0.69100773 -0.16375251 -1.6179752 -1.0171056 -3.0310123 0.10082838 -0.529408 -1.320493
-1.3409138 -2.9444633 0.6640196 -0.19208823 -1.6190969 -1.0553185 -3.144716 0.070786
-0.5356418 -1.3695761 -1.3629173 -3.1017823 0.63144356 -0.19989215 -1.6476686 -1.0888851
-3.2043037 0.03446784 -0.54483885 -1.4145364 -1.3819634 -3.1917682 0.5862756 -0.24537465
-1.6887691 -1.1518388 -3.3036041 -0.00021006912 -0.55459017 -1.4275182 -1.3953111 -3.2827404
0.5664629 -0.24217324 -1.703767 -1.1778384 -3.3725557 -0.03931312 -0.5689602 -1.472252
-1.4133108 -3.373462 0.56289595 -0.23703107 -1.7373158 -1.2090245 -3.432818 -0.0629029
-0.5877589 -1.5304075 -1.4291694 -3.4314785 0.5494898 -0.24224453 -1.7643096 -1.2428578
-3.5061812 -0.12447451 -0.5926531 -1.5506102 -1.4411309 -3.5367622 0.52673316 -0.2627416
-1.8000785 -1.2434993 -3.5813007 -0.16259056 -0.6078155 -1.5664495 -1.446837 -3.5855744
0.49973634 -0.2873205 -1.8097646 -1.2514105 -3.617826 -0.17740954 -0.6170898 -1.5967833
-1.450916 -3.6419795 0.4952253 -0.29526636 -1.8296418 -1.2729449 -3.6872082 -0.24115637
-0.63610977 -1.6203156 -1.458357 -3.7051187 0.46144402 -0.30401942 -1.8468575 -1.2795244
-3.739518 -0.2705219 -0.65271974 -1.6358079 -1.4694166 -3.7605522 0.44613692 -0.32610717
