notebooks/dice/results/ipd_bs64_magic/run-3/params.npy (npy, 8128 bytes, 1 tensors)

array f4 [200, 2, 5]
000000 4c 28 6d 3f 80 bf cf 3e 8c 3f 5a bf a0 15 5c 3f
       0.92639613 0.4057579 -0.85253215 0.859705
000010 20 5b 60 3f e0 71 23 3f a8 f5 b5 be c4 ab 0a 3f
       0.87639046 0.63845634 -0.35538983 0.54168344
000020 60 79 a2 be 58 24 c9 be 0c 87 88 3f 8c 82 bf 3d
       -0.31733227 -0.3928554 1.0666213 0.09351072
000030 49 87 43 bf ee b7 29 3f 2d 56 5f 3f f9 97 1d 3f
       -0.76378304 0.6629628 0.8724087 0.61560017
000040 d8 ae 3c bf 3c 2a d8 3e 8c 8a f9 be 65 4f cb be
       -0.7370429 0.42219722 -0.48738515 -0.3970901
000050 9e 58 97 3f ca 0e b1 3d 96 bd 50 bf 83 b8 0d 3f
       1.1823919 0.08645399 -0.81539285 0.5535967
000060 3b 5f 64 3f 1b a0 02 3f 3a 19 80 bf f5 74 b4 3e
       0.8920781 0.5102555 -1.0007699 0.3524548
000070 3e 3e 70 bf 1a a1 d0 be 7f f6 a6 3f 36 17 f8 be
       -0.93844974 -0.4074791 1.3043975 -0.4845521
000080 a5 f6 57 bf da 64 af 3e a9 17 5d 3f ed 3e 45 3f
       -0.84360725 0.3425663 0.8636423 0.7704914
000090 5a e4 88 bf a8 85 19 3f bd e7 69 bf 4c 81 f1 be
       -1.0694687 0.5996957 -0.9136923 -0.47168958
0000a0 50 24 d0 3f bf 9e 5b bf d2 8d 6d bf 88 01 4c 3e
       1.6261082 -0.857891 -0.92794526 0.19922459
0000b0 b1 5e 58 3f 78 b6 75 3f 24 8a 98 bf 48 36 26 3f
       0.8451949 0.9598155 -1.1917157 0.64926577
0000c0 e4 53 8a bf 73 c8 04 bf d4 34 de 3f ca 03 88 bf
       -1.0806851 -0.5186836 1.7359872 -1.0626156
0000d0 c0 7c 58 bf dc fb 7a 3d bf 25 53 3f 80 86 8e 3f
       -0.84565353 0.061275348 0.8247947 1.1134796
0000e0 dd bd a8 bf d4 02 08 3f d6 57 9f bf 64 9e 09 bf
       -1.3182942 0.53129315 -1.244868 -0.5375731
0000f0 8f e6 fa 3f a9 ad 80 bf 6d 17 60 bf b8 14 47 bd
       1.9601611 -1.0052997 -0.87535745 -0.048603743
000100 85 64 5a 3f f9 5c 99 3f fa 15 c4 bf 12 fa b7 3e
       0.8530963 1.1981498 -1.5319207 0.35932976
000110 aa e6 be bf 4c 69 16 bf cb 55 03 40 f7 39 9b bf
       -1.4914143 -0.5875442 2.0521114 -1.2127064
000120 e0 d3 5f bf 75 ca 37 be 57 a2 4e 3f 6d 8f be 3f
       -0.8743267 -0.17948325 0.8071646 1.488752
000130 fe 32 c7 bf 4e 8d 0d 3f 97 28 c9 bf e2 fb 07 bf
       -1.5562437 0.5529374 -1.5715512 -0.5311872
000140 7a 3b 11 40 c6 85 8d bf f3 00 51 bf e1 d8 4a be
       2.2692552 -1.105645 -0.81642073 -0.19809295
000150 66 ea 4b 3f 36 bc ba 3f 5d a2 de bf 62 04 ac 3e
       0.7965454 1.4588687 -1.7393299 0.33597094
000160 37 c8 f5 bf f8 df f1 be a0 e8 24 40 bb fa 7b bf
       -1.9201726 -0.47241187 2.5766983 -0.9842946
000170 34 be 4e bf 48 a9 c7 be be b2 48 3f 19 53 e6 3f
       -0.80758977 -0.3899634 0.7839774 1.7994109
000180 d1 1e d4 bf 6f a8 bd 3e c1 ae f6 bf 24 a7 d9 be
       -1.6571904 0.37042567 -1.9272081 -0.4251033
000190 e1 21 3c 40 26 6b 68 bf 70 78 2b bf d6 1f 96 be
       2.9395678 -0.90788496 -0.6698065 -0.29321164
0001a0 fa fe 65 3f 08 74 fe 3f b9 98 e2 bf d4 15 8c 3e
       0.8984219 1.987916 -1.7702857 0.27360404
0001b0 2f 3d 12 c0 5e 42 e2 be 8e d7 4d 40 5c 0e 15 bf
       -2.2849844 -0.4419126 3.2162814 -0.58225036
0001c0 fd 36 1a bf 54 78 ff be 2a 61 73 3f 6f 46 04 40
       -0.60240155 -0.4989649 0.95070136 2.066799
0001d0 59 a9 ed bf 08 69 d1 3e 47 a8 1b c0 33 89 dd be
       -1.8567306 0.40900445 -2.4321458 -0.43268737
0001e0 0c bd 5c 40 c8 28 43 bf 83 83 0e bf b5 d0 13 bf
       3.4490385 -0.762341 -0.5566942 -0.57740337
0001f0 66 e0 6c 3f aa bc 12 40 3c d6 f0 bf dd 05 15 3f
       0.92529905 2.2927651 -1.8815379 0.5821207
000200 01 e1 1e c0 25 db 01 bf d1 1e 72 40 ee 7b e7 be
       -2.4824831 -0.50725013 3.783131 -0.45211738
000210 2c ca d9 be b7 fd 17 bf d5 f0 7a 3f ca 7c 17 40
       -0.42537057 -0.59371513 0.9802373 2.3669915
000220 c0 e0 fa bf 2b 30 1e 3f ab 23 33 c0 d0 d3 0c bf
       -1.9599838 0.6179225 -2.799052 -0.550107
000230 7a 84 7f 40 78 42 c1 bd 3b 73 c3 be 1f 6f cd be
       3.9924607 -0.09436506 -0.3817385 -0.4012384
000240 a9 17 80 3f 15 19 0f 40 44 1d 04 c0 9a 49 e1 3e
       1.000722 2.235906 -2.0642862 0.44001466
000250 8a 76 3b c0 74 ef 1c bf 93 fb 84 40 d6 0f 20 3e
       -2.92911 -0.61302876 4.1557097 0.15631041
000260 ad 0b b2 be 67 cf 28 be a2 b3 8a 3f 22 0a 05 40
       -0.34774533 -0.16485368 1.083607 2.0787435
000270 c1 4c 0b c0 30 fc 5e 3e 32 a8 3f c0 f2 13 1f bf
       -2.1765597 0.2177589 -2.9946408 -0.6213981
000280 31 13 88 40 50 88 13 3e 48 4d ca be ca 59 a0 be
       4.2523427 0.14407468 -0.39512086 -0.31318504
000290 27 ce 8b 3f ae 44 02 40 8e c7 0b c0 e1 dd 91 3e
       1.0922288 2.0354419 -2.1840549 0.28489593
0002a0 62 7f 43 c0 6f 26 28 bf 62 84 8a 40 5e 15 c4 3e
       -3.0546498 -0.65683645 4.32866 0.38297552
0002b0 74 6a 8d be 33 35 f7 be e2 cf a1 3f 17 06 04 40
       -0.2762028 -0.48282775 1.2641566 2.0628717
0002c0 65 de 0e c0 e2 8b 93 3d 5d 2e 46 c0 36 5f 45 bf
       -2.232324 0.07204415 -3.0965798 -0.77098405
0002d0 d8 97 8e 40 98 67 a7 3e 83 40 49 be 6e 99 39 bf
       4.4560356 0.32696223 -0.19653516 -0.7249974
0002e0 3c a3 a1 3f 73 61 f6 3f 46 ac 12 c0 c4 dc 17 be
       1.262794 1.9248489 -2.2917647 -0.14830309
0002f0 58 c0 48 c0 14 1e 51 bf a5 5e 93 40 eb c1 25 3e
       -3.1367397 -0.8168652 4.6053033 0.16187255
000300 79 69 67 be 01 e9 4b bf 6d c8 a6 3f 88 ba f0 3f
       -0.22598828 -0.7965241 1.3029915 1.8806925
000310 8d f8 12 c0 84 e5 8c be 53 db 48 c0 3f 8d 54 bf
       -2.2964203 -0.27518857 -3.1383865 -0.83028024
000320 fd bd 95 40 54 60 b2 3e 50 07 83 be bf e2 54 bf
       4.679442 0.34839118 -0.25591516 -0.8315849
000330 ee 92 b1 3f 49 a7 df 3f 07 46 14 c0 94 b9 c3 be
       1.3872964 1.7472926 -2.3167741 -0.38227522
000340 d5 33 4d c0 32 bf 66 bf e2 34 99 40 de 08 8b 3e
       -3.2062886 -0.9013549 4.7877054 0.27155203
000350 1d 58 51 be 01 24 a3 bf d1 11 af 3f bb f1 0b 40
       -0.20443769 -1.2745363 1.3677312 2.186629
000360 92 13 15 c0 00 2d 33 3d a8 21 53 c0 3d 05 81 bf
       -2.3293195 0.043744087 -3.2989292 -1.0079724
000370 39 c9 9a 40 23 8c da 3e 25 72 bc bd e0 4c b2 bf
       4.8370633 0.4268504 -0.09201459 -1.392971
000380 24 59 ab 3f d2 c2 fb 3f e7 4b 14 c0 a3 e4 0d be
       1.3386579 1.966883 -2.3171327 -0.13856749
000390 3f 6d 55 c0 26 1c 7e bf 09 f9 9e 40 7e 10 40 3e
       -3.3347929 -0.992617 4.9679 0.18756291
0003a0 b3 d4 03 be 0c 68 e6 bf f8 13 b1 3f 86 77 0e 40
       -0.12874107 -1.8000503 1.3834219 2.2260451
0003b0 de 53 13 c0 68 42 b6 3d ab 11 56 c0 93 a3 86 bf
       -2.3019938 0.08899385 -3.3448284 -1.0518669
0003c0 a3 36 a1 40 4c 79 66 3e 04 31 81 3d cf 9a ed bf
       5.0379195 0.22507209 0.06308177 -1.8562869
0003d0 1d 43 b5 3f e3 e0 09 40 a5 89 15 c0 e2 74 90 3d
       1.4161106 2.154351 -2.3365262 0.070535436
0003e0 01 4c 56 c0 57 05 90 bf c2 d8 a2 40 91 f9 1d 3f
       -3.348389 -1.125163 5.0889597 0.61708933
0003f0 50 cb 8f 3e ff 02 da bf 2d ef b7 3f 6b 30 fc 3f
       0.28084803 -1.7032164 1.4369866 1.9702276
