notebooks/dice/results/ipd_bs64_original/run-4/params.npy (npy, 17648 bytes, 1 tensors)

array f8 [219, 2, 5]
-1.108455777168274 -0.14860446751117706 1.3255192041397095 0.29403647780418396 0.4319455623626709 0.5103046298027039 -0.3433000445365906 -0.4356548488140106
-0.2340211719274521 -0.19753220677375793 -0.030116677284240723 5.143026351928711 -1.5678147077560425 0.7178781032562256 1.4130542278289795 10.482036590576172
-9.267693519592285 7.152677059173584 -4.966226577758789 0.1640852391719818 32.85377502441406 1.203300952911377 8.315675735473633 -2.7076470851898193
-10.807714462280273 10.477065086364746 -9.329314231872559 -0.782050609588623 -5.054577827453613 -19.75166893005371 32.85377502441406 -1.9865100383758545
8.314270973205566 -10.197941780090332 -10.806635856628418 10.475964546203613 -9.302486419677734 -0.6364172697067261 -7.164263725280762 -19.75166893005371
32.85377502441406 -2.0017600059509277 8.314224243164062 -10.294900894165039 -10.805632591247559 10.475953102111816 -9.30244255065918 -0.6099936366081238
-6.798964023590088 -19.75166893005371 32.85377502441406 -1.9917157888412476 8.314051628112793 -10.293068885803223 -10.80463981628418 10.475872039794922
-9.30240249633789 -0.5316592454910278 -6.516436576843262 -19.75166893005371 32.85377502441406 -1.9906398057937622 8.31401252746582 -10.292878150939941
-10.803650856018066 10.475825309753418 -9.302399635314941 -0.5364159345626831 -6.3348002433776855 -19.75166893005371 32.85377502441406 -1.9746739864349365
8.313802719116211 -10.292741775512695 -10.802665710449219 10.47580337524414 -9.302334785461426 -0.36375629901885986 -6.232717514038086 -19.75166893005371
32.85377502441406 -1.8870434761047363 8.313122749328613 -10.295039176940918 -10.801704406738281 10.475549697875977 -9.302167892456055 0.009989023208618164
-5.353830814361572 -19.75166893005371 32.85377502441406 -1.8054481744766235 8.31225872039795 -10.297638893127441 -10.800779342651367 10.475201606750488
-9.301996231079102 0.5354713201522827 -3.97078275680542 -19.75166893005371 32.85377502441406 -1.7868748903274536 8.309921264648438 -10.312301635742188
-10.800122261047363 10.473864555358887 -9.301627159118652 1.7102171182632446 -0.01439666748046875 -19.75166893005371 32.85377502441406 -1.2048742771148682
8.305588722229004 -10.313750267028809 -10.799650192260742 10.470719337463379 -9.3013334274292 1.8877049684524536 3.077571153640747 -19.75166893005371
32.85377502441406 -1.249565601348877 8.301331520080566 -10.314547538757324 -10.799187660217285 10.470098495483398 -9.301136016845703 1.9352754354476929
2.9663615226745605 -19.75166893005371 32.85377502441406 -1.5301191806793213 8.297163009643555 -10.315337181091309 -10.798728942871094 10.469985008239746
-9.301005363464355 1.9474564790725708 2.665539503097534 -19.75166893005371 32.85377502441406 -0.9967064261436462 8.29291820526123 -10.31609058380127
-10.798271179199219 10.469964027404785 -9.300758361816406 1.9207934141159058 3.7187533378601074 -19.75166893005371 32.85377502441406 -0.43804001808166504
8.288553237915039 -10.316840171813965 -10.797815322875977 10.46996021270752 -9.300429344177246 1.934779167175293 4.203119277954102 -19.75166893005371
32.85377502441406 -1.3094086647033691 8.284059524536133 -10.317646026611328 -10.79736614227295 10.470494270324707 -9.300079345703125 2.399592161178589
4.245081424713135 -19.75166893005371 32.85377502441406 -1.3558375835418701 8.280238151550293 -10.318327903747559 -10.796924591064453 10.470810890197754
-9.300057411193848 2.220949172973633 4.5036821365356445 -19.75166893005371 32.85377502441406 -1.4060204029083252 8.276023864746094 -10.319072723388672
-10.796481132507324 10.470813751220703 -9.29984188079834 2.4423036575317383 4.455354690551758 -19.75166893005371 32.85377502441406 -1.553879737854004
8.271886825561523 -10.319818496704102 -10.796040534973145 10.47081470489502 -9.299668312072754 2.68082594871521 3.943593978881836 -19.75166893005371
32.85377502441406 -1.5991531610488892 8.268096923828125 -10.32049560546875 -10.79560661315918 10.475117683410645 -9.299642562866211 2.5624327659606934
4.026852607727051 -19.75166893005371 32.85377502441406 -1.7553167343139648 8.264155387878418 -10.321199417114258 -10.795173645019531 10.475120544433594
-9.299554824829102 2.621776819229126 3.8373074531555176 -19.75166893005371 32.85377502441406 -1.7448580265045166 8.26016616821289 -10.321895599365234
-10.794742584228516 10.475120544433594 -9.29942512512207 2.758492946624756 3.9734857082366943 -19.75166893005371 32.85377502441406 -1.8855513334274292
8.25625228881836 -10.322588920593262 -10.794315338134766 10.475594520568848 -9.299336433410645 2.855142593383789 3.8046867847442627 -19.75166893005371
32.85377502441406 -1.5461713075637817 8.252181053161621 -10.323291778564453 -10.793889045715332 10.475597381591797 -9.299124717712402 3.1250553131103516
3.961308002471924 -19.75166893005371 32.85377502441406 -1.1485854387283325 8.248388290405273 -10.323963165283203 -10.793465614318848 10.478459358215332
00000000: 0000 0020 3cbc f1bf 0000 00a0 7805 c3bf
00000010: 0000 00a0 5335 f53f 0000 0060 7ed1 d23f
00000020: 0000 0000 ffa4 db3f 0000 0060 6a54 e03f
00000030: 0000 00c0 a0f8 d5bf 0000 00e0 c4e1 dbbf
00000040: 0000 00e0 67f4 cdbf 0000 0040 bc48 c9bf
00000050: 0000 0000 e8d6 9ebf 0000 0080 7592 1440
00000060: 0000 00e0 c415 f9bf 0000 0080 dbf8 e63f
00000070: 0000 00c0 de9b f63f 0000 0080 cdf6 2440
00000080: 0000 0020 0f89 22c0 0000 0060 579c 1c40
00000090: 0000 0080 6add 13c0 0000 00c0 be00 c53f
000000a0: 0000 0080 486d 4040 0000 0080 b840 f33f
000000b0: 0000 0040 a0a1 2040 0000 00e0 42a9 05c0
000000c0: 0000 00c0 8c9d 25c0 0000 00e0 41f4 2440
000000d0: 0000 00e0 9ba8 22c0 0000 0000 8f06 e9bf
000000e0: 0000 0040 e337 14c0 0000 0060 6dc0 33c0
000000f0: 0000 0080 486d 4040 0000 00c0 bec8 ffbf
00000100: 0000 0020 e8a0 2040 0000 00a0 5865 24c0
00000110: 0000 0060 ff9c 25c0 0000 00a0 b1f3 2440
00000120: 0000 0080 df9a 22c0 0000 00c0 875d e4bf
00000130: 0000 00c0 34a8 1cc0 0000 0060 6dc0 33c0
00000140: 0000 0080 486d 4040 0000 00c0 9a03 00c0
00000150: 0000 0000 e2a0 2040 0000 0040 fd96 24c0
00000160: 0000 00e0 7b9c 25c0 0000 0020 b0f3 2440
00000170: 0000 00c0 d99a 22c0 0000 0060 1185 e3bf
00000180: 0000 00a0 2332 1bc0 0000 0060 6dc0 33c0
00000190: 0000 0080 486d 4040 0000 0060 11de ffbf
000001a0: 0000 0060 cba0 2040 0000 0020 0d96 24c0
000001b0: 0000 00c0 f99b 25c0 0000 0080 a5f3 2440
000001c0: 0000 0080 d49a 22c0 0000 0040 5a03 e1bf
000001d0: 0000 00c0 d410 1ac0 0000 0060 6dc0 33c0
000001e0: 0000 0080 486d 4040 0000 0020 a9d9 ffbf
000001f0: 0000 0040 c6a0 2040 0000 0020 f495 24c0
00000200: 0000 0020 789b 25c0 0000 0060 9ff3 2440
00000210: 0000 0020 d49a 22c0 0000 00c0 512a e1bf
00000220: 0000 00e0 d556 19c0 0000 0060 6dc0 33c0
00000230: 0000 0080 486d 4040 0000 00c0 4398 ffbf
00000240: 0000 00c0 aaa0 2040 0000 0040 e295 24c0
00000250: 0000 0000 f79a 25c0 0000 0080 9cf3 2440
00000260: 0000 00a0 cb9a 22c0 0000 0080 c847 d7bf
00000270: 0000 0080 4dee 18c0 0000 0060 6dc0 33c0
00000280: 0000 0080 486d 4040 0000 0080 5431 febf
00000290: 0000 00a0 51a0 2040 0000 0060 0f97 24c0
000002a0: 0000 0000 799a 25c0 0000 0040 7bf3 2440
000002b0: 0000 00c0 b59a 22c0 0000 0000 2075 843f
000002c0: 0000 00a0 526a 15c0 0000 0060 6dc0 33c0
000002d0: 0000 0080 486d 4040 0000 00a0 1de3 fcbf
000002e0: 0000 0060 e09f 2040 0000 0020 6498 24c0
000002f0: 0000 00c0 ff99 25c0 0000 00a0 4df3 2440
00000300: 0000 0040 9f9a 22c0 0000 00c0 9422 e13f
00000310: 0000 00c0 29c4 0fc0 0000 0060 6dc0 33c0
00000320: 0000 0080 486d 4040 0000 0020 0a97 fcbf
00000330: 0000 0000 ae9e 2040 0000 0000 e69f 24c0
00000340: 0000 00a0 a999 25c0 0000 0060 9ef2 2440
00000350: 0000 00e0 6e9a 22c0 0000 00a0 0c5d fb3f
00000360: 0000 0000 007c 8dbf 0000 0060 6dc0 33c0
00000370: 0000 0080 486d 4040 0000 0040 2a47 f3bf
00000380: 0000 0020 769c 2040 0000 00e0 a3a0 24c0
00000390: 0000 00c0 6b99 25c0 0000 0020 02f1 2440
000003a0: 0000 0060 489a 22c0 0000 0020 0a34 fe3f
000003b0: 0000 00a0 dd9e 0840 0000 0060 6dc0 33c0
000003c0: 0000 0080 486d 4040 0000 0080 38fe f3bf
000003d0: 0000 0020 489a 2040 0000 0060 0ca1 24c0
000003e0: 0000 0020 2f99 25c0 0000 00c0 b0f0 2440
000003f0: 0000 0080 2e9a 22c0 0000 0060 e3f6 fe3f
00000400: 0000 00c0 1bbb 0740 0000 0060 6dc0 33c0
00000410: 0000 0080 486d 4040 0000 0040 5e7b f8bf
00000420: 0000 00c0 2598 2040 0000 00e0 73a1 24c0
00000430: 0000 0000 f398 25c0 0000 00e0 a1f0 2440
00000440: 0000 0060 1d9a 22c0 0000 0020 c828 ff3f
00000450: 0000 0060 0653 0540 0000 0060 6dc0 33c0
00000460: 0000 0080 486d 4040 0000 00e0 04e5 efbf
00000470: 0000 0060 f995 2040 0000 00a0 d6a1 24c0
00000480: 0000 0000 b798 25c0 0000 0020 9ff0 2440
00000490: 0000 0000 fd99 22c0 0000 00e0 91bb fe3f
000004a0: 0000 00c0 01c0 0d40 0000 0060 6dc0 33c0
000004b0: 0000 0080 486d 4040 0000 0000 d908 dcbf
000004c0: 0000 0040 bd93 2040 0000 00e0 38a2 24c0
000004d0: 0000 0040 7b98 25c0 0000 00a0 9ef0 2440
000004e0: 0000 00e0 d199 22c0 0000 0000 dbf4 fe3f
000004f0: 0000 0080 fecf 1040 0000 0060 6dc0 33c0
00000500: 0000 0080 486d 4040 0000 0080 56f3 f4bf
00000510: 0000 0040 7091 2040 0000 0080 a2a2 24c0
00000520: 0000 0060 4098 25c0 0000 00a0 e4f0 2440
00000530: 0000 0000 a499 22c0 0000 0060 5d32 0340
00000540: 0000 00a0 f6fa 1040 0000 0060 6dc0 33c0
00000550: 0000 0080 486d 4040 0000 00c0 82b1 f5bf
00000560: 0000 0060 7b8f 2040 0000 00e0 fba2 24c0
00000570: 0000 0080 0698 25c0 0000 0020 0ef1 2440
00000580: 0000 0020 a199 22c0 0000 0000 81c4 0140
00000590: 0000 0040 c503 1240 0000 0060 6dc0 33c0
000005a0: 0000 0080 486d 4040 0000 0040 0f7f f6bf
000005b0: 0000 0000 538d 2040 0000 0080 5da3 24c0
000005c0: 0000 0060 cc97 25c0 0000 0080 0ef1 2440
000005d0: 0000 00e0 8499 22c0 0000 0080 d689 0340
000005e0: 0000 0080 48d2 1140 0000 0060 6dc0 33c0
000005f0: 0000 0080 486d 4040 0000 0000 b1dc f8bf
00000600: 0000 00c0 348b 2040 0000 0040 bfa3 24c0
00000610: 0000 00a0 9297 25c0 0000 00a0 0ef1 2440
00000620: 0000 0020 6e99 22c0 0000 00e0 5472 0540
00000630: 0000 0000 7b8c 0f40 0000 0060 6dc0 33c0
00000640: 0000 0080 486d 4040 0000 00a0 2196 f9bf
00000650: 0000 0000 4489 2040 0000 0000 18a4 24c0
00000660: 0000 00c0 5997 25c0 0000 00a0 42f3 2440
00000670: 0000 00c0 6a99 22c0 0000 00c0 dc7f 0440
00000680: 0000 0040 7f1b 1040 0000 0060 6dc0 33c0
00000690: 0000 0080 486d 4040 0000 0000 c715 fcbf
000006a0: 0000 0060 3f87 2040 0000 0040 74a4 24c0
000006b0: 0000 0000 2197 25c0 0000 0000 43f3 2440
000006c0: 0000 0040 5f99 22c0 0000 0020 66f9 0440
000006d0: 0000 0040 ceb2 0e40 0000 0060 6dc0 33c0
000006e0: 0000 0080 486d 4040 0000 0040 f0ea fbbf
000006f0: 0000 0080 3485 2040 0000 0080 cfa4 24c0
00000700: 0000 0080 e896 25c0 0000 0000 43f3 2440
00000710: 0000 0040 4e99 22c0 0000 00c0 6411 0640
00000720: 0000 00e0 b2c9 0f40 0000 0060 6dc0 33c0
00000730: 0000 0080 486d 4040 0000 00e0 372b febf
00000740: 0000 0080 3383 2040 0000 0060 2aa5 24c0
00000750: 0000 0080 b096 25c0 0000 0020 81f3 2440
00000760: 0000 00a0 4299 22c0 0000 0000 55d7 0640
00000770: 0000 00a0 ff6f 0e40 0000 0060 6dc0 33c0
00000780: 0000 0080 486d 4040 0000 0020 1ebd f8bf
00000790: 0000 00e0 1d81 2040 0000 0080 86a5 24c0
000007a0: 0000 00a0 7896 25c0 0000 0080 81f3 2440
000007b0: 0000 00e0 2699 22c0 0000 0000 1d00 0940
000007c0: 0000 0040 c2b0 0f40 0000 0060 6dc0 33c0
000007d0: 0000 0080 486d 4040 0000 0020 9b60 f2bf
000007e0: 0000 00c0 2c7f 2040 0000 0080 dea5 24c0
000007f0: 0000 0020 4196 25c0 0000 00a0 f8f4 2440
