notebooks/dice/results/ipd_bs64_magic/run-2/params.npy (npy, 8128 bytes, 1 tensors)

array f4 [200, 2, 5]
000000 f0 37 50 be 98 91 b0 be b0 48 76 3e 30 6b 5a 3f
       -0.20333838 -0.3448608 0.24051166 0.85319805
000010 c4 bd 77 3f 70 cc ce 3e 04 53 7a bf c0 eb 76 be
       0.96773934 0.40390348 -0.9778292 -0.24113369
000020 88 8b d0 be 30 7e 40 be f5 4f 5c be 0e b7 32 bf
       -0.40731454 -0.18798137 -0.21514876 -0.6981057
000030 60 21 98 3d 94 d5 59 3f 1e a6 7b 3f 7c 09 0b 3f
       0.07428241 0.8509152 0.9830035 0.54311347
000040 88 57 81 bf 0c 4d 85 bd b2 0d 09 bf 66 7e 73 be
       -1.0104837 -0.06508836 -0.5353652 -0.23778686
000050 6a d0 ad be 68 98 5e bf 4c 26 9a bd 60 42 e0 3e
       -0.3394807 -0.86951303 -0.07526836 0.4380064
000060 d2 0c 7c 3f 62 c5 47 3f 0d 87 79 bf da 46 a8 3d
       0.9845706 0.7803556 -0.97471696 0.08216639
000070 d2 5c be be a1 a5 7a be 2e 29 6d be f3 6a 8a bf
       -0.3718019 -0.24477245 -0.2316024 -1.0813888
000080 9e 9d 28 be 9d bf 5f 3e 75 54 76 3f dd b6 8f 3f
       -0.16466376 0.21850438 0.9622262 1.122768
000090 12 12 76 bf 56 9c cc 3e 26 2e 0d bf d6 ca a3 be
       -0.96121323 0.39963025 -0.5514854 -0.3199069
0000a0 8c 09 86 be fe 61 a0 bf bc 96 9e be e4 85 39 3d
       -0.2617916 -1.2529905 -0.30974376 0.045293704
0000b0 10 12 6f 3f 96 f5 af 3f f0 21 78 bf 27 ba fe 3e
       0.93386936 1.3746822 -0.96926785 0.49751398
0000c0 19 40 4a bf 9d a7 ac be 84 25 80 bd be 6e 9c bf
       -0.79004055 -0.3372163 -0.062571555 -1.2221296
0000d0 be b9 cc be 3c 9a a4 bd 52 c1 63 3f 4c 1e ab 3f
       -0.3998546 -0.0803723 0.8896686 1.3368621
0000e0 b8 8c 7d bf 82 5e d6 3e dd 7d 64 bf 7a 9e bf be
       -0.99042845 0.4186898 -0.8925455 -0.37425596
0000f0 40 fa 37 3d 93 13 b9 bf cf ed 94 be ac 3a 90 be
       0.04491639 -1.4459099 -0.29087684 -0.28169763
000100 00 7a 60 3f c3 27 bc 3f 15 2c 94 bf f9 75 f0 3e
       0.8768616 1.4699634 -1.1575953 0.46965006
000110 6a 72 92 bf 47 e6 b8 be a2 dd 8a 3e a1 32 ba bf
       -1.1441166 -0.36113188 0.27122217 -1.4546701
000120 1f 5f 37 be 21 64 06 bf 03 54 6a 3f 6c 5d be 3f
       -0.1790738 -0.52496535 0.9153444 1.487226
000130 18 a5 9b bf e4 52 f3 3e c4 f8 a6 bf 1e 79 e3 be
       -1.2159758 0.47524178 -1.3044667 -0.44428343
000140 66 82 c2 3e 93 76 b5 bf 48 11 c5 bc 19 93 5a bf
       0.3799011 -1.4176811 -0.024056092 -0.85380703
000150 81 35 70 3f 41 b7 c7 3f 7e 85 9e bf 18 aa c8 3e
       0.9383164 1.56028 -1.2384489 0.3919227
000160 31 4c a9 bf be 83 d5 be 27 51 f3 3e a5 61 ad bf
       -1.3226377 -0.41702074 0.47522852 -1.3545424
000170 6c 8c d0 3d 24 89 90 bf d1 bd 71 3f 4d 33 ca 3f
       0.10183033 -1.1291852 0.9443026 1.5796906
000180 fa fb a4 bf 97 f5 00 3f fe de ae bf 55 83 fa be
       -1.2889397 0.5037474 -1.3661802 -0.48928323
000190 9d ec 14 3f 7f 71 aa bf 2c 20 37 3e 4c a0 ac bf
       0.58173543 -1.3315886 0.17883366 -1.3486419
0001a0 f2 24 75 3f 6f fd de 3f 48 f7 a5 bf a0 1a 0e 3f
       0.957595 1.7421092 -1.2966089 0.55509377
0001b0 33 7c c9 bf 8a 06 0a bf cb ee 43 3f 8a 36 9b bf
       -1.5741028 -0.5391623 0.76536244 -1.2126019
0001c0 04 f5 b4 3e 3e 76 ac bf 76 6d 70 3f 93 e2 e2 3f
       0.35343182 -1.3473585 0.93917024 1.7725395
0001d0 bd 7d bf bf 27 de e1 3e 54 32 01 c0 a7 3e 2d bf
       -1.4960247 0.441148 -2.0186968 -0.67673725
0001e0 74 c3 5d 3f 7b f7 8d bf 13 ad ee 3e 51 3a d3 bf
       0.8662636 -1.109115 0.4661642 -1.6502172
0001f0 57 f9 6c 3f 27 6f f7 3f 75 07 af bf 88 0d 03 3f
       0.9256796 1.9330796 -1.3674151 0.5119252
000200 ba c3 09 c0 e7 99 24 bf a3 bb 7f 3f ce a1 7e bf
       -2.1525712 -0.64297336 0.99895686 -0.99465644
000210 e3 b2 02 3f 8b b9 f0 bf cb 01 7e 3f 18 1c 0d 40
       0.5105421 -1.8806623 0.99221486 2.2048397
000220 76 9c ac bf 50 66 38 3f d0 99 0f c0 2a bb 0b bf
       -1.3485248 0.72031116 -2.243763 -0.54582465
000230 12 cf 98 3f 90 3c 53 bf ca ab 4c 3f 91 fb f4 bf
       1.1938193 -0.82514286 0.7994963 -1.9139272
000240 07 c6 81 3f 19 4a 1b 40 84 86 b7 bf eb 2d 61 3f
       1.0138558 2.4263976 -1.4337926 0.8796069
000250 16 84 1d c0 bf 3b 12 bf 98 3d c7 3f 6d 6d 42 bf
       -2.461187 -0.57122415 1.5565672 -0.7594822
000260 b6 3a 81 3f b3 75 dd bf 83 d0 84 3f 68 c5 14 40
       1.0096042 -1.7301544 1.0376133 2.3245487
000270 9c e2 d6 bf e8 71 46 3f 36 42 38 c0 4c 72 22 bf
       -1.6787906 0.7751756 -2.8790412 -0.63455653
000280 d2 d4 f0 3f 44 31 01 bf 8c 51 a0 3f 19 be d0 bf
       1.8814948 -0.504658 1.2524886 -1.6308013
000290 fa ac 8a 3f d5 14 0d 40 17 1b ed bf 92 fb 1e 3f
       1.0834038 2.2043965 -1.8523892 0.62102616
0002a0 bf 29 4a c0 ec 6b 1d bf 60 45 11 40 82 19 4d be
       -3.158798 -0.614928 2.2698593 -0.20029262
0002b0 17 70 bb 3f 0f 8d c4 bf 3f 1d 87 3f 67 5b 0f 40
       1.4643582 -1.5355548 1.05558 2.2399538
0002c0 b6 b1 fd bf 90 bc f2 3e 4c bf 51 c0 b9 85 2c bf
       -1.9819858 0.47409487 -3.2773008 -0.67391545
0002d0 89 68 2a 40 40 ac 90 3c 91 96 da 3f 66 dd c4 bf
       2.6626303 0.01766026 1.7077199 -1.5380065
0002e0 b2 47 8a 3f 29 34 08 40 de bc 04 c0 06 49 aa 3e
       1.080313 2.1281836 -2.0740275 0.33258837
0002f0 a8 d5 57 c0 eb 9b 32 bf b7 2e 40 40 32 bb 43 3e
       -3.3724155 -0.6976916 3.0028512 0.19114378
000300 a5 28 e6 3f 58 09 c2 bf 8c c9 97 3f c0 ca f9 3f
       1.7981154 -1.5159101 1.1858382 1.9514999
000310 e3 39 05 c0 00 04 1a 3a fd d9 5a c0 25 6f 3b bf
       -2.0816581 0.000587523 -3.419555 -0.7321647
000320 fa c3 52 40 12 de ba 3e 40 cb f5 3f a0 62 d3 bf
       3.2932115 0.3649755 1.9202652 -1.6514473
000330 50 76 8d 3f 6a 97 fd 3f 2d 9f 07 c0 31 d6 5b be
       1.1051731 1.9811833 -2.1190903 -0.21468426
000340 cf 1b 5d c0 61 d2 42 bf 92 f1 5d 40 84 b8 99 3e
       -3.4548223 -0.7610226 3.4678693 0.30023587
000350 74 c5 04 40 96 15 e5 bf d6 9a 9b 3f 48 89 f6 3f
       2.0745516 -1.7897213 1.2156627 1.9260645
000360 ff 33 08 c0 28 69 83 be 56 9f 5c c0 6f 88 3d bf
       -2.1281736 -0.25666165 -3.447225 -0.74036306
000370 38 35 66 40 ba 59 10 3e 5f f7 05 40 26 c9 f7 bf
       3.5969982 0.14096728 2.0932233 -1.9358261
000380 1a 9c 9e 3f 6b 8c 09 40 f3 6b 08 c0 7c 94 85 3e
       1.2391388 2.1491954 -2.1315887 0.26089847
000390 fa 95 5d c0 56 bd 4c bf 6d b4 70 40 c9 3b fd 3d
       -3.4622788 -0.79976404 3.7610123 0.12364919
0003a0 0d 67 0b 40 10 ef ff bf dc 19 a8 3f da 76 03 40
       2.1781647 -1.9994831 1.3132892 2.0541291
0003b0 ee db 0b c0 76 ff 93 3e ad db 61 c0 63 84 58 bf
       -2.1852984 0.2890584 -3.529033 -0.84577006
0003c0 84 58 79 40 73 69 03 3e 7b 71 0d 40 61 b9 04 c0
       3.8960276 0.12833194 2.2100513 -2.0738146
0003d0 03 dd b8 3f 7f f3 fb 3f d2 a6 0f c0 e3 19 5a 3e
       1.4442447 1.9683684 -2.244557 0.21298937
0003e0 e3 09 65 c0 7e 1c 6a bf ff 6a 81 40 84 d5 b4 3e
       -3.5787284 -0.91449726 4.044311 0.3531915
0003f0 a2 c7 10 40 c1 ed 06 c0 0a 8f c0 3f fa 28 05 40
       2.2621846 -2.1082613 1.5043652 2.080626
