notebooks/dice/results/ipd_bs64_original/run-5/params.npy (npy, 17648 bytes, 1 tensors)

array f8 [219, 2, 5]
000000 00 00 00 60 d9 83 d6 3f 00 00 00 00 49 fe fe 3f
       0.3517974317073822 1.9370813369750977
000010 00 00 00 00 49 18 f5 3f 00 00 00 40 18 72 e8 bf
       1.3184289932250977 -0.7639275789260864
000020 00 00 00 40 51 7b f6 bf 00 00 00 80 1e 72 c7 3f
       -1.405106782913208 0.1831701397895813
000030 00 00 00 a0 1f d2 ec 3f 00 00 00 c0 a4 2a e8 3f
       0.9006498456001282 0.755205512046814
000040 00 00 00 80 3c fc f5 bf 00 00 00 c0 fd 90 d5 3f
       -1.3740811347961426 0.336974561214447
000050 00 00 00 c0 fd a4 07 40 00 00 00 40 6b d6 13 40
       2.955562114715576 4.959393501281738
000060 00 00 00 40 14 a8 d5 3f 00 00 00 c0 d7 d9 1e c0
       0.3383837342262268 -7.712737083435059
000070 00 00 00 c0 de 04 0c c0 00 00 00 80 6f b7 15 40
       -3.502377986907959 5.429136276245117
000080 00 00 00 40 74 05 11 c0 00 00 00 80 9f fe 0d c0
       -4.255326271057129 -3.7493276596069336
000090 00 00 00 00 0f 2e f9 bf 00 00 00 40 23 f6 11 c0
       -1.573744773864746 -4.490368843078613
0000a0 00 00 00 80 5f 0d 18 40 00 00 00 40 1d ed 12 40
       6.013059616088867 4.7315568923950195
0000b0 00 00 00 40 7d 5e fa bf 00 00 00 20 0c c6 20 c0
       -1.6480686664581299 -8.386811256408691
0000c0 00 00 00 60 3c 04 08 c0 00 00 00 40 63 d8 15 40
       -3.002068281173706 5.461316108703613
0000d0 00 00 00 80 05 7a 14 c0 00 00 00 00 56 72 0d c0
       -5.119161605834961 -3.680828094482422
0000e0 00 00 00 e0 27 d5 16 40 00 00 00 a0 4e cc 10 c0
       5.708159923553467 -4.19951868057251
0000f0 00 00 00 40 9b 66 19 40 00 00 00 60 44 76 05 40
       6.350201606750488 2.6827476024627686
000100 00 00 00 20 55 6c 30 c0 00 00 00 80 3f b3 20 c0
       -16.423173904418945 -8.350093841552734
000110 00 00 00 40 44 89 11 c0 00 00 00 20 06 a0 17 40
       -4.384049415588379 5.906273365020752
000120 00 00 00 80 bf ad f8 3f 00 00 00 00 d3 7f 19 c0
       1.5424189567565918 -6.374828338623047
000130 00 00 00 e0 6d 2c 18 40 00 00 00 20 c9 d0 10 c0
       6.0433878898620605 -4.203892230987549
000140 00 00 00 a0 4b 63 19 40 00 00 00 e0 9f b1 05 40
       6.346968173980713 2.711730718612671
000150 00 00 00 40 54 6c 30 c0 00 00 00 e0 a7 a8 20 c0
       -16.423160552978516 -8.329405784606934
000160 00 00 00 20 c9 f3 11 c0 00 00 00 20 c2 94 17 40
       -4.488071918487549 5.8952717781066895
000170 00 00 00 00 68 e5 f7 3f 00 00 00 00 04 8d 18 c0
       1.4935073852539062 -6.1377105712890625
000180 00 00 00 00 3a 34 1c 40 00 00 00 c0 fa 1a 11 c0
       7.051002502441406 -4.2763471603393555
000190 00 00 00 20 a1 5e 19 40 00 00 00 80 f7 ec 05 40
       6.342411518096924 2.740706443786621
0001a0 00 00 00 c0 53 6c 30 c0 00 00 00 a0 a4 a7 20 c0
       -16.423152923583984 -8.327427864074707
0001b0 00 00 00 c0 f9 7c 12 c0 00 00 00 40 89 8c 17 40
       -4.62204647064209 5.887242317199707
0001c0 00 00 00 60 a2 0f f7 3f 00 00 00 60 2c 6f 17 c0
       1.4413169622421265 -5.858567714691162
0001d0 00 00 00 e0 d1 20 1d 40 00 00 00 00 26 a4 11 c0
       7.282050609588623 -4.410301208496094
0001e0 00 00 00 20 c2 5a 19 40 00 00 00 c0 b0 25 06 40
       6.3386311531066895 2.7684035301208496
0001f0 00 00 00 80 53 6c 30 c0 00 00 00 60 d5 a2 20 c0
       -16.42314910888672 -8.318034172058105
000200 00 00 00 20 63 27 13 c0 00 00 00 60 40 82 17 40
       -4.788464069366455 5.877198696136475
000210 00 00 00 a0 2d 35 f6 3f 00 00 00 e0 b6 74 16 c0
       1.387982964515686 -5.613978862762451
000220 00 00 00 80 3b ec 1c 40 00 00 00 40 3e 61 16 c0
       7.230695724487305 -5.594964027404785
000230 00 00 00 e0 b5 57 19 40 00 00 00 a0 01 97 06 40
       6.3356547355651855 2.8237335681915283
000240 00 00 00 60 53 6c 30 c0 00 00 00 00 9f 9f 20 c0
       -16.423147201538086 -8.311759948730469
000250 00 00 00 e0 c2 fd 13 c0 00 00 00 c0 b3 83 17 40
       -4.997813701629639 5.878615379333496
000260 00 00 00 80 34 ac f8 3f 00 00 00 80 66 87 16 c0
       1.5420422554016113 -5.632226943969727
000270 00 00 00 c0 1d 36 1d 40 00 00 00 40 0e 80 15 c0
       7.302847862243652 -5.375054359436035
000280 00 00 00 c0 0a 59 19 40 00 00 00 a0 01 97 06 40
       6.3369550704956055 2.8237335681915283
000290 00 00 00 40 53 6c 30 c0 00 00 00 20 ed 9d 20 c0
       -16.423145294189453 -8.308449745178223
0002a0 00 00 00 40 79 55 13 c0 00 00 00 a0 30 83 17 40
       -4.833470344543457 5.878115177154541
0002b0 00 00 00 80 34 ac f8 3f 00 00 00 60 03 b0 16 c0
       1.5420422554016113 -5.6718878746032715
0002c0 00 00 00 00 68 17 1d 40 00 00 00 60 af 66 14 c0
       7.272857666015625 -5.100278377532959
0002d0 00 00 00 20 20 56 19 40 00 00 00 e0 f1 94 06 40
       6.334106922149658 2.8227269649505615
0002e0 00 00 00 40 53 6c 30 c0 00 00 00 e0 99 a3 20 c0
       -16.423145294189453 -8.319533348083496
0002f0 00 00 00 00 be 90 12 c0 00 00 00 a0 1c 85 17 40
       -4.641349792480469 5.8799920082092285
000300 00 00 00 00 8f c2 f8 3f 00 00 00 80 27 b0 15 c0
       1.547499656677246 -5.422025680541992
000310 00 00 00 00 bd fb 1c 40 00 00 00 c0 c0 f9 12 c0
       7.245838165283203 -4.743899345397949
000320 00 00 00 e0 24 56 19 40 00 00 00 e0 f1 94 06 40
       6.33412504196167 2.8227269649505615
000330 00 00 00 40 53 6c 30 c0 00 00 00 20 55 a3 20 c0
       -16.423145294189453 -8.319008827209473
000340 00 00 00 c0 57 a4 11 c0 00 00 00 00 49 84 17 40
       -4.410490989685059 5.879184722900391
000350 00 00 00 00 8f c2 f8 3f 00 00 00 e0 c7 bb 15 c0
       1.547499656677246 -5.433379650115967
000360 00 00 00 c0 6d ec 1c 40 00 00 00 20 0d f2 10 c0
       7.230887413024902 -4.236378192901611
000370 00 00 00 40 f3 55 19 40 00 00 00 e0 f1 94 06 40
       6.333935737609863 2.8227269649505615
000380 00 00 00 40 53 6c 30 c0 00 00 00 40 0c a4 20 c0
       -16.423145294189453 -8.320405960083008
000390 00 00 00 40 2c 7d 10 c0 00 00 00 60 a8 81 17 40
       -4.122239112854004 5.8766188621521
0003a0 00 00 00 00 8f c2 f8 3f 00 00 00 e0 a8 ca 15 c0
       1.547499656677246 -5.447909832000732
0003b0 00 00 00 a0 c5 eb 1c 40 00 00 00 a0 35 51 11 c0
       7.230246067047119 -4.329306125640869
0003c0 00 00 00 c0 db 4a 19 40 00 00 00 a0 d1 1a 07 40
       6.323103904724121 2.8880951404571533
0003d0 00 00 00 40 53 6c 30 c0 00 00 00 c0 c9 a3 20 c0
       -16.423145294189453 -8.31989860534668
0003e0 00 00 00 40 5c d2 13 c0 00 00 00 60 08 99 17 40
       -4.955430030822754 5.8994460105896
0003f0 00 00 00 c0 0b 2a fa 3f 00 00 00 e0 2b f3 15 c0
       1.6352651119232178 -5.487472057342529
000400 00 00 00 60 3d e8 1c 40 00 00 00 a0 f2 b4 15 c0
       7.226796627044678 -5.426706790924072
000410 00 00 00 c0 d0 4a 19 40 00 00 00 a0 d1 1a 07 40
       6.323061943054199 2.8880951404571533
000420 00 00 00 40 53 6c 30 c0 00 00 00 e0 7c a3 20 c0
       -16.423145294189453 -8.31931209564209
000430 00 00 00 40 ba 28 13 c0 00 00 00 c0 e9 98 17 40
       -4.789772987365723 5.89932918548584
000440 00 00 00 c0 0b 2a fa 3f 00 00 00 80 be 19 16 c0
       1.6352651119232178 -5.525140762329102
000450 00 00 00 00 48 e3 1c 40 00 00 00 60 50 b2 14 c0
       7.221954345703125 -5.174134731292725
000460 00 00 00 c0 d0 4a 19 40 00 00 00 a0 d1 1a 07 40
       6.323061943054199 2.8880951404571533
000470 00 00 00 40 53 6c 30 c0 00 00 00 40 6d a3 20 c0
       -16.423145294189453 -8.319192886352539
000480 00 00 00 40 55 62 12 c0 00 00 00 c0 e9 98 17 40
       -4.5960283279418945 5.89932918548584
000490 00 00 00 c0 0b 2a fa 3f 00 00 00 a0 2b 43 16 c0
       1.6352651119232178 -5.565596103668213
0004a0 00 00 00 a0 64 df 1c 40 00 00 00 00 19 04 17 c0
       7.2181572914123535 -5.754001617431641
0004b0 00 00 00 c0 d0 4a 19 40 00 00 00 a0 d1 1a 07 40
       6.323061943054199 2.8880951404571533
0004c0 00 00 00 40 53 6c 30 c0 00 00 00 a0 60 a3 20 c0
       -16.423145294189453 -8.319096565246582
0004d0 00 00 00 a0 3d 73 11 c0 00 00 00 c0 e9 98 17 40
       -4.362539768218994 5.89932918548584
0004e0 00 00 00 c0 0b 2a fa 3f 00 00 00 c0 c8 59 16 c0
       1.6352651119232178 -5.587679862976074
0004f0 00 00 00 80 8f d5 1c 40 00 00 00 20 35 e4 19 c0
       7.208555221557617 -6.472858905792236
000500 00 00 00 c0 eb 56 19 40 00 00 00 c0 4f 86 07 40
       6.334883689880371 2.940581798553467
000510 00 00 00 40 53 6c 30 c0 00 00 00 40 89 a3 20 c0
       -16.423145294189453 -8.319406509399414
000520 00 00 00 80 68 5a 13 c0 00 00 00 80 62 94 17 40
       -4.838289260864258 5.894906997680664
000530 00 00 00 20 70 3e f8 3f 00 00 00 e0 d1 5b 16 c0
       1.515243649482727 -5.589667797088623
000540 00 00 00 20 f9 d2 1c 40 00 00 00 e0 a2 8c 19 c0
       7.206028461456299 -6.387340068817139
000550 00 00 00 00 95 52 19 40 00 00 00 20 97 a4 04 40
       6.330646514892578 2.580366373062134
000560 00 00 00 40 53 6c 30 c0 00 00 00 80 87 a3 20 c0
       -16.423145294189453 -8.319393157958984
000570 00 00 00 80 6c df 15 c0 00 00 00 00 54 9f 17 40
       -5.46818733215332 5.9055938720703125
000580 00 00 00 20 8e 7e ff 3f 00 00 00 a0 57 68 16 c0
       1.9683972597122192 -5.6018967628479
000590 00 00 00 20 39 cf 1c 40 00 00 00 c0 ca b7 1c c0
       7.202366352081299 -7.1794843673706055
0005a0 00 00 00 00 95 52 19 40 00 00 00 20 97 a4 04 40
       6.330646514892578 2.580366373062134
0005b0 00 00 00 40 53 6c 30 c0 00 00 00 a0 82 a3 20 c0
       -16.423145294189453 -8.319355964660645
0005c0 00 00 00 e0 c4 7c 15 c0 00 00 00 00 54 9f 17 40
       -5.37184476852417 5.9055938720703125
0005d0 00 00 00 20 8e 7e ff 3f 00 00 00 60 86 85 16 c0
       1.9683972597122192 -5.630395412445068
0005e0 00 00 00 60 f3 c4 1c 40 00 00 00 40 48 8c 1c c0
       7.1923346519470215 -7.136994361877441
0005f0 00 00 00 60 eb 51 19 40 00 00 00 e0 77 a6 04 40
       6.3299994468688965 2.5812833309173584
000600 00 00 00 40 53 6c 30 c0 00 00 00 e0 8b a4 20 c0
       -16.423145294189453 -8.321379661560059
000610 00 00 00 00 f9 10 15 c0 00 00 00 40 41 a1 17 40
       -5.266574859619141 5.907475471496582
000620 00 00 00 40 b8 7a ff 3f 00 00 00 80 dd b5 16 c0
       1.9674608707427979 -5.677602767944336
000630 00 00 00 00 90 c5 1c 40 00 00 00 80 45 5f 1c c0
       7.19293212890625 -7.093038558959961
000640 00 00 00 00 28 52 19 40 00 00 00 60 39 b7 04 40
       6.330230712890625 2.5894649028778076
000650 00 00 00 40 53 6c 30 c0 00 00 00 e0 64 ae 20 c0
       -16.423145294189453 -8.34061336517334
000660 00 00 00 00 16 9a 14 c0 00 00 00 c0 c8 c8 17 40
       -5.150474548339844 5.946078300476074
000670 00 00 00 a0 bd 4b ff 3f 00 00 00 60 aa cf 16 c0
       1.9559913873672485 -5.702798366546631
000680 00 00 00 60 63 c4 1c 40 00 00 00 20 f1 a4 1f c0
       7.1917853355407715 -7.911076068878174
000690 00 00 00 00 28 52 19 40 00 00 00 60 39 b7 04 40
       6.330230712890625 2.5894649028778076
0006a0 00 00 00 40 53 6c 30 c0 00 00 00 a0 66 ae 20 c0
       -16.423145294189453 -8.34062671661377
0006b0 00 00 00 00 8b 15 14 c0 00 00 00 c0 c8 c8 17 40
       -5.021038055419922 5.946078300476074
0006c0 00 00 00 a0 bd 4b ff 3f 00 00 00 20 d9 f3 16 c0
       1.9559913873672485 -5.738132953643799
0006d0 00 00 00 20 87 c0 1c 40 00 00 00 e0 6a 90 1f c0
       7.188015460968018 -7.891032695770264
0006e0 00 00 00 a0 01 52 19 40 00 00 00 60 39 b7 04 40
       6.330084323883057 2.5894649028778076
0006f0 00 00 00 40 53 6c 30 c0 00 00 00 40 83 ae 20 c0
       -16.423145294189453 -8.340845108032227
000700 00 00 00 c0 9e 7f 13 c0 00 00 00 00 6f c8 17 40
       -4.874629020690918 5.945735931396484
000710 00 00 00 a0 bd 4b ff 3f 00 00 00 80 fa 02 17 c0
       1.9559913873672485 -5.752908706665039
000720 00 00 00 20 e1 bc 1c 40 00 00 00 a0 a0 7b 1f c0
       7.184452533721924 -7.870729923248291
000730 00 00 00 a0 01 52 19 40 00 00 00 60 39 b7 04 40
       6.330084323883057 2.5894649028778076
000740 00 00 00 40 53 6c 30 c0 00 00 00 a0 7c ae 20 c0
       -16.423145294189453 -8.340794563293457
000750 00 00 00 00 95 d3 12 c0 00 00 00 00 6f c8 17 40
       -4.706623077392578 5.945735931396484
000760 00 00 00 a0 bd 4b ff 3f 00 00 00 a0 a9 23 17 c0
       1.9559913873672485 -5.784826755523682
000770 00 00 00 60 38 b9 1c 40 00 00 00 c0 88 66 1f c0
       7.18087911605835 -7.850131034851074
000780 00 00 00 80 67 4e 19 40 00 00 00 40 89 fa 04 40
       6.326566696166992 2.6223320960998535
000790 00 00 00 40 53 6c 30 c0 00 00 00 80 7e ae 20 c0
       -16.423145294189453 -8.340808868408203
0007a0 00 00 00 60 b1 82 13 c0 00 00 00 80 48 c3 17 40
       -4.87762975692749 5.940706253051758
0007b0 00 00 00 a0 61 d4 fe 3f 00 00 00 c0 1e 32 17 c0
       1.9268509149551392 -5.798945426940918
0007c0 00 00 00 e0 1f b7 1c 40 00 00 00 40 63 51 1f c0
       7.178832530975342 -7.829480171203613
0007d0 00 00 00 00 fc 4a 19 40 00 00 00 40 f3 38 05 40
       6.3232269287109375 2.6528077125549316
0007e0 00 00 00 40 53 6c 30 c0 00 00 00 e0 9f ae 20 c0
       -16.423145294189453 -8.341063499450684
0007f0 00 00 00 80 ef 4d 14 c0 00 00 00 60 12 bb 17 40
       -5.076108932495117 5.932687282562256
