notebooks/dice/results/ipd_bs64_2inner_om/run-4/params_om.npy (npy, 8128 bytes, 1 tensors)

array f4 [200, 2, 1, 5]
00000000: 4c9e 493e 315c e43d 9d73 c83d b018 a7be
00000010: d559 03bf c4f1 583e aee1 853c bde8 863e
00000020: e85b a73e 2e88 2fbe 3ddb d73e d6a8 57be
00000030: b7a2 b73d ab75 a7be deee 02bf f1c3 863e
00000040: 01af 8bbe 6150 c83e 7f4d 20be 537e 2abe
00000050: 484a 1f3f c382 f1be 5bcd 943d eef3 0bbf
00000060: d111 03bf c81e d03e dbec 05bf 5133 1a3f
00000070: 2818 29bf 1809 28be d844 483f 8515 26bf
00000080: fa82 c93d 93d8 80bf e75e 03bf a46c 073f
00000090: d135 37bf 1e55 3c3f fc80 97bf 6f9a 24be
000000a0: 08bf 843f a514 47bf b63e 7e3e 30f7 a7bf
000000b0: dfea 03bf d794 4e3f 54ee 57bf 26d1 573f
000000c0: b632 c5bf d3c8 1ebe 8f11 ab3f 5c63 5ebf
000000d0: f609 b83e 3b73 c9bf e15f 04bf ef63 8e3f
000000e0: a266 71bf 1094 693f e6d9 e7bf cf6d 1cbe
000000f0: 3510 d13f b26a 70bf acaa e53e f597 e5bf
00000100: 3840 04bf d8c1 b43f 3868 82bf 4642 743f
00000110: 0412 03c0 d989 19be 62d3 ec3f 7c1e 81bf
00000120: 29dc 083f 3265 00c0 809b 04bf 009a d13f
00000130: e591 8abf d60e 7e3f 6e4d 10c0 52e6 15be
00000140: a254 0240 da35 89bf 4adc 1a3f 30a9 0bc0
00000150: fed1 03bf b3a6 ea3f 6401 92bf b3d7 823f
00000160: 98b6 1bc0 5039 14be 898e 0c40 b6b2 90bf
00000170: 324d 2a3f 6244 16c0 a470 03bf 51eb ff3f
00000180: 052b 99bf e7e8 863f b69a 25c0 8cbb 12be
00000190: 292b 1740 a50f 97bf 5562 373f 4690 1ec0
000001a0: de65 02bf ba89 0b40 8e49 9fbf f9ee 8a3f
000001b0: e572 2dc0 8523 11be 50a5 1f40 e3b8 9ebf
000001c0: f65e 443f 2938 26c0 2637 01bf d666 1440
000001d0: 6c98 a5bf 2e2d 8e3f 2bc7 34c0 ef32 13be
000001e0: 6570 2740 f7f9 a4bf c9a7 4f3f 2aac 2dc0
000001f0: 37b3 ffbe 22db 1c40 0f4e abbf 6663 933f
00000200: 47fd 3ac0 0074 17be f480 2e40 5cba abbf
00000210: e3e4 5c3f ac34 34c0 3905 fbbe 8045 2440
00000220: 66f3 b0bf bbe6 973f 2ed6 40c0 ea3c 19be
00000230: 33db 3440 8d53 b1bf dfb5 683f c851 3ac0
00000240: 656b f5be 70e4 2a40 3d06 b6bf aa3a 9c3f
00000250: a57a 46c0 36e6 1abe 49ed 3a40 8af4 b6bf
00000260: 82c6 743f 4d07 40c0 58be f1be 8f6e 3140
00000270: 5088 bbbf 7271 a13f e62d 4bc0 f036 1cbe
00000280: 0998 4040 400d bcbf 719e 803f 6786 45c0
00000290: b5d2 edbe 267d 3740 db8c c0bf b6a3 a63f
000002a0: 9be3 4fc0 18a3 1cbe bf27 4640 cd3b c1bf
000002b0: eb69 873f 9e41 4ac0 5b0b eabe 994d 3d40
000002c0: d304 c5bf dc69 aa3f 99fc 53c0 1c63 1dbe
000002d0: 004d 4b40 2e6f c6bf 5d35 8e3f 6778 4ec0
000002e0: 6c4e e5be faa6 4240 41a2 c9bf 1e4f ae3f
000002f0: d9d8 57c0 ad41 1cbe c9b9 5040 512a ccbf
00000300: 4faa 953f dfcc 51c0 d1c0 debe 0723 4840
00000310: f6a9 cebf 93a9 b33f e01d 5bc0 515a 1bbe
00000320: 369e 5540 88ad d1bf a62e 9d3f 84fb 54c0
00000330: b9fe d9be ae28 4d40 ceb2 d3bf 3351 b93f
00000340: 28fa 5dc0 3c39 1cbe 5a0f 5a40 a1e0 d6bf
00000350: ee88 a33f 8855 58c0 4c63 d5be f4d2 5140
00000360: 842d d8bf 46a4 be3f 4a2d 61c0 c934 1bbe
00000370: 7f6c 5e40 7345 dcbf d9f2 aa3f f0c2 5ac0
00000380: 1fe0 cebe 6c65 5640 4131 ddbf 6973 c43f
00000390: 62ad 63c0 26cc 1abe 6f83 6240 8c45 e1bf
000003a0: 84cb b13f 4d4d 5dc0 c5de c8be 54d5 5a40
000003b0: cc0e e2bf 0fe4 c93f 1b20 66c0 ce58 1abe
000003c0: d99d 6640 fe59 e6bf ba0f b83f a5a6 5fc0
000003d0: f787 c2be 102f 5f40 3c72 e6bf a115 cf3f
000003e0: 4969 68c0 874b 19be 7d22 6a40 9825 ebbf
000003f0: 92c3 bd3f b865 62c0 16ec babe 46e6 6240
0.19689292 0.111503966 0.097876765 -0.32636023 -0.5130895 0.21185976 0.016342964 0.2634944
0.32687306 -0.17141792 0.42159453 -0.210605 0.08966582 -0.3270696 -0.5114573 0.26321366
-0.27281955 0.39123824 -0.15654562 -0.16649751 0.6222272 -0.47170076 0.07265731 -0.5466908
-0.5119906 0.40648484 -0.5231454 0.6023455 -0.66052485 -0.16409719 0.7823005 -0.64876586
0.09839435 -1.0066093 -0.51316684 0.5290015 -0.7156649 0.7356738 -1.1836238 -0.16074537
1.0370798 -0.77765876 0.2482861 -1.3122311 -0.5153026 0.8069586 -0.84348035 0.8430351
-1.5406101 -0.15506296 1.3364733 -0.8687036 0.359451 -1.573829 -0.517088 1.1124247
-0.9429723 0.9124155 -1.8113372 -0.15276264 1.6333071 -0.93912804 0.44856775 -1.7936999
-0.5166049 1.4121656 -1.0188055 0.95413625 -2.0479746 -0.14993991 1.8502009 -1.0087428
0.5346094 -2.0061765 -0.51799774 1.6375122 -1.0825773 0.9924139 -2.254726 -0.14638641
2.0364156 -1.0719559 0.60492384 -2.1822014 -0.514923 1.8332123 -1.1406674 1.0222076
-2.4330196 -0.14474988 2.1961997 -1.1304538 0.6652404 -2.3479238 -0.5134375 1.9993688
-1.1966254 1.0539826 -2.5875678 -0.14329356 2.3620093 -1.1801649 0.7163442 -2.4775558
-0.50936687 2.1802812 -1.2444322 1.0854179 -2.7101376 -0.14173706 2.4944649 -1.2400173
0.767074 -2.5971777 -0.50474775 2.3187766 -1.293714 1.1107538 -2.8246562 -0.14374898
2.616235 -1.2888783 0.81115395 -2.713633 -0.49941418 2.4508748 -1.3383197 1.1514709
-2.9217088 -0.14790344 2.7266207 -1.3416247 0.86286753 -2.8157148 -0.49027422 2.566742
-1.3824279 1.1867288 -3.0130725 -0.14964643 2.8258789 -1.3853623 0.90902513 -2.9112415
-0.47933498 2.6701927 -1.4220654 1.2205403 -3.1012356 -0.15126881 2.9207327 -1.4293377
0.956154 -3.0004456 -0.47215533 2.772373 -1.4650974 1.2612746 -3.1746764 -0.15255332
3.0092795 -1.4691544 1.0048352 -3.0863283 -0.4644982 2.8670135 -1.5042986 1.3018711
-3.248267 -0.1529659 3.096176 -1.5096375 1.0579199 -3.160255 -0.4571179 2.9578612
-1.5392097 1.3313556 -3.3122923 -0.15369838 3.1765747 -1.5502679 1.1110035 -3.2260988
-0.44786394 3.0414414 -1.5752641 1.3617895 -3.3726103 -0.15259428 3.2613394 -1.5950414
1.1692599 -3.2781293 -0.43506482 3.127138 -1.6145618 1.4036125 -3.4236984 -0.15171172
3.3377814 -1.6381083 1.2279861 -3.3278513 -0.4257715 3.205608 -1.6538942 1.4477905
-3.4683933 -0.15256208 3.407187 -1.6787301 1.2776163 -3.3802204 -0.4167732 3.2785006
-1.688889 1.4893882 -3.5183892 -0.15156855 3.475372 -1.7208694 1.3355361 -3.418148
-0.40405366 3.3499403 -1.7280656 1.534772 -3.5574574 -0.15116939 3.539272 -1.7599349
1.3890233 -3.457843 -0.3923246 3.4192705 -1.7660766 1.5772723 -3.5957096 -0.15072939
3.6033843 -1.7996213 1.4379799 -3.4945462 -0.37994358 3.4872475 -1.8003612 1.6178476
-3.631426 -0.14970218 3.658355 -1.8370848 1.4825308 -3.5374584 -0.36508244 3.5453048
