notebooks/dice/results/ipd_bs64_2inner_om/run-4/params.npy (npy, 8128 bytes, 1 tensors)

array f4 [200, 2, 5]
0	0x3d683a83	0.056696426
1	0x3ec4f04c	0.38464582
2	0xbc52fcc8	-0.012877651
3	0xbd270e73	-0.040785264
4	0x3d20368c	0.03911452
5	0x3f2a11fa	0.6643368
6	0xbe6addd5	-0.22936185
7	0x3e2cca78	0.1687411
8	0x3de2d63f	0.110760204
9	0xbd87bf3b	-0.06628271
10	0x3ebb15ff	0.3654022
11	0xbf995c1f	-1.1981238
12	0x3f2e9fe1	0.68212706
13	0xbf9df65f	-1.2340811
14	0x3e5f3aa0	0.21799707
15	0x3fa734f8	1.306304
16	0xbf80d48d	-1.0064865
17	0x3da18294	0.07886234
18	0xbea4bada	-0.32173806
19	0xbebd727a	-0.370014
20	0x3f80cc48	1.0062342
21	0xbfb031b8	-1.3765173
22	0x3fa7d934	1.311316
23	0xbfe68674	-1.8009782
24	0x3e09ce92	0.13457707
25	0x3fc935f8	1.5719595
26	0xbfb0c2aa	-1.3809407
27	0x3d1a284b	0.037636083
28	0xbf7180b5	-0.94337016
29	0xbf0a54aa	-0.5403544
30	0x3f9c96db	1.2233537
31	0xbfdef615	-1.7418848
32	0x3faf91fe	1.3716428
33	0xc0186488	-2.381136
34	0x3db15d46	0.086603686
35	0x3ff2eb9c	1.8978152
36	0xbfbad8e6	-1.4597442
37	0x3e225033	0.15850906
38	0xbfeb2a30	-1.837225
39	0xbf0ed00e	-0.55786216
40	0x3ffb796a	1.9646428
41	0xbfd303d3	-1.6485542
42	0x3fb57a79	1.4178001
43	0xc03a235a	-2.9084077
44	0x3d42365a	0.047415115
45	0x40159cb1	2.3376887
46	0xbfbbf7c1	-1.4684983
47	0x3f65f174	0.89821553
48	0xc007635e	-2.11544
49	0xbf1b46fd	-0.60655195
50	0x401a4f6d	2.4110978
51	0xbfe7a88b	-1.809831
52	0x3fafb159	1.3725997
53	0xc0468e09	-3.1024191
54	0x3d86312e	0.06552349
55	0x404393fc	3.0559072
56	0xbfb3d3a0	-1.4048958
57	0x3f81f850	1.0153904
58	0xc01ca061	-2.4472888
59	0xbf17d65a	-0.5931145
60	0x402e1710	2.7201576
61	0xbff6107e	-1.9223783
62	0x3fa6c343	1.3028339
63	0xc05bbc89	-3.4333823
64	0x3df17efa	0.11791797
65	0x406c46f7	3.6918314
66	0xbfbd018d	-1.4766098
67	0x3f93b389	1.1539165
68	0xc029b5f9	-2.6517317
69	0xbeed6e15	-0.46373048
70	0x403c88ff	2.9458616
71	0xbfe97da7	-1.8241471
72	0x3fa4d677	1.287795
73	0xc0693b2d	-3.6442368
74	0x3cf86bf4	0.030324914
75	0x406f4f1c	3.7392035
76	0xbfdbb6d9	-1.7165176
77	0x3f9bc144	1.2168355
78	0xc03d8323	-2.961129
79	0xbec7fea5	-0.39061466
80	0x4048a29f	3.1349256
81	0xbff4a16d	-1.9111763
82	0x3fafe624	1.3742108
83	0xc0755232	-3.8331418
84	0x3bcedb28	0.0063127466
85	0x407d3dd8	3.9568996
86	0xbfeac3fb	-1.8341058
87	0x3fa40865	1.2815062
88	0xc04669fb	-3.1002185
89	0xbe8ab941	-0.27094463
90	0x40574cc7	3.364061
91	0xc007b84c	-2.1206236
92	0x3fb488fc	1.4104304
93	0xc0781f45	-3.8769085
94	0xbdead172	-0.1146573
95	0x4085d655	4.1824136
96	0xbff91cba	-1.9461892
97	0x3fa5715f	1.2925223
98	0xc055bb65	-3.3395627
99	0xbe8c198d	-0.27363244
100	0x406cbc56	3.698995
101	0xc0082582	-2.1272893
102	0x3fc402a3	1.5313305
103	0xc07b58c7	-3.9272935
104	0xbe34cf84	-0.17657286
105	0x408ba50a	4.3638964
106	0xc001587d	-2.021026
107	0x3fb4be05	1.4120489
108	0xc0579962	-3.3687367
109	0xbe20b66e	-0.15694591
110	0x407556e7	3.833429
111	0xc0134122	-2.3008504
112	0x3fc3ece6	1.5306671
113	0xc080b320	-4.021866
114	0xbe561369	-0.20905842
115	0x408f0610	4.46949
116	0xc00d6230	-2.209118
117	0x3fb0fccb	1.3827146
118	0xc05dd7a9	-3.4662879
119	0x3c02ebc0	0.0079907775
120	0x40815893	4.0420623
121	0xc013dd8a	-2.3103967
122	0x3fe29739	1.77024
123	0xc08126a5	-4.0359674
124	0xbe4dc6e3	-0.200954
125	0x408ef2a0	4.4671173
126	0xc0103103	-2.2529914
127	0x3fb591c4	1.4185109
128	0xc0736f28	-3.8036594
129	0x3de2fc07	0.11083227
130	0x4082a1a9	4.082234
131	0xc0164785	-2.3481152
132	0x3fe4e9a9	1.7883807
133	0xc083e973	-4.122247
134	0xbde301f7	-0.11084359
135	0x409492b0	4.642906
136	0xc016c089	-2.3555014
137	0x3fc61ad7	1.5476941
138	0xc074d313	-3.825383
139	0x3e802d65	0.25034633
140	0x40863b2a	4.194722
141	0xc01dcc21	-2.465584
142	0x3ff751bf	1.9321822
143	0xc088757d	-4.264342
144	0xbdd4c654	-0.103893906
145	0x40964ee6	4.697131
146	0xc01a224e	-2.4083438
147	0x3fcf37af	1.6188868
148	0xc07fd10e	-3.9971347
149	0x3e99464a	0.2993644
150	0x408b05ad	4.344443
151	0xc0213764	-2.5190058
152	0x40046a19	2.0689757
153	0xc08b2088	-4.347721
154	0xbe62ffce	-0.22167894
155	0x40994a15	4.790293
156	0xc0202a2d	-2.5025742
157	0x3fda8128	1.7070665
158	0xc0855938	-4.167141
159	0x3ea866b6	0.32890862
160	0x408d1a4b	4.4094596
161	0xc0250fc2	-2.5790868
162	0x40059389	2.0871298
163	0xc08dea16	-4.434825
164	0xbe21e8cc	-0.15811461
165	0x409ca2a8	4.8948555
166	0xc0279ef9	-2.619078
167	0x3ff39101	1.9028627
168	0xc089e755	-4.309489
169	0x3ed5dfb8	0.41772246
170	0x40901152	4.5021143
171	0xc02952e1	-2.6456835
172	0x4005b3b6	2.0890937
173	0xc08fc5bd	-4.492888
174	0xbe64f8be	-0.22360513
175	0x409e7ded	4.952872
176	0xc02c3844	-2.6909342
177	0x400bb78a	2.1830773
178	0xc089d1f8	-4.306881
179	0x3f03bf28	0.51463556
180	0x4090fb64	4.5306873
181	0xc02b0a32	-2.6724973
182	0x40039a47	2.0562913
183	0xc091dfa0	-4.558548
184	0xbe7d49b2	-0.24735144
185	0x40a33717	5.100475
186	0xc02e6fad	-2.7255661
187	0x401a0ce7	2.4070375
188	0xc08a763e	-4.326934
189	0x3f21cdb6	0.63204515
190	0x409515bb	4.6589026
191	0xc02dde55	-2.716695
192	0x4013d2bf	2.309738
193	0xc09416ba	-4.6277742
194	0xbd7b5c8c	-0.061367556
195	0x40a5a903	5.1768813
196	0xc0306d07	-2.7566545
197	0x4018c2a2	2.3868794
198	0xc08a9d44	-4.3316975
199	0x3f3169f1	0.6930228
200	0x4098a46d	4.7700715
201	0xc02d85e0	-2.711296
202	0x40193ef7	2.394468
203	0xc09592fd	-4.674193
204	0xbe075592	-0.13216236
205	0x40a5cac8	5.1810036
206	0xc035b064	-2.838891
207	0x401e8d4b	2.4773738
208	0xc08b9e88	-4.363102
209	0x3f46208b	0.77393407
210	0x409a5d7b	4.823911
211	0xc0300436	-2.750257
212	0x4022a9f5	2.5416234
213	0xc096ae1a	-4.7087526
214	0xbe0c21aa	-0.13684717
215	0x40a887b9	5.2665677
216	0xc039f7dd	-2.9057534
217	0x401f211c	2.4863958
218	0xc08c7ffa	-4.390622
219	0x3f3c9d18	0.73677206
220	0x409c5c80	4.8862915
221	0xc033333e	-2.8000026
222	0x4022b972	2.5425687
223	0xc0991acf	-4.7845225
224	0xbdfdc956	-0.123919174
225	0x40a997c7	5.2997775
226	0xc03f1a93	-2.985997
227	0x4020f085	2.5146801
228	0xc08cdda2	-4.402055
229	0x3f60ef81	0.87865454
230	0x409f63dc	4.98094
231	0xc0364147	-2.8477342
232	0x40280151	2.6250803
233	0xc09a4522	-4.820939
234	0xbddccbce	-0.1078106
235	0x40abb252	5.3655176
236	0xc0426288	-3.0372639
237	0x402be363	2.6857536
238	0xc08ecb8f	-4.4623485
239	0x3f872d5e	1.056072
240	0x40a22c0e	5.067878
241	0xc03b39cf	-2.9254034
242	0x402d71a0	2.7100601
243	0xc09c690e	-4.887824
244	0xbc806f58	-0.015678093
245	0x40acba18	5.3977165
246	0xc0443414	-3.0656786
247	0x402a30ac	2.6592207
248	0xc09033a5	-4.5063043
249	0x3f97afe9	1.1850559
250	0x40a3ec3c	5.122587
251	0xc0400f6e	-3.0009418
252	0x402c0ee3	2.6884086
253	0xc09d8581	-4.922547
254	0xbc903389	-0.017602699
255	0x40aef46d	5.467337
