notebooks/dice/results/ipd_bs64_nl/run-3/params.npy (npy, 8128 bytes, 1 tensors)

array f4 [200, 2, 5]
000000 f0 68 6b 3e 4c a4 12 3f dc 3f 30 3f 80 4a b4 3d
       0.22989249 0.5728195 0.6884744 0.08803272
000010 00 4b a4 3d b0 8a 0a bf 7c ed 36 bf 38 4f 8f 3e
       0.080221176 -0.5411787 -0.7145612 0.27990127
000020 28 c2 2a 3f 14 ad 35 3f 14 4d d3 bd 48 89 ae 3e
       0.6670251 0.7096722 -0.10317436 0.34089112
000030 e0 14 f5 3e 48 2a 95 bd 4f 20 80 3d 0e 1e 2c bf
       0.4786749 -0.07283455 0.062561624 -0.6723336
000040 08 95 6c bf 40 d3 0a 3e 17 fa c4 3e 22 eb 28 3f
       -0.92414904 0.13557148 0.38472053 0.65983784
000050 28 98 94 be 58 04 4c bd 8a b8 94 3e 40 7c bf be
       -0.29022336 -0.04980883 0.29047042 -0.37399483
000060 8c 8e 02 3c 3d 28 59 bf 8c 1d 91 bf e8 00 7b bd
       0.007968556 -0.84827024 -1.1337142 -0.06128016
000070 53 c4 1f 3e 14 ba 2f 3f 19 2c f8 be 6e 63 81 be
       0.15602235 0.6864331 -0.48471144 -0.2527117
000080 f0 dc 50 3d a6 5b 23 bf fe 4d 01 bd 74 f3 7b bf
       0.050991952 -0.6381172 -0.03156852 -0.98418355
000090 6c c6 9c bf 2c 55 2b be 80 b1 aa bc b1 62 31 3f
       -1.2248054 -0.16731709 -0.020836592 0.69291216
0000a0 7c 3f 1b bf c1 a6 ec be 3c 06 3a be 65 af 65 bf
       -0.60643744 -0.46220973 -0.1816644 -0.89720756
0000b0 d8 ad 48 bd e8 97 8c bf 4e d3 a5 bf c5 5e dd be
       -0.048993915 -1.0983858 -1.295511 -0.43236366
0000c0 72 e6 28 be 65 c2 2e 3f 78 f0 2e bf af 4e 41 bf
       -0.16494158 0.6826537 -0.68335676 -0.75510687
0000d0 e0 c1 c7 be 2d 0b 91 bf d8 47 7f bd 06 8e 98 bf
       -0.39015102 -1.1331536 -0.062324375 -1.1918342
0000e0 8e 64 b3 bf fd b9 0f bf 64 20 b5 be 6e fd 26 3f
       -1.4015062 -0.5614317 -0.35376275 0.65230453
0000f0 66 c1 44 bf bd 4c 74 bf cd 86 11 bf 66 7f ba bf
       -0.768576 -0.95429593 -0.56846315 -1.4570129
000100 26 ad d9 bd 47 16 9e bf 17 0f cc bf 7d cf 25 bf
       -0.106287286 -1.2350549 -1.5942105 -0.64769727
000110 b8 33 2e bf a4 cf 10 3f 3a 6d 5c bf 55 67 8f bf
       -0.68047667 0.56566834 -0.86104167 -1.120341
000120 d5 33 42 bf 19 eb de bf c0 6d 21 be fa ef 9d bf
       -0.7586034 -1.7415496 -0.15764523 -1.233886
000130 37 9c cf bf 41 84 43 bf e7 e1 82 bf d4 a8 0f 3f
       -1.6219548 -0.7637368 -1.022519 0.56116986
000140 89 46 65 bf 02 ab 9b bf e3 7c 6f bf 8b ad fb bf
       -0.89560753 -1.2161562 -0.93549937 -1.9662336
000150 ad fe 0f be 45 6f a4 bf a8 84 dd bf 1e 5d 5d bf
       -0.14061995 -1.2846457 -1.7306108 -0.8647021
000160 0a 67 91 bf b4 83 12 3f a3 1a 68 bf 08 83 a6 bf
       -1.135957 0.57232213 -0.90665644 -1.3008738
000170 8c 22 8a bf 3e f2 09 c0 ae 69 0c be 0d 62 a8 bf
       -1.0791793 -2.1554103 -0.13712189 -1.3154923
000180 6b a0 e0 bf db 9e 7c bf 43 0c ab bf 75 2e 08 3f
       -1.7548956 -0.98679894 -1.3363117 0.5319589
000190 15 0e 6f bf dd c0 b0 bf 7b c7 97 bf ee 62 16 c0
       -0.9338086 -1.3808857 -1.1857752 -2.3497882
0001a0 ce fd 19 be 2c e0 aa bf e3 7d e0 bf a7 08 84 bf
       -0.15038225 -1.3349662 -1.7538418 -1.031514
0001b0 6a f5 d4 bf 87 0d ff 3e f4 25 74 bf 71 1f bb bf
       -1.6637394 0.49815008 -0.9537041 -1.461897
0001c0 67 1d a1 bf e3 37 20 c0 44 a8 3a be e8 61 b2 bf
       -1.2587098 -2.503411 -0.1822825 -1.3936129
0001d0 b0 3b e6 bf 2c 69 82 bf fb db e7 bf c3 0d fc 3e
       -1.7986965 -1.0188346 -1.8114008 0.4922925
0001e0 bf c5 7b bf 3c 40 c5 bf 25 57 ab bf e4 55 2e c0
       -0.9834861 -1.5410228 -1.3385969 -2.7239923
0001f0 b9 2b 6a be aa b5 b5 bf 91 f9 e9 bf 31 cb 84 bf
       -0.22868241 -1.4196064 -1.8279287 -1.0374509
000200 0a 0e 00 c0 e5 6c 02 3f 3e 0e 81 bf 2c f8 c9 bf
       -2.0008569 0.5094741 -1.0082471 -1.5778861
000210 c4 fa b7 bf bd 81 38 c0 c2 8e 6e be 4c e3 b3 bf
       -1.4373403 -2.8829186 -0.23296645 -1.405374
000220 9d cf ee bf 68 57 87 bf 78 02 0b c0 4c 3d f4 3e
       -1.8657109 -1.0573549 -2.1720257 0.47703016
000230 c0 84 80 bf f5 3d cd bf 9e 14 bd bf 1b c5 3d c0
       -1.0040512 -1.6034533 -1.4771917 -2.9651554
000240 2a 66 89 be cf 2c b6 bf 0f 45 f3 bf fc b8 8b bf
       -0.26835757 -1.4232424 -1.900545 -1.0915828
000250 81 02 1a c0 4a d5 e3 3e 37 d8 80 bf d1 43 d1 bf
       -2.4064028 0.44498664 -1.0065984 -1.6348821
000260 44 e3 c6 bf c2 5d 47 c0 dc 95 9e be e7 8a b7 bf
       -1.5538106 -3.1150975 -0.3097371 -1.4339265
000270 97 24 f8 bf 0b 6b 8f bf 55 ee 21 c0 ce 54 c2 3e
       -1.9386166 -1.1204542 -2.5301716 0.37955326
000280 14 11 84 bf 54 6d d3 bf 3f a1 cc bf 6f 07 4e c0
       -1.0317712 -1.6517739 -1.5986708 -3.2192037
000290 16 cf a9 be b5 7d b9 bf 4b a4 fa bf 27 73 92 bf
       -0.33165807 -1.4491488 -1.9581388 -1.1441392
0002a0 80 a0 2e c0 42 7a bd 3e 04 e5 86 bf 75 86 d5 bf
       -2.7285461 0.37007338 -1.053864 -1.6681658
0002b0 1c b0 ce bf 6f d8 54 c0 3e 0c cc be 0a d1 bc bf
       -1.6147494 -3.32571 -0.3985309 -1.4751294
0002c0 52 9a fc bf 13 94 98 bf 56 b4 34 c0 5c cb be 3e
       -1.9734595 -1.1920189 -2.8235068 0.37264526
0002d0 21 0e 88 bf 2f 70 d5 bf 01 71 d1 bf 7e 09 59 c0
       -1.0629312 -1.6674861 -1.6362611 -3.3912044
0002e0 52 b8 de be a2 da bc bf c5 05 01 c0 ae 28 9c bf
       -0.435 -1.4754221 -2.0159771 -1.2199914
0002f0 fe 98 3e c0 1e 22 b5 3e e1 ae 88 bf 32 72 d7 bf
       -2.978088 0.35377592 -1.0678369 -1.6831725
000300 99 a3 d7 bf 41 06 5d c0 0c 20 de be 27 bb bd bf
       -1.6846801 -3.4535067 -0.43383825 -1.4822739
000310 fb cb 03 c0 1a 0d 9e bf c0 f5 43 c0 34 ff aa 3e
       -2.059325 -1.2347748 -3.0618744 0.3339783
000320 de 5e 88 bf 9e 2f d8 bf 64 8a db bf 32 31 60 c0
       -1.0653951 -1.6889532 -1.7151608 -3.5030026
000330 ed 35 fc be 11 8a bf bf 33 68 07 c0 4e 30 a2 bf
       -0.49259892 -1.496401 -2.1157348 -1.2670991
000340 17 92 4b c0 98 33 a3 3e 1e 79 87 bf ef a8 da bf
       -3.1807916 0.318753 -1.0583837 -1.7082804
000350 d4 0b e0 bf ba dc 63 c0 f9 48 03 bf d2 07 c0 bf
       -1.750361 -3.560347 -0.5128322 -1.5002387
000360 87 f4 07 c0 ac c7 a5 bf 36 6c 50 c0 33 ff 9a 3e
       -2.1242998 -1.295156 -3.2566047 0.30272827
000370 ca 9f 86 bf f9 23 dc bf e8 6c e0 bf 3d b8 67 c0
       -1.0517514 -1.7198478 -1.7533236 -3.62062
000380 1f 8e 07 bf c7 da c1 bf f8 7b 09 c0 57 4a a8 bf
       -0.52951235 -1.514489 -2.1481915 -1.3147687
000390 c0 41 54 c0 76 c8 7e 3e 70 b9 86 bf 96 6b dd bf
       -3.316513 0.24881157 -1.0525341 -1.7298458
0003a0 42 77 df bf 69 16 6c c0 2c 51 19 bf 2d 62 c1 bf
       -1.745827 -3.6888678 -0.59889483 -1.5108086
0003b0 05 f5 09 c0 21 bd ab bf 2a f2 59 c0 86 06 53 3e
       -2.1555798 -1.3417093 -3.4054055 0.20607957
0003c0 78 da 86 bf 48 b6 dd bf 9b de e1 bf 93 d9 6e c0
       -1.0535421 -1.7321253 -1.7646059 -3.7320297
0003d0 a7 4f 20 bf ba c2 c2 bf 27 a4 0a c0 55 b6 ae bf
       -0.6262154 -1.5215676 -2.166269 -1.3649393
0003e0 79 6a 5f c0 b4 ee 37 3e 92 2b 87 bf 68 c7 e0 bf
       -3.4908736 0.17962152 -1.0560172 -1.7560854
0003f0 4c 32 e4 bf 91 38 71 c0 e2 e9 2b bf 84 a7 c3 bf
       -1.7827849 -3.7690775 -0.6715375 -1.5285497
