notebooks/dice/results/ipd_bs64_2inner_om/run-5/params.npy (npy, 8128 bytes, 1 tensors)

array f4 [200, 2, 5]
00000000: 1f71 ccbd 4521 12bf ff52 c63e 5208 12bf
00000010: 38c3 25be 3764 913e b66b 1e3f 23e2 d33d
00000020: 49de b23e 6879 87bd 153d e53d 68b2 b3bf
00000030: dc92 383f 9439 b7bf 2076 95be dc5d 6e3f
00000040: f000 d0bd 0b4b 0a3f bdb8 dcbe b09a 24bd
00000050: 4509 de3e 3a5b a5bf 18c0 963f d745 01c0
00000060: 6eae 7cbe 26f8 ec3f 0592 74bf 4e69 893e
00000070: 9a12 80bf b25e 12be 2d40 0a3f d493 cfbf
00000080: 58f6 903f de03 1ec0 b0e9 a8be 7dd4 f43f
00000090: db18 98bf 6f4c 123f 62d0 c0bf 5df0 13be
000000a0: 9d5f 813f c51d d6bf 6b91 8d3f bbc0 38c0
000000b0: 69b1 cdbe a569 1a40 7aef 83bf 3d17 9c3f
000000c0: 6c59 03c0 167f 70be 9813 ce3f d8e8 dfbf
000000d0: aaa1 a13f e9f0 46c0 2923 b7be b0e8 3e40
000000e0: 3c94 3bbf 5767 c63f 5e28 11c0 f05a 10bc
000000f0: 6eca fd3f cd36 ddbf fae8 a73f 8ea8 5cc0
00000100: 6261 04bf 00f5 5540 8228 9dbf f7e2 b23f
00000110: 869c 23c0 8387 5b3d 913e 1c40 c400 01c0
00000120: 22a6 aa3f 289f 69c0 801f 92be 12ff 5640
00000130: f012 bdbf 3b6a a73f c569 35c0 52c0 e93d
00000140: b4e1 3c40 c0ab 04c0 ad73 9c3f 5d90 6ec0
00000150: c9bd c5be 3fff 5a40 fe81 d3bf e279 983f
00000160: 63b5 45c0 3e97 c03d fada 4d40 47b1 07c0
00000170: cb9a a23f 0c25 79c0 865e eebe 638f 6340
00000180: 72cb e9bf eeed a73f 02cb 54c0 3049 5a3e
00000190: 0072 5b40 2c8e 05c0 b376 a53f 7d08 82c0
000001a0: 5842 96be c07f 6d40 d678 eebf e286 c83f
000001b0: 4c2e 5bc0 b453 b93e 977e 6840 0c94 11c0
000001c0: a4c5 943f 3046 84c0 4e5d 91be fb36 7840
000001d0: 0483 f4bf 1bd1 d93f 8f6b 65c0 e4af e93e
000001e0: 950d 6d40 2bb9 15c0 2e4f aa3f 4296 86c0
000001f0: fcfa 82be a757 8040 baa6 03c0 c170 cf3f
00000200: d6fd 6ec0 38a6 2a3f b7df 7b40 cedf 1ec0
00000210: e883 ae3f 47ed 86c0 1e4a 5abe 771e 8540
00000220: 83fe 06c0 bd2f ec3f 1249 7ac0 3133 323f
00000230: 7bf3 7d40 ee37 23c0 7d30 bd3f 5be1 89c0
00000240: 72df 9dbe 810d 8a40 679d 0fc0 a4e0 fb3f
00000250: 61cf 7fc0 57f3 503f 4ce7 8340 9fc1 26c0
00000260: 8c53 ca3f 6869 8bc0 ad74 afbe 9e9e 8d40
00000270: 0420 10c0 ae14 0540 1c1d 81c0 6031 743f
00000280: c226 8640 7d06 27c0 3e8d d63f 4e6e 8cc0
00000290: 288b 69be ac3c 9140 0149 14c0 afb3 0840
000002a0: 22fc 84c0 b47d 863f c5cb 8940 d2b5 23c0
000002b0: 230b f13f 8ad8 90c0 3015 cbbd 0312 9240
000002c0: 316b 1ac0 fdbc 0f40 5157 86c0 6be3 8f3f
000002d0: fbd0 8c40 8ec2 2ac0 eb89 eb3f e44e 92c0
000002e0: 4190 debd 6b57 9240 8fad 23c0 5111 1540
000002f0: 06b6 86c0 1f6c a33f b87c 8c40 c720 2fc0
00000300: f688 f33f a5fa 95c0 1b5d a1bd faa7 9440
00000310: 6845 2ac0 0dae 1740 46e7 87c0 0c15 b03f
00000320: 2b97 8f40 7204 32c0 1fec f63f 4fe5 98c0
00000330: 66db 42be b555 9740 7777 32c0 9e4b 2040
00000340: 19be 8bc0 5b87 be3f f826 9140 a795 31c0
00000350: b2f6 0840 3272 99c0 7479 5e3d 7a46 9940
00000360: 6283 34c0 7e61 2240 4e53 8bc0 b4d4 cf3f
00000370: 055b 9040 d5d1 35c0 0e1c 1140 217d 9bc0
00000380: 6814 6a3c 84a5 9b40 b8c5 3ac0 d29d 2840
00000390: 1a2d 8bc0 e673 dd3f e8fb 9340 80e6 38c0
000003a0: d93a 1040 271f 9ec0 9007 c93d 5181 9e40
000003b0: cbb9 3cc0 d9c2 2640 3fda 8ac0 e20f dd3f
000003c0: 0b88 9440 e8ee 3bc0 aed8 1340 9dd1 9ec0
000003d0: 8813 bb3d b86e a240 1e3b 42c0 130b 2a40
000003e0: ff27 8cc0 1167 e53f 64a7 9340 1cf1 41c0
000003f0: a1a8 1140 22b7 a0c0 08f6 8e3e 427b a340
-0.09982514 -0.57082015 0.38735196 -0.57043946 -0.16187751 0.2839677 0.61883104 0.103458665
0.34935215 -0.06614953 0.11193291 -1.403882 0.7209909 -1.4314446 -0.29191685 0.9311197
-0.10156429 0.54020756 -0.43109694 -0.040186584 0.43366447 -1.2918465 1.1777372 -2.0198877
-0.24675915 1.8513229 -0.9553531 0.26838154 -1.0005677 -0.14293936 0.54004174 -1.6216989
1.1325178 -2.468986 -0.3299079 1.9127346 -1.1882585 0.5714788 -1.5063593 -0.1444716
1.0107304 -1.6727835 1.1060003 -2.8867633 -0.40174416 2.412698 -1.0307457 1.2194592
-2.0523329 -0.2348598 1.609973 -1.7492933 1.2627461 -3.108454 -0.35769013 2.982952
-0.7327306 1.5500287 -2.2680888 -0.008810744 1.9827402 -1.7282349 1.3117974 -3.4477878
-0.51711094 3.3430786 -1.2277987 1.3975514 -2.5564284 0.05359603 2.4413188 -2.0156717
1.333195 -3.6503391 -0.28539658 3.3593183 -1.4771404 1.3079294 -2.8345807 0.11413635
2.9512758 -2.0729828 1.2222801 -3.7275612 -0.38621357 3.421829 -1.6524045 1.1912196
-3.089196 0.09403847 3.2164903 -2.1201952 1.2703489 -3.8928862 -0.4655649 3.5556266
-1.8265212 1.3119485 -3.3248906 0.21316981 3.428833 -2.0868025 1.2926849 -4.063536
-0.2934749 3.7109222 -1.8630626 1.5666163 -3.4247007 0.36196673 3.6327264 -2.274661
1.1622815 -4.133568 -0.28391498 3.8783557 -1.9102483 1.7016939 -3.5846899 0.45642006
3.703954 -2.3394268 1.3305414 -4.205842 -0.2558211 4.0106997 -2.0570512 1.6206285
-3.734243 0.6665988 3.9355295 -2.48241 1.3634005 -4.2164645 -0.21317336 4.159969
-2.1092842 1.8452069 -3.9107099 0.6960936 3.9679859 -2.5502887 1.4780422 -4.308759
-0.30834538 4.3141484 -2.243982 1.967793 -3.9970324 0.8162131 4.1219845 -2.6055677
1.5806746 -4.356617 -0.34268704 4.4256124 -2.251954 2.0793872 -4.0348034 0.9538784
4.192231 -2.609771 1.6761854 -4.388465 -0.2280699 4.538656 -2.3169558 2.135967
-4.155778 1.0507112 4.306124 -2.5579724 1.8831524 -4.526433 -0.099161506 4.5646987
-2.4127924 2.24591 -4.1981587 1.1241277 4.4005103 -2.6681247 1.8401464 -4.57213
-0.10867358 4.573171 -2.5574682 2.329182 -4.2097197 1.2767371 4.3902245 -2.7363756
1.9026172 -4.6868463 -0.078790866 4.645505 -2.6604862 2.3699982 -4.2469816 1.3756423
4.487203 -2.7815213 1.9290808 -4.777992 -0.19029006 4.7292123 -2.7885416 2.5046153
-4.3669553 1.4885057 4.536007 -2.774759 2.140057 -4.79519 0.054315045 4.789853
-2.820519 2.5372005 -4.353919 1.6236787 4.511111 -2.8409321 2.2673373 -4.8590245
0.014287092 4.8639545 -2.9183178 2.6346326 -4.3492556 1.7300994 4.6245003 -2.8890686
2.2535918 -4.941303 0.098158956 4.9532857 -2.94884 2.6056426 -4.3391414 1.7270472
4.641607 -2.9364567 2.3101 -4.9630876 0.09134585 5.0760155 -3.0348582 2.656926
-4.3798823 1.7922078 4.6141834 -3.0303411 2.2759173 -5.022355 0.27922082 5.108796
