notebooks/dice/results/ipd_bs64_2inner_om/run-5/params_om.npy (npy, 8128 bytes, 1 tensors)

array f4 [200, 2, 1, 5]
00000000: 7f5e 5e3e 5881 173d a0ab 263c c470 a9be
00000010: cdec 51bf 9ad0 cd3e 3385 863d 39e5 b83d
00000020: ce3c 9c3e eb4e 55bf 5316 c93e 1469 55bc
00000030: e251 063e 1267 b9be 1444 50bf a725 a93e
00000040: a8d4 64be 27d7 963e 2f03 34be 4d6c 53bf
00000050: 4315 223f 8f79 8cbe 7bbd 283e f307 15bf
00000060: 8124 4fbf ad04 b33e fe33 e9be fd21 043f
00000070: 7838 33bf b315 52bf 507f 4a3f d7f6 febe
00000080: 86ac 7d3e b56a 66bf eaf8 4dbf 54e8 c43e
00000090: aae9 28bf 4706 293f e613 97bf aeef 4fbf
000000a0: bbb4 813f efd6 1bbf f38e cf3e 5ba1 9ebf
000000b0: cff2 4cbf 5b39 023f 83c7 4dbf 31df 423f
000000c0: ddb5 c5bf b99d 4fbf e629 aa3f d97b 21bf
000000d0: 54c5 0e3f 40b8 bbbf 1730 4bbf 4e11 4d3f
000000e0: 373b 69bf d20c 5c3f 7ecb e3bf f0a9 4ebf
000000f0: 4d6e c83f 4eed 38bf 5379 273f 5eea dabf
00000100: 2d94 49bf 91c2 853f fc6b 7ebf 086f 6c3f
00000110: 68c1 01c0 acfe 4dbf a1d5 de3f 7ec4 50bf
00000120: 515b 373f 07ed f8bf 42fb 47bf 6c02 a23f
00000130: 7e09 8abf 1fe0 793f dc3a 10c0 2269 4cbf
00000140: 8b9c f13f 7c04 63bf 4e89 423f e372 0ac0
00000150: 63e6 45bf b99d bc3f 9e8f 92bf 93c9 803f
00000160: c0a3 1cc0 4d82 4bbf a156 0140 1ab2 75bf
00000170: 63e1 4e3f 31c6 16c0 a4f8 43bf da22 d43f
00000180: 1ecf 99bf 91be 833f 206c 27c0 be8f 4bbf
00000190: 0c3b 0a40 1935 83bf d563 5e3f 343d 20c0
000001a0: 37eb 41bf de5c eb3f 457f a0bf 862b 873f
000001b0: 8458 30c0 c240 4abf 2638 1240 2921 8abf
000001c0: 4e6e 6a3f 7ceb 28c0 3231 3fbf ac20 0040
000001d0: fd23 a6bf 4eed 873f 4b59 38c0 ba3a 49bf
000001e0: 0505 1940 bbff 90bf ea5b 753f 90dd 30c0
000001f0: 75b2 3bbf f0e7 0840 fe1e acbf afb6 893f
00000200: 7a99 3fc0 2b05 48bf 5232 2040 9aaa 97bf
00000210: 35ce 803f 1ce5 37c0 9b93 38bf abbf 1140
00000220: 81bb b1bf c824 8c3f 2b5f 45c0 5929 46bf
00000230: 4017 2740 6c39 9ebf f887 863f d42f 3ec0
00000240: c746 34bf b49b 1940 b858 b7bf 3553 8f3f
00000250: de02 4bc0 714e 45bf f46d 2d40 063a a4bf
00000260: 0f5b 8c3f 49d7 43c0 e3fd 30bf 8b1c 2140
00000270: 1194 bcbf c365 923f 5edb 4fc0 bcbb 44bf
00000280: f8d9 3340 8404 aabf 031e 933f 879c 48c0
00000290: 694a 2dbf 8679 2840 fa26 c2bf 5f8c 963f
000002a0: 90e5 53c0 8b80 43bf d31d 3a40 3dc7 afbf
000002b0: cf2f 993f 7ffe 4cc0 0989 29bf 7b9b 2f40
000002c0: 3052 c7bf afe1 9b3f 96b3 57c0 875e 41bf
000002d0: bafc 3e40 2eb4 b6bf 6536 a03f dc0c 51c0
000002e0: b58f 25bf 5459 3540 f8b8 ccbf a454 a03f
000002f0: dda9 5bc0 ad62 40bf eea7 4340 c5ea bcbf
00000300: 5bfa a53f 63a2 54c0 3e34 21bf eccc 3a40
00000310: 256e d1bf 8893 a43f 2453 5fc0 eb5a 3ebf
00000320: 7446 4840 d5ee c2bf 0255 ac3f 8836 58c0
00000330: 3e13 1cbf eee7 3f40 1ae5 d5bf 281f a93f
00000340: edbd 62c0 7cef 3cbf a0f4 4c40 06fb c8bf
00000350: 0071 b23f 1013 5bc0 81ae 17bf bb1a 4540
00000360: fdba dabf 9c57 ae3f 22ba 65c0 e204 3bbf
00000370: 3647 5140 664e cfbf af42 b93f 53c0 5dc0
00000380: c967 13bf 67cd 4940 2a9c dfbf 7262 b33f
00000390: cc85 68c0 84dc 39bf 747e 5540 d01d d5bf
000003a0: 6938 bf3f 307a 60c0 76f1 0ebf ae27 4e40
000003b0: 5fed e3bf 5f48 b83f 7e24 6bc0 b86f 38bf
000003c0: 4e81 5940 be4d dbbf ba94 c53f d8d2 62c0
000003d0: 2b8b 0abf 7258 5240 d29f e8bf 02bd bd3f
000003e0: 028a 6dc0 d5f7 36bf d1a3 5d40 61e5 e0bf
000003f0: 3848 cb3f faaa 64c0 4243 06bf 0c83 5640
0.21715735 0.036988586 0.0101727545 -0.33093846 -0.82001954 0.40198213 0.065683745 0.09028096
0.3051514 -0.83323544 0.39274845 -0.013025541 0.13117173 -0.3621145 -0.8135388 0.3303654
-0.22346747 0.29461023 -0.1757934 -0.8258713 0.6331369 -0.27436492 0.16478531 -0.58215255
-0.80915076 0.34964505 -0.4554748 0.5161436 -0.7000804 -0.8206436 0.79100513 -0.497977
0.24772844 -0.9000657 -0.8045794 0.38458502 -0.65981543 0.66025203 -1.1802948 -0.812251
1.013328 -0.6087484 0.4053875 -1.2392992 -0.80057997 0.5086877 -0.80382556 0.76121813
-1.5446125 -0.8110004 1.3294036 -0.630796 0.5576985 -1.4665604 -0.79370254 0.8010453
-0.9110598 0.8595706 -1.7796476 -0.80728054 1.5658661 -0.722371 0.654195 -1.7102773
-0.78741723 1.0450002 -0.9938352 0.9235692 -2.0274296 -0.80466723 1.7408944 -0.81549823
0.7162371 -1.9447335 -0.78117764 1.2656989 -1.0784147 0.97607607 -2.2535925 -0.7984792
1.8875898 -0.8867872 0.7599076 -2.1632621 -0.7730467 1.4735633 -1.1450078 1.0061516
-2.4474945 -0.794957 2.0209124 -0.95974886 0.8081266 -2.3558466 -0.7655127 1.6573136
-1.2016332 1.0292531 -2.6159744 -0.7951621 2.159854 -1.0250579 0.8687108 -2.5037355
-0.75749534 1.8387716 -1.253884 1.0560157 -2.7554026 -0.7900506 2.284677 -1.079137
0.9157456 -2.6393728 -0.7468444 2.0019941 -1.2979733 1.0619295 -2.88045 -0.78605235
2.3909314 -1.1328043 0.95843375 -2.763523 -0.7331918 2.1391563 -1.3446958 1.0758876
-2.9937425 -0.78132886 2.5030713 -1.1848938 1.0062929 -2.8733587 -0.7210023 2.2773235
-1.3885347 1.0948725 -3.0839336 -0.7740684 2.610794 -1.2361274 1.0510244 -2.9716692
-0.704205 2.4001284 -1.432395 1.1197268 -3.17205 -0.7707282 2.709836 -1.2830207
1.0965289 -3.060015 -0.691374 2.5173671 -1.4732686 1.1437305 -3.247764 -0.7684896
2.8101788 -1.3282628 1.1493534 -3.1345537 -0.67691666 2.6324172 -1.5168145 1.1761588
-3.3108864 -0.76368016 2.9080703 -1.3732678 1.1967715 -3.2030332 -0.66224724 2.7438648
-1.5571957 1.2178248 -3.370336 -0.7553486 2.9841752 -1.4273736 1.25166 -3.2664099
-0.64672405 2.8335772 -1.5993948 1.252583 -3.4322426 -0.7515057 3.0571246 -1.4759146
1.2967027 -3.3224113 -0.6297034 2.9187574 -1.6361738 1.2857523 -3.4894495 -0.7435748
3.1293 -1.5229136 1.3463442 -3.3783283 -0.6096686 2.9985309 -1.6710541 1.3212633
-3.5428421 -0.73802924 3.2024307 -1.5701606 1.3940735 -3.4230385 -0.59250647 3.0797565
-1.7088314 1.3620486 -3.5894856 -0.73054326 3.2699714 -1.61958 1.4473475 -3.4648635
-0.5758024 3.1531618 -1.7469532 1.4014418 -3.6331663 -0.72602105 3.335843 -1.6649723
1.493909 -3.5074577 -0.5583719 3.2211719 -1.7806815 1.4397086 -3.6741023 -0.7204547
3.3985171 -1.71331 1.5436013 -3.544119 -0.54118603 3.2866483 -1.8173773 1.4823306
-3.7115483 -0.7147191 3.4631236 -1.7570001 1.5881414 -3.5729356 -0.5244638 3.3517485
