notebooks/dice/results/ipd_bs64_2inner_om/run-2/params_om.npy (npy, 8128 bytes, 1 tensors)

array f4 [200, 2, 1, 5]
0	0x3ea3f60d	0.3202366
1	0xbe472956	-0.19449362
2	0xbee05a63	-0.4381896
3	0xbe29fa07	-0.16599284
4	0x3eba68f0	0.36408186
5	0x3e186b0f	0.1488459
6	0x3e993d67	0.2992966
7	0xbe9d9cbb	-0.30783638
8	0xbdf05eaf	-0.117368095
9	0xbeb193ce	-0.3468308
10	0x3ecec1ca	0.40382224
11	0xbef50c11	-0.47860768
12	0xbe4f7104	-0.20257956
13	0xbf765f47	-0.9623913
14	0x3eb78c07	0.3584902
15	0x3e29d9c8	0.16586983
16	0xbd7a7dc2	-0.06115509
17	0xbe9f47ae	-0.31109375
18	0xbf320e0f	-0.695527
19	0xbeb00250	-0.34376764
20	0x3ee4a241	0.4465504
21	0xbf1f2dee	-0.6217946
22	0xbddd3ec7	-0.108029895
23	0xbfce8c70	-1.6136608
24	0x3eb527e7	0.35382006
25	0x3e395ace	0.18101045
26	0xbe84557a	-0.25846463
27	0xbe7e3964	-0.2482658
28	0xbfb06b98	-1.3782835
29	0xbeafe304	-0.34352887
30	0x3efae490	0.49002504
31	0xbf3d2a5f	-0.7389278
32	0xbb3c545a	-0.00287368
33	0xc00354e4	-2.0520563
34	0x3eb0e8d6	0.3455264
35	0x3e4cb7c2	0.19991973
36	0xbec67009	-0.3875735
37	0xbe3aa920	-0.18228579
38	0xbfeeca7d	-1.8655545
39	0xbeb05ef9	-0.34447458
40	0x3f1eb446	0.61993825
41	0xbf5acfa0	-0.8547306
42	0x3e20d69c	0.15706867
43	0xc0145d83	-2.3182075
44	0x3eac4199	0.33643797
45	0x3e9ffe69	0.31248787
46	0xbf0026f5	-0.50059444
47	0xbcd8ce6e	-0.02646562
48	0xc00a8a48	-2.16469
49	0xbeb0d80c	-0.3453983
50	0x3f517213	0.8181469
51	0xbf77d883	-0.96814746
52	0x3eb0528c	0.34437978
53	0xc0207ad2	-2.5074964
54	0x3ea7f926	0.32807273
55	0x3f06170a	0.52378905
56	0xbf1f5831	-0.62243944
57	0x3e43cf4f	0.1912205
58	0xc016e81d	-2.357917
59	0xbeb11e6e	-0.34593529
60	0x3f96a9b7	1.1770543
61	0xbf87db0b	-1.0613722
62	0x3f07f799	0.5311218
63	0xc028f548	-2.6399708
64	0x3ea57026	0.32312125
65	0x3f6f1e80	0.93405914
66	0xbf396fdd	-0.72436315
67	0x3ec6cc5c	0.3882779
68	0xc01f26b5	-2.4867375
69	0xbeb0c48e	-0.3452496
70	0x3fbd2092	1.4775565
71	0xbf9166e5	-1.1359526
72	0x3f2b87fb	0.67004365
73	0xc0309c32	-2.7595334
74	0x3ea36b71	0.3191791
75	0x3fa2a85f	1.2707633
76	0xbf4e2cfd	-0.80537397
77	0x3f0a456b	0.54012173
78	0xc026d911	-2.6069987
79	0xbeb13ed6	-0.34618253
80	0x3fdd8ec4	1.7309194
81	0xbf99353a	-1.1969368
82	0x3f4bdef7	0.7963709
83	0xc036e071	-2.8574488
84	0x3e9f6d5d	0.31138125
85	0x3fc9a43b	1.5753244
86	0xbf60a6ef	-0.8775472
87	0x3f2d51a5	0.67702705
88	0xc02dd23b	-2.7159564
89	0xbeaf75e2	-0.34269625
90	0x3ff97fcd	1.9492127
91	0xbfa0d26c	-1.2564216
92	0x3f66f190	0.90212345
93	0xc03c8ed5	-2.9462178
94	0x3e9d0412	0.30667168
95	0x3fea9b2c	1.8328605
96	0xbf729714	-0.94761777
97	0x3f4c22ee	0.797408
98	0xc0343c0d	-2.8161652
99	0xbeaeae84	-0.3411752
100	0x4008e8a5	2.1391995
101	0xbfa82b53	-1.3138222
102	0x3f7ecf80	0.9953537
103	0xc041bb80	-3.027069
104	0x3e986e68	0.29771733
105	0x40030b7e	2.0475764
106	0xbf827c38	-1.0194159
107	0x3f682c06	0.90692174
108	0xc03a384f	-2.9096868
109	0xbead14a6	-0.33804816
110	0x401371f3	2.30383
111	0xbfafba77	-1.372878
112	0x3f89d84f	1.0769137
113	0xc0466eed	-3.1005204
114	0x3e956adc	0.2918309
115	0x400e90c8	2.2275867
116	0xbf8af82a	-1.0856984
117	0x3f802694	1.0011773
118	0xc03faaff	-2.9948118
119	0xbeab282d	-0.3342909
120	0x401d66fc	2.4594107
121	0xbfb61e87	-1.4228066
122	0x3f93650c	1.1515212
123	0xc04a6865	-3.1626217
124	0x3e92fbaa	0.2870763
125	0x40197ff6	2.398435
126	0xbf934e99	-1.1508361
127	0x3f8b5afc	1.0887141
128	0xc0443d1b	-3.0662296
129	0xbeaa4dcf	-0.33262488
130	0x4025a97b	2.5884693
131	0xbfbcfd5f	-1.4764823
132	0x3f9c86ef	1.2228678
133	0xc04e535a	-3.2238374
134	0x3e8f229e	0.27956098
135	0x40220351	2.5314524
136	0xbf9b938c	-1.2154403
137	0x3f962945	1.1731344
138	0xc0488c26	-3.133554
139	0xbea93c06	-0.33053607
140	0x402cf674	2.7025423
141	0xbfc4352b	-1.5328726
142	0x3fa4fb27	1.2889146
143	0xc051ef64	-3.2802362
144	0x3e8c4fc0	0.27404594
145	0x4029b80a	2.6518579
146	0xbfa432ff	-1.2828063
147	0x3fa09c5f	1.2547721
148	0xc04ca1fd	-3.197387
149	0xbea74b3b	-0.32674584
150	0x4033887c	2.8052053
151	0xbfca799a	-1.581836
152	0x3fac31a2	1.3452647
153	0xc055af49	-3.3388236
154	0x3e883e32	0.2660995
155	0x4030d4d3	2.7629898
156	0xbfabf20d	-1.3433243
157	0x3fa9cf32	1.3266356
158	0xc0506743	-3.2563026
159	0xbea443e3	-0.32083043
160	0x40391d70	2.8924217
161	0xbfd02b92	-1.6263297
162	0x3fb308ac	1.3987021
163	0xc05921d8	-3.3926907
164	0x3e85eb07	0.26155874
165	0x40376e6f	2.8661153
166	0xbfb2e13e	-1.3974988
167	0x3fb28c53	1.3949074
168	0xc0542197	-3.3145502
169	0xbea1514f	-0.31507346
170	0x403e1e09	2.9705832
171	0xbfd591a1	-1.6685067
172	0x3fb98fec	1.4497046
173	0xc05cb8d7	-3.4487817
174	0x3e82cd45	0.25547233
175	0x403ce291	2.9513285
176	0xbfb98385	-1.4493262
177	0x3fb9eb8e	1.452501
178	0xc057ab79	-3.3698409
179	0xbe9dc9c9	-0.30818012
180	0x4042b4f6	3.042295
181	0xbfdadee3	-1.709927
182	0x3fbfe08b	1.49904
183	0xc05fe22c	-3.4981794
184	0x3e7fb8e6	0.24972877
185	0x4042158c	3.032565
186	0xbfc0cbd4	-1.5062203
187	0x3fc1e564	1.514813
188	0xc05b037a	-3.4220872
189	0xbe99d945	-0.30048576
190	0x4047b5bd	3.1204674
191	0xbfdfae93	-1.7475151
192	0x3fc56630	1.542181
193	0xc0630738	-3.5473156
194	0x3e7a39bc	0.24436086
195	0x40473e3d	3.1131737
196	0xbfc72825	-1.5559126
197	0x3fc8dab8	1.5691748
198	0xc05de90e	-3.4673495
199	0xbe9653b4	-0.29360735
200	0x404c4375	3.1916173
201	0xbfe4b681	-1.7868196
202	0x3fcb10b5	1.5864474
203	0xc0660472	-3.5940213
204	0x3e738ef9	0.23785008
205	0x404c35fa	3.1907945
206	0xbfcd2d76	-1.6029499
207	0x3fd024fa	1.6261284
208	0xc060b44a	-3.511004
209	0xbe923b04	-0.2856065
210	0x40506a6e	3.256496
211	0xbfe971e9	-1.8237888
212	0x3fd1769f	1.6364325
213	0xc0689415	-3.6340382
214	0x3e688943	0.22708611
215	0x4050af27	3.2606905
216	0xbfd3ce8a	-1.6547406
217	0x3fd7683e	1.6828687
218	0xc06390fb	-3.555724
219	0xbe8ec5de	-0.27885336
220	0x4054946d	3.3215592
221	0xbfee53a3	-1.8619274
222	0x3fd79476	1.6842182
223	0xc06b2182	-3.6739202
224	0x3e6041fb	0.2190017
225	0x4054e1fd	3.3262932
226	0xbfd9e7a5	-1.7023817
227	0x3fdde9b9	1.7336951
228	0xc065f8b7	-3.5933053
229	0xbe87f848	-0.2655661
230	0x40590003	3.3906257
231	0xbff22217	-1.8916653
232	0x3fdceffc	1.7260737
233	0xc06d4690	-3.7074318
234	0x3e590ab6	0.21195492
235	0x405957f5	3.3959935
236	0xbfdf822b	-1.7461599
237	0x3fe3c2a6	1.7793777
238	0xc0680571	-3.625332
239	0xbe8256ba	-0.25456792
240	0x405cf0ff	3.4522092
241	0xbff69b30	-1.926611
242	0x3fe20c9c	1.7660098
243	0xc06f8eb1	-3.7430842
244	0x3e503b8c	0.20335215
245	0x405d6eb0	3.4598808
246	0xbfe52107	-1.7900704
247	0x3fe975af	1.8239039
248	0xc069d17c	-3.653411
249	0xbe7b62ef	-0.24549459
250	0x40608389	3.5080283
251	0xbffb373c	-1.9626231
252	0x3fe793fb	1.8092035
253	0xc071967a	-3.7748094
254	0x3e4844eb	0.1955754
255	0x406114c4	3.5168924
