notebooks/dice/results/ipd_bs64_2inner_om/run-2/params.npy (npy, 8128 bytes, 1 tensors)

array f4 [200, 2, 5]
0	0x3ebcebc3	0.36898622
1	0x3e237de7	0.15965997
2	0xbf13d48b	-0.5774619
3	0x3d86ccb8	0.06582016
4	0xbe2f32d7	-0.17109238
5	0x3f335b5e	0.7006129
6	0xbf387c19	-0.7206436
7	0xbdaa2d03	-0.083093666
8	0xbe519e33	-0.20470504
9	0xbecb2e82	-0.3968392
10	0x3eb634cb	0.35587153
11	0xbfbf9d76	-1.4969928
12	0xbe9bce14	-0.30430663
13	0xbfaf3b40	-1.3689957
14	0xbe1e55fc	-0.15462488
15	0x3fa18b12	1.2620566
16	0xbff4dfb4	-1.9130769
17	0x3f1b6868	0.60706186
18	0xc013dddd	-2.3104165
19	0xbe2e7af7	-0.17039095
20	0x3ec2c231	0.3803878
21	0xbfc9bbdc	-1.5760455
22	0x3dee35d8	0.11631364
23	0xc01a50ec	-2.411189
24	0xbe824451	-0.25442746
25	0x3fa0ecd0	1.257227
26	0xbff283e0	-1.8946495
27	0x3edc972a	0.4308408
28	0xc043669b	-3.0531375
29	0xbe6996aa	-0.2281138
30	0x3f147c9d	0.58002645
31	0xbfc5478b	-1.5412458
32	0x3e97254e	0.2952065
33	0xc0420473	-3.0315216
34	0xbe9a7255	-0.30165353
35	0x3fc58f1a	1.5434296
36	0xc00467f6	-2.0688453
37	0x3f50e57e	0.8160018
38	0xc05c292e	-3.4400134
39	0xbee2f494	-0.44327223
40	0x3fa58b9a	1.2933228
41	0xbfadb3b4	-1.3570466
42	0x3f83e3a3	1.0303844
43	0xc04a9c91	-3.165806
44	0xbe755bc8	-0.23960793
45	0x40073746	2.1127486
46	0xc0011dc2	-2.0174413
47	0x3fa496a5	1.2858473
48	0xc0619342	-3.524613
49	0xbf11cb04	-0.569504
50	0x3fe1dbe4	1.764523
51	0xbfb9547d	-1.4478909
52	0x3fda06d8	1.7033339
53	0xc0538b5a	-3.3053803
54	0xbecbe978	-0.3982656
55	0x40176c40	2.365982
56	0xc002ddc4	-2.0447855
57	0x3fca478d	1.5803086
58	0xc07032b8	-3.7530956
59	0xbf0c93fe	-0.5491332
60	0x40294563	2.64486
61	0xbfbd7abf	-1.4803084
62	0x3ff81d58	1.9383955
63	0xc062f686	-3.5462966
64	0xbec9db69	-0.3942521
65	0x404594d7	3.0872095
66	0xbffbcb86	-1.9671485
67	0x40083260	2.1280746
68	0xc07a63ca	-3.9123406
69	0xbe33e76e	-0.17568752
70	0x403a4057	2.910177
71	0xbfc99451	-1.5748388
72	0x3ffbd411	1.9674093
73	0xc06673e6	-3.6008239
74	0xbede7a26	-0.43452567
75	0x4051e6a2	3.2797017
76	0xc000374a	-2.0033746
77	0x4006a7c0	2.1039886
78	0xc0807d36	-4.0152845
79	0xbe397742	-0.181119
80	0x4052d754	3.2943926
81	0xbfc9f196	-1.5776851
82	0x4014b616	2.3236136
83	0xc07a1887	-3.907747
84	0xbe85c32a	-0.2612546
85	0x405404c1	3.3127902
86	0xbfff9cf9	-1.9969779
87	0x400f03da	2.23461
88	0xc0831fdb	-4.0976386
89	0xbeac1ad7	-0.33614227
90	0x406a9468	3.665308
91	0xbfe1eaaa	-1.7649739
92	0x401d3134	2.4561281
93	0xc0826de2	-4.0759134
94	0xbe4323e2	-0.19056657
95	0x406231df	3.534294
96	0xc009a87f	-2.1509092
97	0x4012d1a9	2.2940466
98	0xc084302c	-4.1308804
99	0xbedbadbf	-0.42905995
100	0x40712534	3.7678957
101	0xbfef1673	-1.8678726
102	0x40235858	2.552267
103	0xc0842309	-4.1292768
104	0xbdf4db1e	-0.11955856
105	0x406b2dfa	3.6746812
106	0xc010e53b	-2.263991
107	0x401310c8	2.2978992
108	0xc085f165	-4.185717
109	0xbed5bddd	-0.41746417
110	0x407d7384	3.9601755
111	0xc0020409	-2.0314963
112	0x40246b10	2.5690346
113	0xc085cc7a	-4.1812105
114	0xbe0c2e77	-0.136896
115	0x407701e2	3.85949
116	0xc019db92	-2.4040265
117	0x40115468	2.2707767
118	0xc08800b9	-4.250088
119	0xbeacbd14	-0.33738005
120	0x408458c1	4.135834
121	0xc0056aa5	-2.084634
122	0x402818a9	2.6265051
123	0xc088af9c	-4.2714367
124	0xbd296a4e	-0.041361146
125	0x408030ae	4.0059423
126	0xc01ede87	-2.482332
127	0x40159989	2.337496
128	0xc08a0b30	-4.3138657
129	0xbeab1aed	-0.3341898
130	0x40856477	4.168514
131	0xc00c63b1	-2.1935847
132	0x402dfe9b	2.718665
133	0xc08a72cc	-4.3265133
134	0x3c36c41c	0.011155155
135	0x4084434f	4.1332164
136	0xc02142b2	-2.5196958
137	0x401634a6	2.3469634
138	0xc08af2e7	-4.342151
139	0xbecedfd3	-0.4040514
140	0x408a6064	4.3242664
141	0xc01321e9	-2.2989447
142	0x402fb376	2.7453284
143	0xc08b2dcb	-4.34934
144	0x3d5d831a	0.054080106
145	0x4088bdc5	4.273165
146	0xc02a8352	-2.6642652
147	0x4014d6f0	2.3256187
148	0xc08d1541	-4.4088445
149	0xbece22a1	-0.40260795
150	0x408ddb2a	4.4330034
151	0xc017607a	-2.3652635
152	0x40349f8e	2.8222384
153	0xc08cfab0	-4.4056015
154	0x3e59c9dc	0.2126841
155	0x4089eb89	4.310002
156	0xc02b5a9e	-2.6774058
157	0x4013bd01	2.308411
158	0xc08ea110	-4.457161
159	0xbee9d6b0	-0.45671606
160	0x408f5180	4.4786987
161	0xc0198182	-2.3985295
162	0x40365181	2.8487246
163	0xc08ebefb	-4.460813
164	0x3e8aef04	0.2713548
165	0x40876236	4.2307386
166	0xc0297ff8	-2.6484356
167	0x4013c97c	2.3091726
168	0xc0913ad8	-4.538433
169	0xbed1c0fe	-0.40967554
170	0x4090dea2	4.527177
171	0xc01dfdae	-2.4686084
172	0x4032e132	2.7949948
173	0xc08fc67c	-4.492979
174	0x3e864937	0.26227733
175	0x408947fb	4.2900367
176	0xc029046f	-2.6408956
177	0x401bd8c7	2.435106
178	0xc09409d6	-4.6262007
179	0xbed0221b	-0.4065102
180	0x4091860b	4.5476127
181	0xc022963c	-2.5404196
182	0x403d70eb	2.960017
183	0xc090545e	-4.5102987
184	0x3edbacc4	0.42905247
185	0x4089e4f4	4.3091984
186	0xc02c3145	-2.6905072
187	0x401b6833	2.4282348
188	0xc0955785	-4.6669335
189	0xbeed4bbe	-0.4634685
190	0x409702fb	4.719114
191	0xc026fea9	-2.6092932
192	0x4042b7e0	3.0424728
193	0xc0924b0a	-4.57166
194	0x3eeed8aa	0.46649677
195	0x408f3f19	4.4764524
196	0xc0323b5c	-2.784873
197	0x401963a5	2.3967068
198	0xc0994448	-4.789585
199	0xbf0cc5bf	-0.54989237
200	0x40990b81	4.7826543
201	0xc0297881	-2.64798
202	0x4049e007	3.1542985
203	0xc0909bce	-4.519019
204	0x3f288c20	0.65838814
205	0x408ffc38	4.4995384
206	0xc035687b	-2.834502
207	0x4023566b	2.5521495
208	0xc09b1157	-4.8458667
209	0xbf23c654	-0.639745
210	0x4099e0fb	4.8087134
211	0xc030c6b5	-2.762128
212	0x404672f1	3.1007655
213	0xc0918091	-4.546944
214	0x3f438089	0.76368004
215	0x40939d87	4.6129794
216	0xc034da9d	-2.825843
217	0x40264fc3	2.5986183
218	0xc09c4bd4	-4.8842564
219	0xbf3a44fd	-0.7276152
220	0x409b7f6a	4.8593035
221	0xc034ee07	-2.827028
222	0x4048dbca	3.1384149
223	0xc0924c75	-4.571833
224	0x3f57ad33	0.84248656
225	0x40952a06	4.66138
226	0xc0346ccc	-2.8191404
227	0x402abac3	2.667649
228	0xc09d5fce	-4.917945
229	0xbf281f25	-0.6567252
230	0x409ebc21	4.960465
231	0xc03e2d51	-2.971516
232	0x4049c084	3.1523752
233	0xc092429f	-4.5706325
234	0x3f895d2b	1.0731558
235	0x40998ba7	4.7982974
236	0xc034814c	-2.8203917
237	0x402f2ce4	2.737115
238	0xc09eda38	-4.964138
239	0xbf2c6ba4	-0.67351747
240	0x409fb700	4.991089
241	0xc0424218	-3.035284
242	0x404b48ac	3.1763105
243	0xc091a8f9	-4.5518765
244	0x3f8e5820	1.1120644
245	0x409da837	4.926784
246	0xc037b571	-2.8704493
247	0x402e838b	2.7267787
248	0xc09f25e1	-4.973374
249	0xbf45615a	-0.7710167
250	0x40a11278	5.0335045
251	0xc04229b6	-3.0337958
252	0x404cbc6d	3.1990006
253	0xc0902b2c	-4.50527
254	0x3fb1f5f7	1.3903188
255	0x409fb051	4.990273
