notebooks/dice/results/ipd_bs64_original/run-3/params.npy (npy, 17648 bytes, 1 tensors)

array f8 [219, 2, 5]
000000 00 00 00 e0 0a a4 d2 bf 00 00 00 80 0c 84 e4 bf
       -0.29126235842704773 -0.6411192417144775
000010 00 00 00 40 57 c8 ee 3f 00 00 00 00 d7 76 e5 bf
       0.9619556665420532 -0.6707568168640137
000020 00 00 00 40 af 71 e1 3f 00 00 00 20 c0 96 ec 3f
       0.5451275110244751 0.8934021592140198
000030 00 00 00 80 5d e4 02 c0 00 00 00 e0 47 0b a4 bf
       -2.361506462097168 -0.039148565381765366
000040 00 00 00 00 85 c7 df 3f 00 00 00 a0 97 20 00 40
       0.4965527057647705 2.01591420173645
000050 00 00 00 40 ab ff c0 3f 00 00 00 00 96 ba 24 c0
       0.13280239701271057 -10.364425659179688
000060 00 00 00 40 ef b9 2f 40 00 00 00 c0 34 f6 20 c0
       15.863153457641602 -8.480871200561523
000070 00 00 00 20 0a f8 10 c0 00 00 00 80 dd f9 25 40
       -4.2422261238098145 10.988018035888672
000080 00 00 00 20 e3 94 fd bf 00 00 00 60 03 91 20 40
       -1.8488494157791138 8.283228874206543
000090 00 00 00 20 22 a4 31 c0 00 00 00 80 3a 9a 06 40
       -17.641145706176758 2.8253068923950195
0000a0 00 00 00 c0 ed 75 0d c0 00 00 00 c0 95 ba 24 c0
       -3.682582378387451 -10.364423751831055
0000b0 00 00 00 20 ee b9 2f 40 00 00 00 c0 99 f3 20 c0
       15.863144874572754 -8.47578239440918
0000c0 00 00 00 e0 8f 03 10 c0 00 00 00 a0 49 f5 25 40
       -4.003478527069092 10.979077339172363
0000d0 00 00 00 40 91 34 00 c0 00 00 00 e0 6f cf 20 40
       -2.025667667388916 8.405150413513184
0000e0 00 00 00 00 22 a4 31 c0 00 00 00 a0 ae 0b 0c 40
       -17.641143798828125 3.505704164505005
0000f0 00 00 00 c0 29 70 0e c0 00 00 00 a0 95 ba 24 c0
       -3.80476713180542 -10.364422798156738
000100 00 00 00 a0 ed b9 2f 40 00 00 00 60 9c f1 20 c0
       15.863141059875488 -8.471896171569824
000110 00 00 00 20 12 c1 0f c0 00 00 00 40 da f2 25 40
       -3.9692728519439697 10.974321365356445
000120 00 00 00 e0 b0 2e 00 c0 00 00 00 60 89 ad 20 40
       -2.0227982997894287 8.33893871307373
000130 00 00 00 00 22 a4 31 c0 00 00 00 20 de d1 0c 40
       -17.641143798828125 3.6024744510650635
000140 00 00 00 60 b2 70 0f c0 00 00 00 a0 95 ba 24 c0
       -3.930027723312378 -10.364422798156738
000150 00 00 00 60 ed b9 2f 40 00 00 00 80 c5 ef 20 c0
       15.863139152526855 -8.468303680419922
000160 00 00 00 c0 2b 76 0f c0 00 00 00 60 5a f1 25 40
       -3.9327006340026855 10.971392631530762
000170 00 00 00 00 5f 2c 00 c0 00 00 00 e0 a1 93 20 40
       -2.021665573120117 8.288344383239746
000180 00 00 00 00 22 a4 31 c0 00 00 00 20 af 9e 0e 40
       -17.641143798828125 3.8274824619293213
000190 00 00 00 20 ad 40 10 c0 00 00 00 60 95 ba 24 c0
       -4.063160419464111 -10.364420890808105
0001a0 00 00 00 40 ed b9 2f 40 00 00 00 e0 b6 ef 20 c0
       15.863138198852539 -8.468192100524902
0001b0 00 00 00 c0 97 34 0f c0 00 00 00 20 6a f0 25 40
       -3.9006800651550293 10.969559669494629
0001c0 00 00 00 e0 f4 83 04 c0 00 00 00 a0 77 d6 20 40
       -2.56443190574646 8.4188814163208
0001d0 00 00 00 00 22 a4 31 c0 00 00 00 60 11 2a 06 40
       -17.641143798828125 2.770540952682495
0001e0 00 00 00 c0 d9 76 10 c0 00 00 00 60 95 ba 24 c0
       -4.11606502532959 -10.364420890808105
0001f0 00 00 00 c0 ec b9 2f 40 00 00 00 20 6d f1 20 c0
       15.863134384155273 -8.471535682678223
000200 00 00 00 40 d8 31 0d c0 00 00 00 40 ea ef 25 40
       -3.6493382453918457 10.968584060668945
000210 00 00 00 20 e2 83 04 c0 00 00 00 80 cd cd 20 40
       -2.5643961429595947 8.401958465576172
000220 00 00 00 e0 21 a4 31 c0 00 00 00 40 01 ad 11 40
       -17.641141891479492 4.418950080871582
000230 00 00 00 00 57 f1 10 c0 00 00 00 60 95 ba 24 c0
       -4.235683441162109 -10.364420890808105
000240 00 00 00 c0 ec b9 2f 40 00 00 00 c0 68 f0 20 c0
       15.863134384155273 -8.469549179077148
000250 00 00 00 c0 fc f1 10 c0 00 00 00 c0 a4 ef 25 40
       -4.236315727233887 10.968053817749023
000260 00 00 00 20 e2 83 04 c0 00 00 00 80 2f c9 20 40
       -2.5643961429595947 8.392940521240234
000270 00 00 00 e0 21 a4 31 c0 00 00 00 c0 85 86 12 40
       -17.641141891479492 4.631369590759277
000280 00 00 00 80 9d 45 11 c0 00 00 00 60 95 ba 24 c0
       -4.317983627319336 -10.364420890808105
000290 00 00 00 c0 ec b9 2f 40 00 00 00 00 68 f0 20 c0
       15.863134384155273 -8.46954345703125
0002a0 00 00 00 c0 81 07 11 c0 00 00 00 e0 cf ee 25 40
       -4.257330894470215 10.966429710388184
0002b0 00 00 00 20 e2 83 04 c0 00 00 00 60 b7 c5 20 40
       -2.5643961429595947 8.386164665222168
0002c0 00 00 00 e0 21 a4 31 c0 00 00 00 40 2a a5 10 40
       -17.641141891479492 4.161293983459473
0002d0 00 00 00 c0 c0 6f 11 c0 00 00 00 60 95 ba 24 c0
       -4.359133720397949 -10.364420890808105
0002e0 00 00 00 c0 ec b9 2f 40 00 00 00 20 17 ef 20 c0
       15.863134384155273 -8.466973304748535
0002f0 00 00 00 c0 e7 ca 11 c0 00 00 00 e0 b2 ee 25 40
       -4.448149681091309 10.966208457946777
000300 00 00 00 60 ce 83 04 c0 00 00 00 80 54 c3 20 40
       -2.5643584728240967 8.38150405883789
000310 00 00 00 e0 21 a4 31 c0 00 00 00 60 43 b7 13 40
       -17.641141891479492 4.9289679527282715
000320 00 00 00 c0 5c d1 11 c0 00 00 00 60 93 ba 24 c0
       -4.454455375671387 -10.364405632019043
000330 00 00 00 c0 ec b9 2f 40 00 00 00 20 4c ed 20 c0
       15.863134384155273 -8.463471412658691
000340 00 00 00 80 27 44 11 c0 00 00 00 80 9e ee 25 40
       -4.316556930541992 10.966053009033203
000350 00 00 00 a0 b1 49 04 c0 00 00 00 c0 c0 bc 20 40
       -2.5359833240509033 8.368658065795898
000360 00 00 00 e0 21 a4 31 c0 00 00 00 40 57 4e 15 40
       -17.641141891479492 5.326504707336426
000370 00 00 00 80 c6 fa 11 c0 00 00 00 60 93 ba 24 c0
       -4.494897842407227 -10.364405632019043
000380 00 00 00 c0 ec b9 2f 40 00 00 00 20 4c ed 20 c0
       15.863134384155273 -8.463471412658691
000390 00 00 00 80 91 65 11 c0 00 00 00 60 91 ee 25 40
       -4.349187850952148 10.96595287322998
0003a0 00 00 00 a0 b1 49 04 c0 00 00 00 80 f6 bb 20 40
       -2.5359833240509033 8.367115020751953
0003b0 00 00 00 e0 21 a4 31 c0 00 00 00 c0 71 61 14 40
       -17.641141891479492 5.095160484313965
0003c0 00 00 00 00 72 36 12 c0 00 00 00 60 93 ba 24 c0
       -4.553169250488281 -10.364405632019043
0003d0 00 00 00 c0 ec b9 2f 40 00 00 00 20 4c ed 20 c0
       15.863134384155273 -8.463471412658691
0003e0 00 00 00 20 7c 36 12 c0 00 00 00 00 8c ee 25 40
       -4.553207874298096 10.965911865234375
0003f0 00 00 00 a0 b1 49 04 c0 00 00 00 60 a0 bb 20 40
       -2.5359833240509033 8.36645793914795
000400 00 00 00 e0 21 a4 31 c0 00 00 00 60 1e 3a 13 40
       -17.641141891479492 4.806756496429443
000410 00 00 00 20 cd 59 12 c0 00 00 00 e0 92 ba 24 c0
       -4.587696552276611 -10.364401817321777
000420 00 00 00 c0 ec b9 2f 40 00 00 00 00 50 ec 20 c0
       15.863134384155273 -8.4615478515625
000430 00 00 00 00 b1 19 13 c0 00 00 00 c0 a4 ed 25 40
       -4.775089263916016 10.964147567749023
000440 00 00 00 20 f7 37 04 c0 00 00 00 e0 88 b8 20 40
       -2.527326822280884 8.360419273376465
000450 00 00 00 e0 21 a4 31 c0 00 00 00 c0 c3 b3 11 40
       -17.641141891479492 4.425551414489746
000460 00 00 00 c0 83 92 12 c0 00 00 00 a0 92 ba 24 c0
       -4.643080711364746 -10.364399909973145
000470 00 00 00 c0 ec b9 2f 40 00 00 00 c0 4f eb 20 c0
       15.863134384155273 -8.459592819213867
000480 00 00 00 e0 2a 9f 13 c0 00 00 00 40 a2 ed 25 40
       -4.905436992645264 10.964128494262695
000490 00 00 00 00 e5 30 04 c0 00 00 00 40 2e b0 20 40
       -2.523874282836914 8.34410285949707
0004a0 00 00 00 e0 21 a4 31 c0 00 00 00 00 81 64 12 40
       -17.641141891479492 4.598148345947266
0004b0 00 00 00 80 1a b9 12 c0 00 00 00 c0 90 ba 24 c0
       -4.680765151977539 -10.364385604858398
0004c0 00 00 00 c0 ec b9 2f 40 00 00 00 c0 b2 e9 20 c0
       15.863134384155273 -8.456441879272461
0004d0 00 00 00 20 88 4c 13 c0 00 00 00 c0 a0 ed 25 40
       -4.824738025665283 10.964117050170898
0004e0 00 00 00 c0 c5 e1 03 c0 00 00 00 00 60 a6 20 40
       -2.4852404594421387 8.324951171875
0004f0 00 00 00 e0 21 a4 31 c0 00 00 00 40 26 6a 13 40
       -17.641141891479492 4.85366153717041
000500 00 00 00 40 22 75 13 c0 00 00 00 20 90 ba 24 c0
       -4.864388465881348 -10.364380836486816
000510 00 00 00 c0 ec b9 2f 40 00 00 00 c0 17 e8 20 c0
       15.863134384155273 -8.453306198120117
000520 00 00 00 80 94 f3 12 c0 00 00 00 a0 07 ea 25 40
       -4.737871170043945 10.9570894241333
000530 00 00 00 00 a6 c6 03 c0 00 00 00 e0 3c aa 20 40
       -2.471996307373047 8.33249568939209
000540 00 00 00 e0 21 a4 31 c0 00 00 00 a0 49 d7 14 40
       -17.641141891479492 5.210241794586182
000550 00 00 00 40 d0 98 13 c0 00 00 00 20 90 ba 24 c0
       -4.899231910705566 -10.364380836486816
000560 00 00 00 c0 ec b9 2f 40 00 00 00 20 4f e7 20 c0
       15.863134384155273 -8.451775550842285
000570 00 00 00 40 9f 97 12 c0 00 00 00 c0 07 ea 25 40
       -4.648068428039551 10.957090377807617
000580 00 00 00 40 8c 15 04 c0 00 00 00 60 36 a9 20 40
       -2.510521411895752 8.330492973327637
000590 00 00 00 e0 21 a4 31 c0 00 00 00 c0 3e ae 16 40
       -17.641141891479492 5.670161247253418
0005a0 00 00 00 40 05 cd 13 c0 00 00 00 00 90 ba 24 c0
       -4.9502153396606445 -10.3643798828125
0005b0 00 00 00 c0 ec b9 2f 40 00 00 00 a0 41 e7 20 c0
       15.863134384155273 -8.451672554016113
0005c0 00 00 00 c0 42 38 12 c0 00 00 00 a0 07 ea 25 40
       -4.5549421310424805 10.9570894241333
0005d0 00 00 00 a0 fd 0e 04 c0 00 00 00 40 42 a7 20 40
       -2.507319688796997 8.326677322387695
0005e0 00 00 00 e0 21 a4 31 c0 00 00 00 20 ab 0d 16 40
       -17.641141891479492 5.51334810256958
0005f0 00 00 00 80 19 ed 13 c0 00 00 00 00 90 ba 24 c0
       -4.981542587280273 -10.3643798828125
000600 00 00 00 c0 ec b9 2f 40 00 00 00 20 40 e7 20 c0
       15.863134384155273 -8.451661109924316
000610 00 00 00 00 66 16 13 c0 00 00 00 40 09 ea 25 40
       -4.771873474121094 10.957101821899414
000620 00 00 00 a0 fc 0d 04 c0 00 00 00 a0 b5 a6 20 40
       -2.5068295001983643 8.325604438781738
000630 00 00 00 e0 21 a4 31 c0 00 00 00 c0 a1 53 15 40
       -17.641141891479492 5.331671714782715
000640 00 00 00 00 c9 0d 14 c0 00 00 00 00 90 ba 24 c0
       -5.013462066650391 -10.3643798828125
000650 00 00 00 c0 ec b9 2f 40 00 00 00 a0 3b e7 20 c0
       15.863134384155273 -8.451626777648926
000660 00 00 00 a0 e6 65 13 c0 00 00 00 80 08 ea 25 40
       -4.849512577056885 10.957096099853516
000670 00 00 00 c0 be 0b 04 c0 00 00 00 00 d7 a5 20 40
       -2.505734920501709 8.323905944824219
000680 00 00 00 e0 21 a4 31 c0 00 00 00 60 a4 75 14 40
       -17.641141891479492 5.114884853363037
000690 00 00 00 80 ba 33 14 c0 00 00 00 00 90 ba 24 c0
       -5.050516128540039 -10.3643798828125
0006a0 00 00 00 c0 ec b9 2f 40 00 00 00 a0 3b e7 20 c0
       15.863134384155273 -8.451626777648926
0006b0 00 00 00 c0 b4 19 13 c0 00 00 00 40 08 ea 25 40
       -4.775103569030762 10.957094192504883
0006c0 00 00 00 c0 be 0b 04 c0 00 00 00 c0 d3 a5 20 40
       -2.505734920501709 8.323881149291992
0006d0 00 00 00 e0 21 a4 31 c0 00 00 00 c0 fd 63 13 40
       -17.641141891479492 4.847647666931152
0006e0 00 00 00 40 35 5a 14 c0 00 00 00 a0 8f ba 24 c0
       -5.0880937576293945 -10.36437702178955
0006f0 00 00 00 c0 ec b9 2f 40 00 00 00 c0 11 e7 20 c0
       15.863134384155273 -8.45130729675293
000700 00 00 00 e0 43 c7 12 c0 00 00 00 20 08 ea 25 40
       -4.694594860076904 10.957093238830566
000710 00 00 00 a0 f0 fa 03 c0 00 00 00 60 d2 a2 20 40
       -2.4975292682647705 8.318011283874512
000720 00 00 00 e0 21 a4 31 c0 00 00 00 80 a6 01 12 40
       -17.641141891479492 4.501611709594727
000730 00 00 00 20 bb 79 14 c0 00 00 00 40 8f ba 24 c0
       -5.11887788772583 -10.364374160766602
000740 00 00 00 c0 ec b9 2f 40 00 00 00 a0 ef e6 20 c0
       15.863134384155273 -8.45104694366455
000750 00 00 00 80 e2 6e 12 c0 00 00 00 e0 08 ea 25 40
       -4.608285903930664 10.957098960876465
000760 00 00 00 40 8e f7 03 c0 00 00 00 20 e2 9f 20 40
       -2.4958767890930176 8.312272071838379
000770 00 00 00 e0 21 a4 31 c0 00 00 00 20 af 11 10 40
       -17.641141891479492 4.017269611358643
000780 00 00 00 e0 c5 a1 14 c0 00 00 00 40 8f ba 24 c0
       -5.1579813957214355 -10.364374160766602
000790 00 00 00 c0 ec b9 2f 40 00 00 00 a0 ef e6 20 c0
       15.863134384155273 -8.45104694366455
0007a0 00 00 00 60 66 ad 12 c0 00 00 00 00 08 ea 25 40
       -4.669335842132568 10.95709228515625
0007b0 00 00 00 40 6e f7 03 c0 00 00 00 80 56 9f 20 40
       -2.4958157539367676 8.311206817626953
0007c0 00 00 00 e0 21 a4 31 c0 00 00 00 40 fb ee 09 40
       -17.641141891479492 3.241690158843994
0007d0 00 00 00 20 71 c0 14 c0 00 00 00 40 8f ba 24 c0
       -5.187931537628174 -10.364374160766602
0007e0 00 00 00 c0 ec b9 2f 40 00 00 00 00 09 e6 20 c0
       15.863134384155273 -8.449287414550781
0007f0 00 00 00 40 7d ed 12 c0 00 00 00 c0 06 ea 25 40
       -4.7319231033325195 10.957082748413086
