notebooks/dice/results/ipd_bs64_magic/run-1/params.npy (npy, 8128 bytes, 1 tensors)

array f4 [200, 2, 5]
000000 98 8a 53 3f 80 f8 b0 bc 00 08 37 be d4 18 4f 3f
       0.8263335 -0.021602869 -0.17874146 0.8089726
000010 8c db 3e 3f 38 4a cb be b4 53 33 bf a4 fc 13 3f
       0.7455375 -0.39705062 -0.70049596 0.57807374
000020 c0 9d 77 3e 70 a0 62 3e 97 6b 4f 3f 18 b0 d4 bd
       0.2418127 0.22131515 0.81023544 -0.1038515
000030 af f6 9a be cf db 1c 3f 84 10 35 3f fd c6 58 be
       -0.3026633 0.612729 0.70728326 -0.21169658
000040 16 c9 4d bf 4b 70 54 3f 68 74 89 3e 7a 26 36 3e
       -0.8038496 0.82983845 0.26846623 0.17788115
000050 47 bf 50 3f 13 a2 1a bf 72 68 a7 be cc 60 a8 3e
       0.81541866 -0.60403556 -0.32696873 0.3288635
000060 9b d9 3c 3f f4 bc 6a bd c0 d4 89 bf 0c 5f 7b 3f
       0.7376954 -0.057309106 -1.0768051 0.98191905
000070 88 14 9c 3e e8 c7 bf 3d 2e 30 46 3f 5c 20 8e bf
       0.30484414 0.09364301 0.77417266 -1.1103625
000080 36 f9 fe be de af 24 3e 7f 93 3c 3f 7a c4 67 3d
       -0.49799508 0.16082713 0.7366256 0.05658386
000090 7b c0 9e bf 91 49 7f 3f 02 e5 cf 3d 4c ab 9e 3d
       -1.240249 0.9972163 0.10151102 0.07747516
0000a0 03 96 5b 3f 3a b3 9b bf a6 a5 25 bf 00 fb 9a bc
       0.85775775 -1.2164071 -0.64705884 -0.018918514
0000b0 55 83 3a 3f 62 3b b5 3e 83 51 a7 bf 8c e8 7a 3f
       0.72856647 0.35396868 -1.307175 0.9801109
0000c0 41 e5 2f be 4a 75 c1 3d 80 ee 83 3f 6f a4 95 bf
       -0.17177297 0.09446199 1.030716 -1.1690806
0000d0 fb ed 1c bf c1 c4 f7 bd 2c d5 44 3f 14 af ba 3e
       -0.6130063 -0.12098075 0.76887774 0.364617
0000e0 96 16 b7 bf 4e 8f 69 3f 48 4f ec be b9 d2 05 3d
       -1.4303768 0.9123429 -0.46154237 0.032671664
0000f0 54 23 7e 3f e5 6c a1 bf 08 fb db be 6c f1 a5 be
       0.99272656 -1.2611357 -0.4296496 -0.32410753
000100 90 4f 44 3f 04 84 f9 3e 93 73 b8 bf c4 14 65 3f
       0.766839 0.48733532 -1.441027 0.8948481
000110 3e 2f 12 bf 8c e2 71 3c 59 73 89 3f 0a 07 b9 bf
       -0.57103336 0.014763486 1.0738326 -1.4455273
000120 c4 fd ce be 60 3c 2c bf 08 ad 3b 3f bb 41 31 3f
       -0.40427983 -0.67279625 0.733109 0.6924092
000130 cc b9 b2 bf 52 15 84 3f 2d 1d 3a bf 22 4d eb bc
       -1.3962951 1.0319006 -0.7270077 -0.028723303
000140 cd 7b 92 3f e4 0d b9 bf c8 b7 aa be d6 40 5e bf
       1.1444031 -1.4457364 -0.3334334 -0.8681768
000150 00 0b 39 3f 0e f8 4a 3f fe 85 ab bf b0 1b 9f 3f
       0.7228241 0.7928475 -1.3400266 1.2430325
000160 43 46 50 bf ff 8d 50 3d 48 33 a6 3f ed a6 c4 bf
       -0.8135721 0.050916668 1.29844 -1.5363442
000170 78 39 f0 be 93 99 94 bf b2 87 35 3f 1a 21 74 3f
       -0.46918845 -1.1609367 0.7091018 0.9536301
000180 f3 97 9a bf e9 d3 ab 3f be ff 67 bf be da 6b 3d
       -1.2077621 1.3424045 -0.90624607 0.057581656
000190 65 91 a7 3f df 5b c2 bf 56 6b 96 be dc 32 9a bf
       1.3091246 -1.5184287 -0.29378766 -1.2046771
0001a0 63 61 39 3f d1 35 88 3f 5f 98 93 bf 5c fa a6 3f
       0.72414225 1.0641423 -1.1530875 1.3045154
0001b0 f4 3c 9a bf b4 c4 e7 3c eb 22 bd 3f 91 71 c4 bf
       -1.2049851 0.028292038 1.4776281 -1.5347158
0001c0 98 3a 17 be 28 3a 8f bf cf d2 35 3f 2d b2 8e 3f
       -0.14768445 -1.1189623 0.71024793 1.1148125
0001d0 16 a6 a3 bf f8 51 91 3f 26 59 bc bf 34 ee 55 3d
       -1.278506 1.135314 -1.4714706 0.05222912
0001e0 b6 ed c9 3f 94 c5 c1 bf 7a b9 0d bd 85 56 a0 bf
       1.5775669 -1.5138421 -0.034600712 -1.2526404
0001f0 fb 71 3f 3f 6e 73 ac 3f f1 12 ae bf 7f ca 9b 3f
       0.74783295 1.3472726 -1.359953 1.2171172
000200 42 a1 df bf a9 00 61 3d c3 eb e2 3f 5b f6 c2 bf
       -1.7471087 0.05493227 1.7728199 -1.5231432
000210 b8 09 2d 3e 4c 97 9d bf 51 c4 32 3f ee 98 be 3f
       0.16898239 -1.2311797 0.69830805 1.489042
000220 a3 1d a7 bf e8 df 9c 3f 54 36 04 c0 ee 7f 7f 3d
       -1.305592 1.2255831 -2.065816 0.062377863
000230 bd 5b 03 40 57 7e bf bf 98 65 d1 3e 4b db 8c bf
       2.0524743 -1.4960431 0.40897822 -1.1004423
000240 42 c9 2b 3f 05 b8 d0 3f 58 f1 bb bf 75 e0 9d 3f
       0.6710397 1.6306158 -1.4683027 1.2334124
000250 d0 56 16 c0 f6 23 08 3e 42 99 13 40 84 23 ae bf
       -2.3490486 0.13294968 2.306229 -1.3604589
000260 af 34 08 3f 7c ad 91 bf 82 3a 37 3f 82 89 e0 3f
       0.5320539 -1.1381068 0.7157365 1.7541964
000270 81 be ca bf 56 57 96 3f 5d c5 1b c0 5e 70 ef 3d
       -1.5839387 1.1745403 -2.433921 0.11691354
000280 fc 96 1f 40 55 ef a3 bf 21 e3 28 3f d2 e2 7a bf
       2.4935904 -1.2807413 0.6597157 -0.9800235
000290 50 ea 49 3f 81 66 ef 3f fe 8e c5 bf 8f b1 99 3f
       0.7887316 1.8703157 -1.5434263 1.2007312
0002a0 ea b6 24 c0 8d ad 29 3e 18 a5 32 40 70 54 88 bf
       -2.5736642 0.1657011 2.7913265 -1.0650768
0002b0 18 aa 78 3f 73 5f 91 bf 34 14 55 3f b6 02 05 40
       0.9713454 -1.1357254 0.8323395 2.0782905
0002c0 8d 75 cd bf bb ef 9d 3f a1 1e 27 c0 f2 7e 5a 3e
       -1.6051499 1.2338785 -2.6112444 0.21337488
0002d0 e4 75 44 40 5c e7 89 bf c6 c9 90 3f 84 1f 76 bf
       3.0696955 -1.077373 1.1311576 -0.9614184
0002e0 e4 54 7a 3f f6 56 06 40 13 7e db bf 16 34 9a 3f
       0.9778578 2.0990577 -1.714785 1.2047145
0002f0 87 88 31 c0 2c 25 96 3e cc 8d 50 40 ac b9 71 bf
       -2.773958 0.29325235 3.2586546 -0.9442394
000300 07 64 98 3f 6a 3e 69 bf e2 76 80 3f b9 43 12 40
       1.1905526 -0.9111086 1.003628 2.2853835
000310 44 04 ee bf 60 bc 9f 3f 45 94 36 c0 81 da 9a 3e
       -1.8595052 1.2479362 -2.8527997 0.3024483
000320 8d 97 5c 40 d8 f3 48 bf de e0 b3 3f 9c 01 54 bf
       3.44675 -0.78497076 1.4052999 -0.82814956
000330 76 eb 7f 3f 0e 63 12 40 ad 86 f8 bf 33 e2 88 3f
       0.9996866 2.2872958 -1.94161 1.069403
000340 19 87 3c c0 a3 e7 85 3e 12 b7 67 40 e5 cf 19 bf
       -2.9457457 0.26153287 3.6205487 -0.60082847
000350 4c d8 b4 3f 4e 1e 4d bf e4 0f 8a 3f 52 92 0f 40
       1.4128509 -0.80124366 1.07861 2.2433057
000360 2b 10 fb bf 40 cb 74 3f 38 d9 41 c0 8e 90 6d 3e
       -1.9614309 0.95622635 -3.028883 0.23199674
000370 a6 e2 71 40 69 57 00 bf f9 91 b6 3f 40 b4 36 bf
       3.7794585 -0.5013338 1.4263297 -0.7136879
000380 3a b1 90 3f 10 f7 11 40 43 18 fd bf d8 fb 43 3f
       1.1304085 2.2807045 -1.9773029 0.7655616
000390 de c7 45 c0 ae a4 5b 3e c8 bc 7a 40 d5 a6 da be
       -3.090324 0.21449539 3.9177723 -0.42705408
0003a0 1d 2d bf 3f 7f a5 36 bf 83 1d 98 3f 00 f3 0b 40
       1.4935642 -0.71346277 1.1884006 2.1867065
0003b0 4a cb 01 c0 f3 e0 17 3f 5f 63 47 c0 e0 85 14 3e
       -2.0280328 0.5932762 -3.1154401 0.14504194
0003c0 d6 27 83 40 94 44 60 be 4a db c3 3f d4 d8 42 bf
       4.098613 -0.2190116 1.5301297 -0.76112103
0003d0 e2 11 a0 3f fe 55 05 40 74 b2 07 c0 7a e7 dd 3e
       1.2505457 2.0833735 -2.120267 0.43340665
0003e0 5a f7 48 c0 cb d2 f6 3d a7 a2 84 40 07 4c 0d bf
       -3.1400971 0.12051924 4.144855 -0.55194134
0003f0 fc 79 d2 3f 78 7e 89 bf 66 6f 9d 3f 38 dc 1c 40
       1.6443477 -1.074172 1.2299621 2.450941
